bs16_lr0.1_weight.pt (torch, 240056 bytes, 7 tensors)

conv_1.weight f4 [16, 3, 3, 3]
0	0xbee93f7d	-0.4555625
1	0xbf346f7a	-0.704826
2	0xbed7a6e2	-0.4211951
3	0xbf17a3d6	-0.5923437
4	0xbf3e337f	-0.74297327
5	0xbf0cc413	-0.54986686
6	0xbf02cb7e	-0.51091754
7	0xbf484a16	-0.78238046
8	0xbeede652	-0.46464783
9	0x3f227376	0.6345743
10	0x3ee7d205	0.4527742
11	0x3f2ebb82	0.68254864
12	0x3f30e3b0	0.69097424
13	0x3f207880	0.6268387
14	0x3f068ef1	0.5256186
15	0x3f44d591	0.76888376
16	0x3eedcc8f	0.46445128
17	0x3edce07c	0.43140018
18	0x3ef5cd79	0.48008326
19	0xbf176faa	-0.5915476
20	0xbeef851c	-0.46781242
21	0x3f165e08	0.5873723
22	0xbf033a5d	-0.5126093
23	0xbf30e127	-0.69093555
24	0x3ed2efa2	0.4119845
25	0xbee0d399	-0.43911436
26	0xbf15accf	-0.5846681
27	0xbee47784	-0.44622433
28	0xbf203b23	-0.62590235
29	0xbf25309b	-0.6452729
30	0xbf2b50f1	-0.6692038
31	0xbf3e74c4	-0.7439692
32	0xbf13f817	-0.5780043
33	0xbf0406e3	-0.5157301
34	0x3f33315b	0.69997185
35	0xbf271169	-0.6526094
36	0xbf1650e6	-0.5871719
37	0xbf1c360f	-0.61019987
38	0xbf4a0173	-0.7890846
39	0xbf1a2915	-0.60218936
40	0xbf3e137c	-0.7424848
41	0x3f491758	0.78551245
42	0xbed911d7	-0.42396423
43	0xbf237fcd	-0.63866884
44	0x3ef9bde1	0.4877768
45	0xbefa79a7	-0.48920938
46	0xbee05c1c	-0.43820274
47	0xbf177c55	-0.5917409
48	0xbf3b3eb7	-0.7314257
49	0xbf1e57b1	-0.61852556
50	0xbf010c07	-0.5040898
51	0xbf357d12	-0.7089397
52	0xbf2737d3	-0.65319556
53	0xbf3c4a20	-0.73550606
54	0xbf34aed6	-0.7057928
55	0xbef7631d	-0.48317805
56	0xbf27da69	-0.6556764
57	0xbf0918b6	-0.5355333
58	0xbedf148d	-0.43570367
59	0xbf25afaf	-0.64721197
60	0xbefde884	-0.49591458
61	0xbf0d754d	-0.5525711
62	0xbf1f003f	-0.6210975
63	0xbf35f731	-0.7108031
64	0x3f020c81	0.5080033
65	0x3f293111	0.66090494
66	0xbf3ace42	-0.72970974
67	0x3f18f6d6	0.5975164
68	0x3f1afbe9	0.60540634
69	0xbf32c7da	-0.698362
70	0x3f0a706e	0.54077804
71	0x3f17f6ae	0.5936078
72	0xbf42ec4d	-0.76141816
73	0xbf412738	-0.7545047
74	0xbf2a8719	-0.6661239
75	0xbf3aece1	-0.730177
76	0xbf024599	-0.5088745
77	0x3f1ff099	0.624765
78	0xbf35ea72	-0.7106086
79	0xbf2f2d66	-0.6842865
80	0x3f3e54a6	0.74347913
81	0x3f1a060a	0.60165465
82	0x3f2b2339	0.6685062
83	0xbf3e05c9	-0.7422758
84	0x3f48214e	0.7817582
85	0xbf38496f	-0.7198705
86	0xbf075223	-0.52859706
87	0x3ed39c6f	0.41330287
88	0xbf0353fe	-0.51300037
89	0xbf2c4e25	-0.6730674
90	0x3f03ebbc	0.5153158
91	0xbf3c642b	-0.73590344
92	0xbedfd4f2	-0.43717152
93	0xbf0e7337	-0.55644554
94	0xbee8410a	-0.4536212
95	0xbf231f6e	-0.6371983
96	0xbf022069	-0.50830704
97	0xbf07fca2	-0.5311986
98	0xbf20537c	-0.6262739
99	0x3f034661	0.51279265
100	0xbf47312b	-0.778094
101	0xbf397c8b	-0.7245566
102	0xbefb213d	-0.49048796
103	0xbf179aef	-0.59220785
104	0xbf327115	-0.697038
105	0xbf1f5c7d	-0.622505
106	0xbf10429e	-0.5635165
107	0xbf0294cd	-0.510083
108	0xbf47f2e8	-0.7810502
109	0xbed78efe	-0.42101282
110	0xbf125dad	-0.5717419
111	0xbf356baa	-0.7086741
112	0xbf2ce220	-0.6753254
113	0xbf006102	-0.5014802
114	0xbeef869b	-0.46782383
115	0xbed6743d	-0.41885558
116	0xbf4a667a	-0.79062617
117	0xbf39634c	-0.7241714
118	0xbee685c7	-0.4502394
119	0xbedc7645	-0.43058982
120	0xbf1972b7	-0.59940666
121	0xbf185d63	-0.59517497
122	0xbf38d4ba	-0.72199595
123	0xbf1b377b	-0.6063153
124	0xbf11df45	-0.5698131
125	0xbf1c1a61	-0.6097775
126	0xbf263a2f	-0.6493253
127	0xbf49fa6e	-0.7889775
128	0xbede6970	-0.43439817
129	0xbf12af5c	-0.5729883
130	0xbf13c2c2	-0.5771905
131	0xbf29df9c	-0.66356826
132	0xbf08a36c	-0.5337436
133	0xbeed11d3	-0.4630266
134	0x3f03a092	0.51416886
135	0x3f38b7bf	0.72155374
136	0x3f15c08b	0.5849692
137	0x3f4740c8	0.77833223
138	0x3f17420d	0.5908516
139	0x3ee3fee8	0.44530416
140	0x3f083b0d	0.53215104
141	0x3f322fff	0.69604486
142	0x3ee992c6	0.45619792
143	0x3f131ed6	0.57468927
144	0xbf1bc562	-0.6084806
145	0xbf0ebaef	-0.5575399
146	0xbf4197d2	-0.75622284
147	0xbef1fd3c	-0.47263515
148	0xbf019b43	-0.50627536
149	0xbf47a690	-0.7798853
150	0xbedecb20	-0.43514347
151	0xbf34b4e1	-0.705885
152	0xbf1dff7c	-0.61717963
153	0xbf141323	-0.578417
154	0xbeff6655	-0.4988276
155	0xbf4325ab	-0.7622935
156	0xbf1c9ea3	-0.6117956
157	0xbf49e0f2	-0.78858864
158	0xbf04752b	-0.51741284
159	0xbf355498	-0.70832205
160	0xbf00bda0	-0.50289345
161	0xbf2b5183	-0.6692125
162	0xbf1ce867	-0.6129212
163	0xbf2b809e	-0.6699313
164	0xbf21eecf	-0.6325502
165	0xbedfcd51	-0.4371133
166	0xbf4888d9	-0.7833381
167	0xbed93a61	-0.42427352
168	0xbf4a92c7	-0.79130214
169	0xbf1abb93	-0.60442466
170	0xbf16864b	-0.58798665
171	0x3ee44c31	0.4458938
172	0xbf2b26e1	-0.668562
173	0xbf201b40	-0.6254158
174	0x3f24fc7b	0.64447755
175	0x3eea42f0	0.45754194
176	0xbf1f4f01	-0.62229925
177	0xbf0c324c	-0.54764247
178	0x3f11e5c7	0.5699124
179	0xbee9fb3e	-0.45699495
180	0xbf1e77f8	-0.6190181
181	0xbf024048	-0.50879335
182	0xbefc2735	-0.49248663
183	0xbf43ce50	-0.7648668
184	0xbf1f6d03	-0.62275714
185	0xbeed8336	-0.46389169
186	0xbef2ec7c	-0.47446048
187	0xbf1389b7	-0.5763201
188	0xbed102df	-0.40822503
189	0x3eded7c7	0.43524
190	0x3f43b0f6	0.76441896
191	0x3f0e51f8	0.55593824
192	0x3f328b92	0.6974422
193	0x3f2f3b93	0.6845028
194	0x3f15ebff	0.58563226
195	0x3f0117a5	0.50426704
196	0x3f1ec7d1	0.62023646
197	0x3f09a23d	0.5376318
198	0x3f0a93d1	0.541318
199	0x3f43622d	0.7632168
200	0x3f17dcae	0.59321105
201	0x3f3640e0	0.7119274
202	0x3f49da4b	0.78848714
203	0x3f375f79	0.71630055
204	0x3ed809b8	0.42194915
205	0x3f1f8a2c	0.6232021
206	0x3f06720a	0.5251776
207	0x3f324dec	0.6965015
208	0x3f44263a	0.7662083
209	0x3f198a00	0.59976196
210	0x3f060db8	0.52364683
211	0x3f337c07	0.70111126
212	0x3f462482	0.77399457
213	0x3f2bbbf8	0.6708369
214	0x3f004ac3	0.5011408
215	0x3f3fc333	0.74907225
216	0xbf0a5180	-0.5403061
217	0xbf43cce4	-0.76484513
218	0xbf446d4d	-0.7672928
219	0xbf0be0ee	-0.5464009
220	0xbf3e3c64	-0.743109
221	0xbeed6ee3	-0.46373662
222	0xbf01bb19	-0.50676113
223	0xbf4483f8	-0.7676387
224	0xbf30abe9	-0.69012314
225	0xbf467764	-0.77525926
226	0xbedca980	-0.43098068
227	0xbf2ef2aa	-0.68339026
228	0xbed29ec8	-0.41136765
229	0xbed31037	-0.41223308
230	0xbf258084	-0.64649224
231	0xbf1b1918	-0.60585165
232	0xbf0a6c5d	-0.540716
233	0xbf273304	-0.6531222
234	0xbf0238d2	-0.5086795
235	0xbf0ef8ad	-0.558482
236	0xbf3d6e85	-0.73996764
237	0xbf1274c9	-0.5720945
238	0xbf346214	-0.70462155
239	0xbf335944	-0.70058084
240	0xbedd7295	-0.43251482
241	0xbf237e4c	-0.6386459
242	0xbf320ccc	-0.69550776
243	0x3f46dfe1	0.7768536
244	0x3f229c37	0.63519615
245	0x3f498efd	0.7873381
246	0x3f102c86	0.5631794
247	0x3f32e862	0.6988584
248	0x3ef1208b	0.4709514
249	0x3f1618d3	0.5863163
250	0x3f25ff03	0.6484224
251	0x3f1a68ec	0.6031635
252	0x3f0ce19b	0.55031747
253	0x3f340b31	0.70329577
254	0x3edc1a82	0.42988974
255	0x3f0a047b	0.53913087

conv_1.bias f4 [16]
0	0x3f44a8fe	0.7682036
1	0xbf2e8971	-0.6817847
2	0xbeeb9dd1	-0.46018842
3	0xbf15baf9	-0.5848842
4	0xbf44abee	-0.76824844
5	0x3f08bf75	0.5341714
6	0xbf179191	-0.5920649
7	0x3ef1c5c6	0.47221202
8	0xbf076bb6	-0.5289873
9	0xbee05abb	-0.43819222
10	0xbef4a364	-0.47780907
11	0xbf30bdb1	-0.69039446
12	0x3f297960	0.6620083
13	0xbf11fff8	-0.570312
14	0xbf06969c	-0.5257356
15	0xbf39b210	-0.72537327

conv_2.weight f4 [32, 16, 3, 3]
0	0xbf14a062	-0.58057225
1	0xbf2bee01	-0.6716004
2	0xbf0a3fad	-0.5400341
3	0xbf125fbb	-0.57177323
4	0xbf177660	-0.59165
5	0xbf27a923	-0.6549246
6	0xbf263ead	-0.64939386
7	0xbf1e5eb4	-0.61863256
8	0xbf1f7e7a	-0.6230236
9	0x3f1d62a4	0.6147864
10	0xbf2acebb	-0.66721696
11	0xbf072fdc	-0.528074
12	0xbf08e213	-0.5346996
13	0xbf22249a	-0.633371
14	0xbf065951	-0.52480036
15	0xbf12d819	-0.5736099
16	0xbf22a217	-0.6352858
17	0xbf2f00eb	-0.68360776
18	0xbf214c09	-0.63006645
19	0xbf220bef	-0.6329946
20	0xbf22c398	-0.635797
21	0xbf1dc08e	-0.6162194
22	0xbf15c5fe	-0.5850524
23	0xbf2e2984	-0.680321
24	0xbf29122f	-0.6604337
25	0xbf0c9e3c	-0.54928946
26	0xbf28b4c3	-0.6590082
27	0x3f07ef15	0.53099185
28	0x3f16225f	0.58646196
29	0x3f1b0dd7	0.6056799
30	0x3f123a29	0.57119995
31	0xbf20e500	-0.62849426
32	0x3f18ab4c	0.5963638
33	0xbf0ae4b9	-0.54255253
34	0xbf0b4c2b	-0.544131
35	0x3f17a8e1	0.59242064
36	0xbf12a3f6	-0.57281435
37	0xbf15d198	-0.5852294
38	0xbf2159d0	-0.6302767
39	0x3f150671	0.58212954
40	0xbf0a430e	-0.5400857
41	0xbf2c13ae	-0.6721753
42	0x3f0ed9d5	0.55801135
43	0xbf18ea5c	-0.59732604
44	0xbf2c854b	-0.6739089
45	0x3f0ddb21	0.5541249
46	0xbf2810a1	-0.65650374
47	0xbf1b68d3	-0.60706824
48	0xbf08bd8e	-0.5341424
49	0xbf230701	-0.6368256
50	0xbf2512aa	-0.64481604
51	0xbf086133	-0.53273314
52	0xbf0e2e3a	-0.55539286
53	0xbf16d22f	-0.58914465
54	0xbf18c8fd	-0.59681684
55	0xbf1918a4	-0.59803224
56	0x3f0959c5	0.536526
57	0x3f2e5a07	0.6810612
58	0xbf2d596d	-0.6771458
59	0x3f11f926	0.57020795
60	0x3f22baf0	0.63566494
61	0x3f218eda	0.631086
62	0xbf0f0f02	-0.55882275
63	0xbf1d9522	-0.61555684
64	0xbf107aca	-0.5643736
65	0xbf280855	-0.65637714
66	0x3f24720a	0.6423651
67	0xbf128e12	-0.5724803
68	0xbf2a9e98	-0.66648245
69	0x3f1d2e76	0.6139902
70	0xbf108acb	-0.5646178
71	0xbf2aa58d	-0.6665886
72	0x3f289156	0.65846765
73	0xbf0a7371	-0.540824
74	0x3f223c60	0.63373375
75	0xbf09faf4	-0.5389855
76	0x3f04a405	0.51812774
77	0x3f1affc5	0.60546523
78	0xbf2d8d79	-0.67793995
79	0xbf11022d	-0.56643945
80	0x3f083773	0.5320961
81	0xbf272303	-0.652878
82	0xbf17c80c	-0.5928962
83	0xbf2cd55f	-0.6751308
84	0xbf05c8d3	-0.5225956
85	0xbf0a93f2	-0.54131997
86	0xbf0e4f23	-0.55589503
87	0xbf1b3b13	-0.60637015
88	0xbf153c15	-0.582948
89	0xbf1f52c3	-0.6223566
90	0xbf236801	-0.6383057
91	0xbf0b2a13	-0.54361075
92	0xbf16ff43	-0.5898325
93	0x3f1d401d	0.61425954
94	0xbf223f42	-0.63377774
95	0xbf0ef3ce	-0.55840766
96	0x3f160a48	0.5860944
97	0xbf158ffb	-0.5842282
98	0x3f111037	0.56665367
99	0xbf0cc0ec	-0.54981875
100	0xbf164e1b	-0.5871293
101	0xbf1814d7	-0.594068
102	0xbf269608	-0.6507268
103	0xbf0a7333	-0.5408203
104	0xbf1f0377	-0.6211466
105	0x3f113042	0.5671426
106	0xbf25fb4b	-0.6483657
107	0xbf11fd6b	-0.5702731
108	0x3f116f4f	0.5681047
109	0x3f16a26d	0.5884159
110	0x3f0515e1	0.5198651
111	0xbf08af21	-0.53392226
112	0xbf205cdb	-0.62641686
113	0xbf09ba91	-0.538003
114	0xbf22ec9a	-0.63642275
115	0xbf24a6a1	-0.64316756
116	0xbf0dbd33	-0.5536682
117	0x3f14edc7	0.5817532
118	0xbf17a6bf	-0.5923881
119	0x3f05f28c	0.5232322
120	0x3f2e92fb	0.68193024
121	0x3f1d248f	0.6138391
122	0xbf11c362	-0.56938756
123	0x3f159d07	0.5844273
124	0x3f1ce91c	0.61293197
125	0xbf24f8d3	-0.64442176
126	0xbf2187f1	-0.63098055
127	0xbf0c644a	-0.5484053
128	0xbf24e0c3	-0.6440546
129	0xbf22ce74	-0.6359627
130	0xbf0ad5f3	-0.5423271
131	0xbf2549f6	-0.6456598
132	0x3f107875	0.564338
133	0x3f2685b2	0.6504775
134	0x3f255814	0.6458752
135	0xbf20aefa	-0.62766993
136	0xbf24cefc	-0.64378333
137	0x3f0677a4	0.5252631
138	0xbf0fd063	-0.5617735
139	0xbf140946	-0.5782665
140	0xbf0ed3f0	-0.5579214
141	0xbf213544	-0.629719
142	0x3f12394c	0.5711868
143	0xbf15f82f	-0.58581823
144	0x3f0ec6f9	0.5577236
145	0x3f0ebeac	0.5575969
146	0x3f1e1750	0.6175432
147	0x3f20b158	0.62770605
148	0x3f09f73c	0.53892875
149	0x3f0e3108	0.55543566
150	0x3f254353	0.64555854
151	0x3f28b0ed	0.6589497
152	0x3f09beca	0.53806746
153	0x3f1eedca	0.6208159
154	0x3f0f8312	0.5605937
155	0x3f249970	0.6429663
156	0xbf279a77	-0.6547007
157	0x3f2deabd	0.6793631
158	0x3f2d178e	0.67614067
159	0xbf280abe	-0.6564139
160	0x3f0b2c0e	0.543641
161	0x3f17902f	0.5920438
162	0x3f1e7525	0.618975
163	0x3f1d4e8a	0.61447966
164	0x3f29b36f	0.6628942
165	0x3f1d72dc	0.61503386
166	0x3f0d005e	0.55078685
167	0x3f16b146	0.5886425
168	0x3f062b5e	0.52409923
169	0x3f2cfd69	0.67574173
170	0x3f0d6532	0.55232537
171	0x3f2979f8	0.66201735
172	0xbf0f5858	-0.55994177
173	0x3f215da1	0.6303349
174	0x3f1c1007	0.60961956
175	0x3f0c9fc3	0.5493128
176	0x3f261036	0.64868486
177	0x3f06260c	0.52401805
178	0xbf2a4043	-0.66504306
179	0x3f20201e	0.62549007
180	0xbf17d07b	-0.5930249
181	0x3f07c442	0.5303384
182	0xbf1542da	-0.5830513
183	0xbf2abe2e	-0.6669644
184	0x3f2e9a80	0.682045
185	0xbf2ec279	-0.6826549
186	0xbf0e79fa	-0.5565487
187	0xbf08e512	-0.53474534
188	0x3f1b356b	0.60628384
189	0x3f1d9b3c	0.61564994
190	0x3f0f01a2	0.55861866
191	0x3f078d1b	0.52949685
192	0x3f0f155d	0.5589197
193	0x3f1953d8	0.5989356
194	0x3f1616c6	0.586285
195	0x3f07712c	0.5290706
196	0x3f10ec02	0.5661012
197	0x3f186fe6	0.59545743
198	0x3f16cf30	0.58909893
199	0x3f0643a4	0.5244696
200	0xbf2767e8	-0.65392923
201	0x3f0a3890	0.5399256
202	0x3f051932	0.5199157
203	0x3f23daf9	0.64006
204	0x3f207663	0.62680644
205	0x3f1b0f73	0.6057045
206	0x3f0b1af5	0.5433801
207	0x3f11d77e	0.5696944
208	0x3f17bc90	0.592721
209	0xbf2d8f99	-0.6779724
210	0x3f15fad9	0.5858589
211	0x3f268a04	0.65054345
212	0x3f2816df	0.656599
213	0x3f2d4ac2	0.67692196
214	0x3f100386	0.56255376
215	0x3f0f77d7	0.56042236
216	0x3f279638	0.6546359
217	0x3f15b5ad	0.5848034
218	0x3f2564d4	0.64606977
219	0x3f1606fe	0.5860442
220	0x3f186749	0.595326
221	0x3f10dfef	0.56591696
222	0x3f04ca9a	0.51871645
223	0x3f0dc044	0.553715
224	0x3f262b20	0.64909554
225	0x3f161074	0.58618855
226	0x3f13118c	0.5744865
227	0x3f1bea39	0.6090427
228	0x3f24a968	0.64320993
229	0x3f0e6ab5	0.5563157
230	0x3f1c8873	0.61145705
231	0xbf131b96	-0.5746397
232	0x3f0b4b48	0.54411745
233	0x3f27d44e	0.65558326
234	0xbf1ecac5	-0.6202815
235	0x3f24e13a	0.6440617
236	0x3f2ce4ac	0.67536426
237	0xbf2a6f43	-0.6657602
238	0x3f27cb27	0.6554436
239	0x3f20a539	0.6275211
240	0xbf09b57a	-0.53792536
241	0x3f0eb9f0	0.5575247
242	0x3f1bd844	0.6087687
243	0x3f1c9a96	0.6117338
244	0xbf22ae6e	-0.6354741
245	0xbf22df09	-0.63621575
246	0xbf1c612f	-0.6108579
247	0x3f2b55db	0.6692788
248	0x3f2b5f6d	0.66942483
249	0xbf16ba41	-0.5887795
250	0x3f1b76a2	0.60727894
251	0x3f26b0fc	0.65113807
252	0x3f084778	0.5323405
253	0x3f177958	0.5916953
254	0x3f2d01e1	0.6758099
255	0x3f0c8d32	0.54902947

conv_2.bias f4 [32]
0	0xbf1dacd5	-0.61591846
1	0x3f27d1cd	0.65554506
2	0xbf2be9e8	-0.6715379
3	0x3f1e7eff	0.6191253
4	0x3f112fea	0.56713736
5	0xbf04cb0c	-0.51872325
6	0x3f2093f6	0.6272577
7	0xbf26059b	-0.64852303
8	0x3f1c0181	0.60939795
9	0xbf260ca5	-0.64863044
10	0x3f2030e1	0.62574583
11	0x3f1df893	0.6170742
12	0x3f217556	0.63069665
13	0x3f0b0750	0.54308033
14	0xbf224da0	-0.63399696
15	0x3f049ad9	0.5179878
16	0x3f29049b	0.6602265
17	0xbf0e12bf	-0.55497354
18	0x3f0679da	0.5252968
19	0xbf2171d7	-0.6306433
20	0x3f0d1ab0	0.55118847
21	0x3f0fa913	0.5611736
22	0xbf2adff7	-0.66747993
23	0x3f25cefa	0.64768946
24	0xbf12ec1d	-0.5739153
25	0x3f18d4f5	0.59699947
26	0x3f0f4ebf	0.5597953
27	0x3f0ca858	0.5494437
28	0xbf194a9e	-0.5987948
29	0x3f1d889c	0.61536574
30	0xbf0e5d0f	-0.55610746
31	0xbf133055	-0.57495624

fully_connect1.weight f4 [10, 5408]
0	0xbc3bac04	-0.011454586
1	0xbc312d16	-0.010813972
2	0xbb20ce18	-0.0024536904
3	0xbbe329c4	-0.006932469
4	0x3f19d9ae	0.6009778
5	0xbc5d07ac	-0.013490599
6	0x3c0306b2	0.007997202
7	0x3c07c572	0.008286821
8	0xbb8f696e	-0.004376582
9	0x3c2a3cc0	0.0103904605
10	0xbc2d3d88	-0.010573752
11	0x3a0a61a0	0.00052788295
12	0x3f19a50f	0.60017484
13	0x3bf4e6a8	0.0074737854
14	0x3b46b188	0.003031822
15	0xbc3dce8c	-0.011584889
16	0x3f1aab34	0.60417485
17	0x3f19c78c	0.6007011
18	0x3f1bb5f3	0.6082451
19	0x3f1946b7	0.5987353
20	0x3b6ddde0	0.0036295578
21	0xbc29256d	-0.010323864
22	0x3c07ac7c	0.00828087
23	0xbbdb715d	-0.0066968636
24	0x3c4eccb2	0.012622045
25	0xbc4c9b7c	-0.012488242
26	0x3f1cd380	0.61260223
27	0xbbb04c54	-0.005380193
28	0x3f1b8a36	0.6075777
29	0x3f1857a2	0.5950872
30	0x3f196599	0.5992065
31	0x3f17e068	0.5932679
32	0x3f1a4da7	0.6027474
33	0x3f1c4406	0.61041296
34	0x3f1b833b	0.60747117
35	0x3f1a4a54	0.60269666
36	0x3f1895bf	0.59603494
37	0x3f1a804f	0.60352033
38	0xbbaeb4ec	-0.005331626
39	0x3f183e1a	0.5946976
40	0x3c078ed4	0.008273799
41	0xbc0c5341	-0.008564771
42	0x3f19b75b	0.60045403
43	0x3c332ccc	0.010935973
44	0x3c408090	0.011749402
45	0x3f1cb90d	0.61219865
46	0x3f195d9f	0.5990848
47	0x3f194e03	0.5988466
48	0xbc45955e	-0.012059538
49	0x3f16b25c	0.58865905
50	0x3f166ebf	0.58762735
51	0xbbeddf74	-0.0072593037
52	0x3c004afe	0.0078303795
53	0xbc30e164	-0.010795925
54	0x3c3f5d2e	0.011679931
55	0x3f18818d	0.5957268
56	0x3f1bc584	0.6084826
57	0x3a68de20	0.0008883197
58	0x3f1bc6af	0.6085004
59	0x3f1a2e25	0.6022666
60	0x3f1a2da8	0.60225916
61	0x3f1a8ef8	0.60374403
62	0x3c2da794	0.010599036
63	0x3f18afce	0.59643257
64	0x3c006754	0.007837135
65	0xbc4d8104	-0.012542967
66	0x3b31c6f8	0.0027126651
67	0x3f18d3d7	0.5969824
68	0x3f1b1cda	0.605909
69	0x3f19d30b	0.6008765
70	0xbc5a2da5	-0.013316547
71	0x3f175717	0.59117264
72	0xba10eea0	-0.0005528722
73	0x3f17e31f	0.59330934
74	0x3f177945	0.5916942
75	0xbb7812bc	-0.0037852963
76	0x3f189d6e	0.5961522
77	0xbaf55e40	-0.0018720105
78	0x3f1b8bc3	0.60760134
79	0x3c199a34	0.009375144
80	0x3f1bb9d3	0.6083042
81	0x3f184e52	0.5949451
82	0x3f170c0e	0.5900277
83	0x3bc91408	0.006136421
84	0x3c434540	0.011918366
85	0x3c32309a	0.010875845
86	0x3f1bf24d	0.60916597
87	0x3f1c0eef	0.60960287
88	0x3c0a7cac	0.008452576
89	0x3f1732ab	0.5906169
90	0x3ba6f434	0.0050950292
91	0x3c46ce42	0.012134137
92	0xbc4b8140	-0.012420952
93	0x3bf6174c	0.0075101014
94	0x3f17c8c7	0.59290737
95	0x3a9f2e08	0.0012144456
96	0x3b857900	0.004073262
97	0x3ade1c60	0.0016945712
98	0xbbaf41c6	-0.005348417
99	0x3f1705c9	0.589932
100	0x3b63cef0	0.0034760796
101	0x3f1c17ad	0.60973626
102	0x3f175816	0.59118783
103	0x3f1814b1	0.5940657
104	0x3bd0f104	0.0063763876
105	0x3c1a2424	0.009408031
106	0xbb1a62e4	-0.0023557479
107	0xbc4f0515	-0.012635489
108	0x3c277078	0.010219686
109	0x3f168791	0.5880061
110	0xbc2cd09b	-0.010547782
111	0x3bcbae00	0.006215811
112	0x3f1a8c40	0.60370255
113	0x3b579420	0.0032894686
114	0x3f18b1ab	0.596461
115	0xbc5b3a7d	-0.013380644
116	0xbc1f6361	-0.009728284
117	0x3c309f8e	0.010780228
118	0x3f16781f	0.5877704
119	0x3f19eb6b	0.60124844
120	0x39071a80	0.00012884475
121	0x3c03516a	0.008015016
122	0x3f1a074c	0.60167384
123	0x3b80a80c	0.0039262827
124	0x3c372428	0.011178054
125	0x3f180a4a	0.593907
126	0xbc383600	-0.011243343
127	0x3f1d03b9	0.61333805
128	0xb99dd860	-0.00030106585
129	0x3a8d9f50	0.0010804925
130	0x3c07ff90	0.008300677
131	0xbc3ab882	-0.011396529
132	0xbc13a104	-0.009010557
133	0x3c187ef2	0.00930761
134	0x3b8f2c30	0.004369281
135	0x3f1ba952	0.6080524
136	0xba4997d0	-0.00076901633
137	0xbb5ec5cc	-0.0033992408
138	0xbba696ce	-0.0050838953
139	0x3c1b7132	0.009487437
140	0xbc53feb9	-0.012939149
141	0x3aa06028	0.0012235688
142	0x3f16c91b	0.5890061
143	0x3c495894	0.012289185
144	0xbc55489c	-0.0130178
145	0x3bf944d8	0.007607084
146	0xbc2da26f	-0.010597809
147	0x39eb0140	0.00044823624
148	0x3c001f3a	0.007819945
149	0xbc0c1d42	-0.0085518975
150	0x3c4eded0	0.012626365
151	0x3b98d4cc	0.0046640392
152	0x3c45c74c	0.012071442
153	0xbb8bd1b0	-0.00426694
154	0xbc208bb1	-0.00979893
155	0x3b1c0c10	0.00238109
156	0xbbab68dc	-0.005231006
157	0x3bea3360	0.0071472377
158	0x3f169a04	0.5882876
159	0xbc525695	-0.012838026
160	0xbb8c1fb0	-0.0042762384
161	0x3b047484	0.002021105
162	0xbc597fd1	-0.013275103
163	0x3c40dfca	0.0117721055
164	0xbc50415f	-0.012710898
165	0xbc117b1a	-0.008879447
166	0xbc2000b2	-0.009765791
167	0xbb1e905c	-0.0024194932
168	0x3f16dcac	0.5893047
169	0x3f18054e	0.59383094
170	0x3f1b7b8a	0.6073538
171	0x3f170d37	0.5900454
172	0x3f181e79	0.594215
173	0x3f1cde38	0.6127658
174	0x3f1a4ca0	0.6027317
175	0x3f176070	0.59131527
176	0x3f1919ce	0.59805
177	0x3f1a76e7	0.6033768
178	0x3f1b736f	0.6072301
179	0x3f1d2402	0.6138307
180	0x3f1aeb5d	0.60515386
181	0x3f1bb5fb	0.60824555
182	0x3f1832e6	0.59452665
183	0x3f170530	0.5899229
184	0x3f174710	0.5909281
185	0x3f18e60a	0.5972601
186	0x3f19c3c3	0.60064334
187	0x3f1d0005	0.61328155
188	0x3f169d43	0.5883371
189	0x3f17a480	0.5923538
190	0x3f1c3daa	0.6103159
191	0x3f1c472c	0.610461
192	0x3f18c1c0	0.5967064
193	0x3f197631	0.5994597
194	0x3f1a1892	0.6019374
195	0x3f18491f	0.59486574
196	0x3f1aac6a	0.60419333
197	0x3f1be028	0.6088891
198	0x3f18bb84	0.59661126
199	0x3f1c0d08	0.60957384
200	0x3f1b7a95	0.6073392
201	0x3f175f42	0.59129727
202	0x3f16789e	0.587778
203	0x3f1c23ba	0.60992014
204	0x3f1d1323	0.61357325
205	0x3f1aebda	0.6051613
206	0x3f19bd94	0.600549
207	0x3f18de27	0.5971398
208	0xbc2f3231	-0.010693119
209	0x3b0fbbf8	0.0021932106
210	0x3f1a30e6	0.60230863
211	0x3f1a6c96	0.6032194
212	0x3f181116	0.5940107
213	0x3f16734e	0.5876969
214	0x3f1a5329	0.6028314
215	0x3f1c2bb1	0.6100417
216	0x3f186a05	0.5953677
217	0x3f18077c	0.5938642
218	0x3f1816a0	0.59409523
219	0x3f17819d	0.5918215
220	0x3f184044	0.5947306
221	0x3f1b121e	0.6057452
222	0xbc059828	-0.008153953
223	0x3f1b3c20	0.6063862
224	0x3f1a4a9b	0.6027009
225	0x3f1bce5c	0.60861754
226	0x3f1bf05b	0.6091363
227	0x3f19416e	0.5986546
228	0x3f1d36ad	0.61411554
229	0x3f1bc13d	0.60841733
230	0x3f1a8793	0.6036312
231	0x3f16bc74	0.58881307
232	0x3f1bdec0	0.60886765
233	0x3f17dfa3	0.5932562
234	0x3f1874c5	0.59553176
235	0xbac7cfc8	-0.0015244419
236	0x3f16aee1	0.58860594
237	0x3f170d49	0.59004647
238	0x3f1c00a1	0.6093846
239	0x3f169462	0.58820164
240	0x3bf6a424	0.0075268913
241	0x3f169b04	0.58830285
242	0x3f1d2147	0.613789
243	0x3f1cfd9f	0.61324495
244	0x3f1c4633	0.61044616
245	0x3f17504e	0.5910691
246	0x3f1b08dd	0.605604
247	0x3f191fe7	0.59814304
248	0x3f18eaaa	0.5973307
249	0x3f18de6a	0.59714377
250	0x3f1ae6e9	0.6050859
251	0x3f18206d	0.5942448
252	0x3bddd944	0.006770285
253	0xba2d7150	-0.0006616311
254	0x3f1ce0ef	0.6128072
255	0x3f1a6c2b	0.603213

fully_connect1.bias f4 [10]
0	0x3f1acc93	0.60468405
1	0x3f1aa0e2	0.6040174
2	0x3f1a7b25	0.60344154
3	0xbbb71054	-0.0055866633
4	0xbf1aa57c	-0.6040876
5	0xbc2f9d57	-0.010718665
6	0xbf1d1f3b	-0.6137578
7	0xbf188e86	-0.59592474
8	0xbf1c69f6	-0.61099184
9	0x3f1b7032	0.6071807

fully_connect2.weight f4 [1, 10]
0	0x3f568c2a	0.83807623
1	0xbf1e9343	-0.61943454
2	0x3f2e05ec	0.67977786
3	0x3e9a4a85	0.3013498
4	0x3f0241eb	0.5088183
5	0xbe76bb6e	-0.24094936
6	0x3ebd5dd5	0.3698565
7	0xbf3c84ab	-0.73639935
8	0x3ef4707c	0.4774207
9	0x3f2a846c	0.6660831
