bs16_lr0.001_weight.pt (torch, 240144 bytes, 7 tensors)

conv_1.weight f4 [16, 3, 3, 3]
00000000: 9793 083e 3eec 21bc 7562 e83d 9043 3a3e
00000010: af11 de3d 2da4 89bd 602a 403e 6e48 e2bc
00000020: cccf adbd 66eb fdbd 5a2e a73c 658e 993d
00000030: 1964 773d 5230 d83d af7f af3d f36f 0abe
00000040: a50b f5bd 57dc 843c b1cb 23be 9cd9 923d
00000050: 6fd3 acbd 698b 323e 55fd 49be 8fcf 3bbe
00000060: 7c28 0a3c 7565 20bd 0eaf 36be cafa 34bc
00000070: fdde 173c 30a3 063e 0399 463e f47f 1cbe
00000080: 2ba2 0ebd ccd1 00bd 8030 72bc 2acd bfbd
00000090: 7b87 fa3d e5d3 d3bd 6840 5dbc 14e9 11be
000000a0: 44d9 fe3d 9ace 26be 4300 f03d 33e4 003c
000000b0: 4d12 233d 21ca 783d 8044 913d fd61 4ebe
000000c0: d07e 1b3e e24e 413e 6161 2cbe 2bf0 493e
000000d0: 22db c6bd eef5 0fbe 49e9 c63d 5c86 36bd
000000e0: 7bcd 333e bcb1 04be 9088 1ebe 3e53 453e
000000f0: 1c86 3b3d 6fd7 c0bd 6ba4 02be 75f2 37be
00000100: fa43 bfbd 13ff 863e 66f0 1bbe d697 ef3d
00000110: 7e29 833e d9ca 3dbe f48e 89bd c21b 8f3d
00000120: 980f e83b 6665 dd3c c437 6e3d faf4 dc3d
00000130: 105a 913d 45ce 1b3d bb07 14be 3fbb 8dbd
00000140: 36cc 74bd ae0b 42be b219 443e 2948 493d
00000150: e414 cabc 923b 1abc b75f 40be 34d6 a23d
00000160: e8ff 463d a5fa fe3c fcc6 4cbd a690 9b3d
00000170: ca37 783d 63a7 15be 6963 3f3e 125b 113e
00000180: d876 97bd a368 b93d 3455 413e 15df e5bd
00000190: f41c 37be f2f9 a73c 39b4 bf3d f114 27be
000001a0: f28f e83d 7b92 a83c b5b1 ffbd 216b 24be
000001b0: 5ccf b83d ea90 3fbe f967 69bd a9ac 5c3e
000001c0: 59ad 64be c021 49be 4fb8 563e 0218 8abc
000001d0: efe8 b0bd a98e 2d3e 4b29 a23d e5ee 283e
000001e0: a558 e8bd 8944 0a3e 0b27 fbbb 24bc fd3b
000001f0: 3735 13be 6abd 123e 36df 113e e23c 31bd
00000200: 1478 4abe 1429 02be 1a1b 4d3b e6f0 86bd
00000210: 9cd7 f43d dd39 00be b97a cf3d 44b6 20be
00000220: 5e09 63bd ee37 98bd 351e 60bd b523 9bbd
00000230: 3e41 09be b1db d2bd fd41 9fbd 8f65 08be
00000240: 6451 d73c 3e6b 7dbc 5d97 6dbd 3225 1ebd
00000250: df7d 79bd 7063 853d d2ad 413d 8c65 163c
00000260: 9572 3d3e 0bf5 fa3d 6aa4 aebd 11f3 27bc
00000270: 46a3 e0bd 4e1e a0bd 0b80 da3d 1514 00bd
00000280: 1e0d 0e3e f749 623c e3cb 44bd c060 fbbd
00000290: 1276 27be e485 8abc f288 563d af0d b4bd
000002a0: 6d8b d6bd 7f38 653d 2d4f 42bc 5ee3 593e
000002b0: 8a98 013a 9aab 03be 9e14 d13c def3 20be
000002c0: c7a2 cbbd 9215 9a3d de51 cb3d d343 0cbe
000002d0: e48d 33bd 8508 713d 6278 0cbe 96e1 9bbd
000002e0: c34c 883d fbb7 1cbc 5b6d cc3d ae65 ed39
000002f0: fd9c b7bd 3b3c e93d a4d7 2ebe ffbc 443d
00000300: 5790 b1bb 1b31 2f3d 749e 2c3c 28c6 a33d
00000310: 0200 4f3e 900e 4e3a d866 24be 7887 24be
00000320: b926 68be a322 bfbd 1a48 3cbe 9b70 52bd
00000330: 91db 093e 7622 9f3c 61a3 0e3e 3825 e03d
00000340: 2499 58be 70ae 51bd 2df5 02be efb6 1f3e
00000350: 2c1b 6abd 1dc6 d9bc 2281 cf3d beaf 1a3e
00000360: 9162 45be 11b2 0e3e f905 1e3e 2371 03be
00000370: e6fb 5abe 5174 0fbe 567d cdbd dc0a bcbd
00000380: 6b9b 0dbd afc9 01be 6b82 2cbe 909e 92bd
00000390: 6b2f cbbd c4b8 e93c 17b2 1d3e 364c 31be
000003a0: 6fc4 8bbc 3dc2 c2bd 0978 f4bd 9e17 13bd
000003b0: 1c52 94bd 6c86 bebc 5fa2 f0bd 30e7 343e
000003c0: 9f14 8bbd 9d87 323c a110 36be 1de0 c33c
000003d0: 72f0 183e c4fd 6f3e ba3e 22be ce11 a33d
000003e0: 8593 15be 45fc 11be 1bdf 12be c6e1 d1bd
000003f0: 1ca6 09be 8441 553d c1b2 093e 8b07 b23b
0.13337551 -0.009882985 0.11346904 0.18189836 0.10843217 -0.06720767 0.18766165 -0.027622428
-0.084869 -0.12398414 0.020407844 0.07497863 0.060398195 0.10556091 0.085692756 -0.13519268
-0.11965112 0.016218347 -0.15995671 0.07170412 -0.08438765 0.17435993 -0.19725545 -0.18340896
0.008432504 -0.039159257 -0.17840216 -0.011046121 0.009269473 0.13148189 0.19394307 -0.15283185
-0.034822624 -0.031450078 -0.014782071 -0.09365304 0.12232872 -0.1034315 -0.013504125 -0.14249068
0.12443784 -0.1628975 0.117188 0.007866907 0.039812375 0.06073964 0.070931435 -0.20154567
0.15185094 0.18877748 -0.16834022 0.19720523 -0.09709765 -0.14058658 0.09712464 -0.04456173
0.17558853 -0.12958425 -0.15481782 0.19270036 0.045782194 -0.09416091 -0.12758033 -0.17963584
-0.093391374 0.2636648 -0.15228423 0.11698882 0.25617594 -0.18534411 -0.06716719 0.06987716
0.007081937 0.02702589 0.05815865 0.10788913 0.07097256 0.03803851 -0.14456074 -0.0692048
-0.059765063 -0.18949768 0.19150427 0.049141083 -0.024668165 -0.009413617 -0.18786512 0.07951012
0.048583895 0.031125376 -0.049994454 0.07595949 0.06060008 -0.14614634 0.18690266 0.14194897
-0.073957145 0.09053161 0.18880159 -0.1122419 -0.17882138 0.020504925 0.093605466 -0.16316582
0.113555804 0.02057766 -0.12485067 -0.16056491 0.09023926 -0.18707624 -0.05698392 0.2155024
-0.22331752 -0.19641781 0.20968746 -0.016857151 -0.086381786 0.16948952 0.07918032 0.16497381
-0.113450326 0.13502707 -0.0076645664 0.0077433754 -0.14375769 0.14330068 0.14245304 -0.043270953
-0.19772369 -0.12710983 0.0031296671 -0.065889165 0.11955187 -0.12522073 0.10130829 -0.15694529
-0.055428855 -0.07432543 -0.054716308 -0.0757517 -0.13403794 -0.10295809 -0.07776258 -0.13319992
0.026283927 -0.015467463 -0.05800568 -0.03860969 -0.060911056 0.06513107 0.04728491 0.009179484
0.18500741 0.122537695 -0.08527453 -0.010250823 -0.10968642 -0.0781828 0.106689535 -0.03126915
0.13872191 0.01381158 -0.048046004 -0.12274313 -0.16353634 -0.016909547 0.052376695 -0.087916724
-0.10475812 0.055962082 -0.011859697 0.2127814 0.00049436896 -0.1285843 0.025522526 -0.15718028
-0.09943157 0.075236455 0.09927724 -0.13697748 -0.04383649 0.058846015 -0.13717797 -0.076113865
0.06655266 -0.009565349 0.099817954 0.0004527992 -0.0896549 0.11388441 -0.17074448 0.048031803
-0.005418818 0.04277144 0.010535825 0.0799678 0.20214847 0.00078604463 -0.16054857 -0.16067302
-0.22671022 -0.09332778 -0.1838688 -0.05137692 0.13462664 0.019425612 0.13929512 0.10944599
-0.21152169 -0.051191747 -0.1278884 0.15597127 -0.05715482 -0.026583726 0.10132052 0.15106103
-0.19275881 0.13935114 0.15431966 -0.12836127 -0.21385154 -0.14009215 -0.100336716 -0.09181759
-0.034572046 -0.12674592 -0.16846626 -0.0715915 -0.09921154 0.028530486 0.15399967 -0.17314228
-0.01706144 -0.09509704 -0.119369574 -0.035911195 -0.072422236 -0.023257457 -0.1174972 0.17666316
-0.067910425 0.010896591 -0.17779781 0.023910576 0.14935473 0.23436648 -0.15844241 0.0796238
-0.14607055 -0.1425639 -0.1434292 -0.10248141 -0.13442272 0.052064434 0.13447095 0.005433028

conv_1.bias f4 [16]
00000000: ee09 333e 6fb7 c83b fb9f 4bbd 7a03 28bc
00000010: 3486 0dbb 7eaa 80bd e649 17be 9a4a 22be
00000020: bc31 0cbb 0fdb 80bd e6c5 ac3d 6f5f 2b3e
00000030: 366a c93d 1a50 8bbe 7d5d e0bd d863 ed3c
0.17484257 0.0061253826 -0.049713116 -0.010254735 -0.0021594884 -0.06282519 -0.14774284 -0.1584877
-0.0021391949 -0.06291782 0.08436184 0.16735624 0.09834711 -0.2720955 -0.109553315 0.028978273

conv_2.weight f4 [32, 16, 3, 3]
00000000: ffa8 c7bc f175 6fbb 5aae dd3c 0ec1 8e3d
00000010: 4f4b 233d ca3f 18bd 12d8 aa3c 0b19 993d
00000020: 44ae 8cbd 432d 243d 7be3 d3bc 341b 81bd
00000030: 4022 b63c 2c91 53bd 2335 8d3d afb4 7b3c
00000040: 8a10 723d 8ef1 da3d 8458 233d d747 61bd
00000050: 4ca0 e83d 9453 2abd a2b6 833d 04e9 033c
00000060: ba2d d43d 65c7 513e 0745 733d 3bfa 52bb
00000070: fb76 77bd 078e cabc 2089 9d3b d2b8 d83c
00000080: 9521 ae3c 44fd 1bbb adb8 10bd ee4d 40bd
00000090: 9765 dfbd e0cd 04be d464 93bd d99c 8dbd
000000a0: 1bb8 4c3a 6f6d ccbc 22a8 203c e2b2 093d
000000b0: c2d5 e43c e8ac f1bd 81da 3cbd 27ea efbd
000000c0: aa07 60bd fbc8 5ebd 14fb 9dba faec 953d
000000d0: 41c9 f53c 3915 963d 5c50 cfbd 4961 a33b
000000e0: e48d 8fbd 4252 bbbd b82f 5fbd a1cf 26bd
000000f0: b681 ebbc 8fd6 6b3d 6295 5cbc 9529 48bd
00000100: ee09 153d 9ef1 82bd 4914 babc 9838 5dbb
00000110: 205d 233d 256c 6abd bb4d c03c d39b 823d
00000120: 81b1 03bd 8023 d83b 7201 2abc 2735 f8bd
00000130: 8e7c 01be c412 8cbd 4a7d 87bd a1a1 2cbc
00000140: 5a43 acbd 5902 bdbd 5e80 22bd 0b11 eb3d
00000150: b76b 22bd 3402 39bd d4de c53d 022e 903c
00000160: c323 773c 3f18 b33c de8b 17bd 0896 3f3d
00000170: 7665 b3bc ab3e a1bc f7d4 82bc 39fe 4c3c
00000180: 01ef 51bd ae78 063d 3577 bdbc e298 5d3d
00000190: 4a72 4abd 50c3 543d a3e7 a83d 5422 a93d
000001a0: 597f 9b3d bada b13d 0e34 d93d c3bc 833d
000001b0: 53d7 12bd 41cf 503d 92b1 9f3d c46f c5b8
000001c0: 4e0c 823c ddad 633b aab0 953b 606c 4fbc
000001d0: 0404 7b3d 3cf1 6fbd c121 77bd 5135 bf3c
000001e0: 8bf3 febd fcb3 0fba e913 a4bd 8805 283c
000001f0: 75e0 0ebd b982 4b3d 3eea 0bbd 1ee3 b33c
00000200: a3c1 e73d 2d2c 0a3d 8bb5 93bd bebc d5bc
00000210: 438d b23d dbb3 ab3d 1c0f e6bc a42c b5bd
00000220: 08b4 9bbd c173 45bd 795f 22bc d51d 11bd
00000230: 4200 fd3c f4d6 96bc ec1a 343d 7217 363d
00000240: 812f 993d 6f8f 6f3d e932 96bd 652d 453d
00000250: 2b3b 64bd 1908 afbd 0714 523d c895 c73c
00000260: 0078 d0bd 9bf7 ac3c 1d5e 6cbd c474 c63d
00000270: ba28 5a3d 5ab8 8cbd a19b f9bb a355 883d
00000280: 95a5 a63d e393 9e3c 577a dabc 71f0 1dbc
00000290: eb66 5e3d fa95 0b3e 0756 e53d a242 aeba
000002a0: a4f4 f73d b6c2 e93d 7be0 543c 8a6f c33d
000002b0: 9f85 1a3e 5833 7b3c ad3d b73b be5b 063e
000002c0: 3df2 47bd 8dc0 683d 0df2 dc3d abae 56bc
000002d0: 11b0 df3d fdce 1f3e 9939 933b d301 053e
000002e0: 444b ab3d 4bd3 e53d 8cfa 2d3e 6708 d23c
000002f0: 1bc0 1e3e 068d 4c3c 0641 353d d2ff 473d
00000300: 2b63 5b3c a61f 553d 190a 083d fabc 0f3d
00000310: 45fd 55bd 14dd 873d b36f 633c f622 8f3d
00000320: a5e0 8dbc ec6b 563d 5cc3 80bc 9084 ab3d
00000330: 9c7e 0bbd a5de 53bd 2e2a 983c 0fea 433d
00000340: 0ea3 0abe 8b56 3abd 5b14 db3c 7755 19bd
00000350: 3e65 05be 0f21 a3bd 4ead b1bd 2705 d53b
00000360: cc38 e9bc 2b46 9fbc f458 d13b efd8 93ba
00000370: 3eb1 1f3d ac64 c63b b7b1 95ba 841c 8bbc
00000380: f079 13bc 7110 0e3d 76ac d9bd d53f a73c
00000390: ab61 91bc bf6a 80bc ee99 6fbd a7e5 64bd
000003a0: 157f c1bd fe7e 05bd 5d55 f43c c56c 473c
000003b0: bca3 b0bc 71e0 cf3d 1a4c 673d 45cc 413d
000003c0: ab1d bc3d baf7 d93d a222 523b d349 18be
000003d0: 8cad 0d3b cb68 32bd 098e a4ba 4494 71bd
000003e0: 2b0a 8dbd 6e71 ddbd b8cd 64bd c378 dfbc
000003f0: 15d0 973d 742c cf3d 6ce0 bc3d a477 4fbd
-0.024372576 -0.0036538804 0.027060676 0.06970416 0.03986674 -0.03717021 0.020854983 0.0747548
-0.06869176 0.040082227 -0.025865307 -0.06304017 0.022233129 -0.05165212 0.06894901 0.015362903
0.059097804 0.10690604 0.039879337 -0.055000152 0.11358699 -0.041583613 0.06431319 0.008051161
0.10360284 0.20486219 0.059392 -0.0032192606 -0.060416203 -0.024725927 0.0048076063 0.026455317
0.021256248 -0.002380208 -0.03533237 -0.04694932 -0.109080486 -0.1296916 -0.07196966 -0.06914682
0.0007809416 -0.024954526 0.009805711 0.03361786 0.027933959 -0.118005574 -0.04610682 -0.11714583
-0.05469481 -0.05439089 -0.0012052977 0.0732059 0.030003192 0.07328267 -0.10122749 0.0049859625
-0.07009485 -0.09146549 -0.054488868 -0.040725354 -0.028748374 0.057577666 -0.01346335 -0.04886778
0.036386423 -0.06393741 -0.02271475 -0.0033755656 0.039883733 -0.05723204 0.023474565 0.06377377
-0.032151703 0.006596029 -0.010376321 -0.12119513 -0.1264517 -0.06839517 -0.06615694 -0.010536582
-0.08411284 -0.092289634 -0.0396732 0.1147786 -0.039653506 -0.045168117 0.09661642 0.017600063
0.01508421 0.021862147 -0.036998622 0.04677394 -0.021898966 -0.019683203 -0.01597069 0.012511783
-0.051253323 0.032829933 -0.023128131 0.05410088 -0.0494254 0.051944077 0.08247306 0.08258501
0.07592649 0.08684297 0.10605632 0.06432488 -0.03584988 0.050978903 0.07797541 -9.41451e-05
0.015875008 0.0034741082 0.004568179 -0.012660116 0.061283126 -0.05857967 -0.060334925 0.023340853
-0.12448796 -0.0005481837 -0.0801161 0.010255225 -0.034882028 0.049685214 -0.034158938 0.021958884
0.1131623 0.033733536 -0.07212361 -0.026090976 0.0871835 0.08383914 -0.028083377 -0.08846405
-0.076026976 -0.048206095 -0.009910458 -0.03542884 0.030883912 -0.018413045 0.043970987 0.044455953
0.07479764 0.0584864 -0.07333929 0.048138995 -0.05572049 -0.085464664 0.05128863 0.024363413
-0.10179138 0.021114161 -0.05770694 0.0969024 0.053261496 -0.068711 -0.0076174294 0.06656959
0.08137051 0.019357627 -0.026669664 -0.009639845 0.05429737 0.1363143 0.11198049 -0.0013295005
0.12107208 0.11414091 0.012992973 0.09542759 0.15090035 0.0153320655 0.005592069 0.13120934
-0.048815 0.056824256 0.10788355 -0.0131031675 0.10922254 0.15606304 0.00449295 0.12988977
0.08363965 0.112219416 0.16990107 0.025638772 0.1550297 0.0124847945 0.044251464 0.048827954
0.013390343 0.052032135 0.033212755 0.03509233 -0.05224349 0.06633964 0.013881612 0.0698909
-0.017319033 0.052349016 -0.015718155 0.08374894 -0.03405629 -0.051726002 0.0185748 0.047830638
-0.13538763 -0.04549269 0.026743105 -0.03743502 -0.13026902 -0.0796529 -0.08675633 0.0065008583
-0.028469466 -0.019442638 0.006388778 -0.0011279861 0.03898739 0.0060544815 -0.0011420761 -0.01698137
-0.00900124 0.03468365 -0.106285974 0.02041618 -0.017746767 -0.0156759 -0.05849641 -0.055883076
-0.09448067 -0.032591812 0.02982586 0.012171929 -0.02156245 0.10150231 0.05646906 0.047313947
0.09185346 0.10642953 0.00320641 -0.14871912 0.0021618335 -0.04355697 -0.0012554537 -0.058979288
-0.06886705 -0.108126506 -0.05586025 -0.027279263 0.074127354 0.10115901 0.092224926 -0.050651208

conv_2.bias f4 [32]
00000000: 537f acbc 8dbb d63c aa63 8ebd 39cc e7bc
00000010: ee56 acbd fe35 153d df86 29bc c977 403d
00000020: 434a 7bbb 8fba 2a3d e0e6 9d3b 428b fdbd
00000030: e9dc 5e3d ee29 b93b 8b1c 363d 082b 973c
00000040: fbcb 28bd 7dbc 9e3d 61b0 b53c 867e 713d
00000050: d1b4 d13b 9297 88bd fc9d b8bc a75a 5d3d
00000060: 632d 04be bd29 553c ee88 933d 3ecc 09bc
00000070: 7dfe 8cbd f416 313c d524 103d 0dd6 903c
-0.021056807 0.026212478 -0.06952603 -0.028295623 -0.08415018 0.036428444 -0.010347097 0.046989236
-0.0038343824 0.041681822 0.004818782 -0.12380077 0.054409895 0.0056507504 0.044460814 0.018453136
-0.041210156 0.07750795 0.02217883 0.058958553 0.006399729 -0.06669535 -0.02253627 0.05404153
-0.12907939 0.013010439 0.07203852 -0.008410512 -0.06884477 0.010808695 0.035191376 0.017680192

fully_connect1.weight f4 [10, 5408]
00000000: 2c0d 5ebc 2f37 99bc 0082 3539 351e 113b
00000010: 4b40 f2ba 4624 1ebc 9b49 db3b a02d 8dbb
00000020: b645 aebb 9725 1cb9 607b e4bb c9c7 713b
00000030: 4dfe 723a ee07 993b 33ae 8fbc e804 ac3a
00000040: 95e3 8c3a ab4a 8d3b b284 533b 2368 65bb
00000050: f099 9f3a 2d3e 8ebc 6c33 99bb fccf 263b
00000060: cdaa 81bc f51f 76bc 61c7 09bc cc43 d0bb
00000070: 9d11 c73b 0cbb 9abb 2110 d5bb ab27 a0bc
00000080: af76 38bb 6879 75bc d15c 713b 6b8e 81bc
00000090: 053f 36bc e267 8dbb da83 dbbb 15cc 1ebc
000000a0: 5653 f1bb ee70 fcbb 8ecc b3b9 e55d 01bc
000000b0: da02 a0bc 39fa ccbb 4e7e 96bb 70bc cd3b
000000c0: 3be5 b6bb 4176 b8bb 50be 84bc 2667 a6bb
000000d0: d7c5 69bb c300 83bc 5b8e cd39 36f2 8bbc
000000e0: a3ce 3cba c69a ffbb 6e61 8fbc 12ff 74bc
000000f0: 4b78 c2bb d5a3 0c3a 011b 3ebc 4273 03bc
00000100: 024c 833b 341a b1bb b4e3 39bb 6851 64bb
00000110: 4c16 42bc 3866 34bc b08e 29bc 0056 02bc
00000120: 304c 83bc dca0 213b 3688 8bbc af32 943a
00000130: a18d 98bc 0335 b53b f5b9 cd39 fd75 223b
00000140: caf3 1cbc e320 373b 25d0 a9ba db60 02bc
00000150: 2ccf fbbb f368 8d3b 9a59 be3b 4b5b d03b
00000160: b6b0 b43b b4e5 32bc cc2c b3bb f2fa 49bc
00000170: 78c9 94ba 217a 8fbc 8409 9dbb 46d7 45bb
00000180: 06e3 23bc a177 333b acaa fcbb 4d88 d23b
00000190: 7e1a ed3b f29e d4bb c23d 873b 257a 09bc
000001a0: 6a73 f4bb d8ba 89bc 6120 e5ba d4bd 9cba
000001b0: cea5 15bc 66c6 0ebc 78f1 6fbb b175 6ebc
000001c0: 83e4 46bc 1374 f6bb 04d4 0abc af39 153c
000001d0: e4ec 7ebb 33a3 89bb c79e 3e3a 98a7 b13b
000001e0: 1f54 543c 5c8a 813b b47e 9dbc e461 9bbc
000001f0: e030 6a3b 0855 483c e850 8abb 152d 7ebc
00000200: 6907 0e3c ef74 96bc 28b2 fc3a 0b5c 5ebb
00000210: 8a49 96bb 6954 9f3c 9b37 93bc ae1d 47bc
00000220: 4fe6 17bc 6819 ed3b f6e6 da3a 185a c83b
00000230: 4d49 0fbc f1cb 89bc ece5 76bb 51b8 a53b
00000240: 580f 3ebc 603f 933c f402 9d3a b880 e63b
00000250: d841 0ab9 6bf6 97bb f08b 65bc 4a92 1dbc
00000260: 25a5 75bc 327c 64bc 1832 16bb f3a2 f43b
00000270: d873 b5b6 88f9 da3b 44b2 aa3b 97da 8b3b
00000280: ba4d f73b f400 89b9 5836 b6ba 3710 b0bb
00000290: dd85 913b baea 69bc 3b5b 26bc b522 74bb
000002a0: 16d7 3bbc bd86 81bc 5f27 c63b e66f 773b
000002b0: 52ee 193b f45b 28bc 3d14 9a3b f312 42bc
000002c0: 9cf2 993b 3147 973b 8af9 ef3b feae 79bc
000002d0: 0cf7 d8bb 14c6 8439 5ec4 d4ba 4f67 59bc
000002e0: b279 0dbc 7e89 74bc b615 373b 80f6 8dbc
000002f0: 0252 94bc 5e41 96bc 4861 013b 23ac d83b
00000300: 27c5 4ebc 2680 6e3b b3c0 f0ba d883 503b
00000310: 45dd 61ba a4f8 27bb e92e e13b 0e47 ad3b
00000320: 0a78 3fbc a27b 3bbc 2a26 1b3b 04a9 19bc
00000330: 96be 31bc fd1c 85ba 02fe 9cbc f93f 9eba
00000340: fc57 b43a 4bb8 82bc 40d8 9bbb 3288 6dbc
00000350: 83f2 8fbb 378e 6d3b 3392 7bbc 315c b5bb
00000360: 3c19 2ebc 3676 ddbb 855e 01bc 0186 74bc
00000370: 0969 5bbc 804c 92bc ba0a 6fbb 9f9c 1dbc
00000380: 9e70 f33b bebc 40bc 26fe fdbb 5ee9 c4ba
00000390: 7ddb d53b c5ce 2dbc c2b9 75bc 89d4 91bc
000003a0: 0b35 f8bb 4f40 6dbc b4e3 73bc b6b4 31bc
000003b0: bd70 59bc f8b5 033a 3c8c b2bb 825c ec39
000003c0: 44d1 2f3a 2f89 c9bb 10bb 8bbc 1690 6f3b
000003d0: 88c6 08bc 4ce6 72bc c7e4 a9bb 1cf4 09bc
000003e0: f985 94bc faeb 4e3a 706e aa3b 39f4 9b3b
000003f0: 3bfe c73b 321f ed3b 894b 2fbc 4f5f 493b
-0.013552945 -0.018703071 0.00017309934 0.002214325 -0.0018482296 -0.009652203 0.006692124 -0.0043084174
-0.005318369 -0.00014891323 -0.0069727153 0.0036892763 0.0009269461 0.0046701347 -0.01753912 0.0013124021
0.0010748977 0.0043118796 0.0032275137 -0.0035004697 0.0012176614 -0.017363632 -0.0046753194 0.0025453558
-0.015828514 -0.015022268 -0.008409352 -0.0063557383 0.0060750977 -0.0047220048 -0.006502167 -0.019550165
-0.0028146913 -0.014982559 0.0036829005 -0.01581498 -0.011123423 -0.0043153623 -0.0066990675 -0.009692212
-0.0073646707 -0.007703892 -0.00034293946 -0.007895921 -0.01953261 -0.006255415 -0.0045926934 0.006278567
-0.0055815256 -0.0056293313 -0.01620403 -0.005078214 -0.00356709 -0.015991574 0.0003920671 -0.017083269
-0.0007202422 -0.007800433 -0.017502513 -0.014953392 -0.00593475 0.0005364989 -0.011603118 -0.008023085
0.0040068636 -0.005404735 -0.0028364481 -0.003483856 -0.011846136 -0.011010699 -0.010348961 -0.007955074
-0.01602754 0.002466253 -0.017032724 0.0011306609 -0.018622221 0.005530001 0.00039239196 0.0024789565
-0.009579608 0.0027943186 -0.0012955709 -0.007957662 -0.007684609 0.0043154894 0.005809021 0.006358539
0.0055142296 -0.010919023 -0.0054679867 -0.012327896 -0.0011351546 -0.01751429 -0.004792394 -0.0030188127
-0.010002857 0.0027384537 -0.0077107754 0.0064249397 0.007235824 -0.0064886743 0.004127235 -0.008390938
-0.0074600475 -0.016812727 -0.0017480963 -0.0011958429 -0.009133769 -0.008714294 -0.0036612432 -0.014554427
-0.012139442 -0.0075211613 -0.0084734 0.009107991 -0.0038898522 -0.004200363 0.00072715845 0.00542159
0.012959509 0.0039532613 -0.019225456 -0.018967576 0.0035734698 0.012227304 -0.0042210706 -0.015513678
0.008668759 -0.018366305 0.0019279169 -0.0033929374 -0.0045864033 0.01944943 -0.01797085 -0.012153072
-0.009271218 0.0072356947 0.0016700912 0.0061142556 -0.008745504 -0.01682088 -0.0037673665 0.0050573726
-0.011600338 0.017974555 0.001197903 0.0070343874 -0.00013185234 -0.0046375296 -0.0140104145 -0.009617398
-0.014992987 -0.013945626 -0.0022918042 0.007465714 -5.4077063e-06 0.0066825785 0.005209239 0.0042680013
0.0075471075 -0.00026131386 -0.0013901694 -0.0053730267 0.0044410066 -0.014277155 -0.010153587 -0.0037252132
-0.011464855 -0.015811319 0.006047174 0.0037755906 0.0023487997 -0.01027583 0.0047021196 -0.011845338
0.0046981107 0.004616641 0.0073234485 -0.015239475 -0.006621247 0.00025324582 -0.0016232838 -0.01326926
-0.008634971 -0.014925359 0.0027936525 -0.017329454 -0.01810551 -0.018341716 0.0019741822 0.006612317
-0.012620247 0.00363923 -0.0018367976 0.0031816866 -0.00086160406 -0.002563038 0.006872047 0.0052880114
-0.011686334 -0.011443051 0.002367387 -0.009378675 -0.010848662 -0.0010155734 -0.01916409 -0.0012073509
0.0013759132 -0.015957018 -0.0047560036 -0.0144978035 -0.0043929233 0.0036248097 -0.015354681 -0.0055346717
-0.0106261335 -0.0067584766 -0.00789607 -0.014924527 -0.013391742 -0.017858744 -0.00364749 -0.009619861
0.0074291965 -0.01176375 -0.007751244 -0.0015023162 0.006526409 -0.01060838 -0.014997901 -0.01780154
-0.0075746826 -0.014480664 -0.014885832 -0.0108463075 -0.013271508 0.0005024369 -0.005448846 0.0004508235
0.0006706903 -0.0061503868 -0.017056972 0.0036554388 -0.008348115 -0.014825415 -0.005184743 -0.008420017
-0.01813029 0.00078934396 0.0052011535 0.004759338 0.0061033047 0.007236385 -0.010699161 0.0030726974

fully_connect1.bias f4 [10]
00000000: 40a3 843b 7811 8bbc 2860 33bc 8544 7ebc
00000010: 9ae2 86bb dffa fe3a dd86 913c 4dba 3c3a
00000020: 1c47 30ba ca22 8abc
0.004047781 -0.016976103 -0.010948218 -0.015519266 -0.0041163685 0.0019453428 0.017764503 0.0007199392
-0.00067244633 -0.016862292

fully_connect2.weight f4 [1, 10]
00000000: 157f eb3d 26e8 57be 5bc5 9b3e 3c2f 96be
00000010: a02f 743e 83a1 9bbe 5a0e f5bd 17b4 5b3e
00000020: f4d6 04be a9e7 7bbd
0.11498848 -0.21084651 0.30424008 -0.29332912 0.23846292 -0.3039666 -0.11965628 0.21455418
-0.12972623 -0.061500225
