bs16_lr0.01_weight.pt (torch, 240068 bytes, 7 tensors)

conv_1.weight f4 [16, 3, 3, 3]
0.09190402 -0.07490075 0.102835126 0.057234216 -0.2929442 0.020605784 0.03956499 -0.16354366
0.1194445 0.3228745 -0.14184935 0.40860996 0.5066563 -0.0713081 0.38535425 0.49701926
-0.04523854 0.25988847 -0.205642 -0.25386295 -0.21606295 0.038467553 -0.38302937 -0.106666796
-0.03903239 -0.32050875 -0.22578593 -0.016934546 -0.10904294 0.15996961 0.1856504 0.0117322765
0.0021514455 -0.06119324 0.038824033 -0.110192694 0.024111165 0.22070976 0.11828124 0.16840944
0.10108629 -0.08543942 0.11232867 -0.13854618 0.0831633 -0.022486947 0.06364334 0.17172545
0.08885115 0.16922763 -0.0021989457 0.19595538 -0.0049697123 0.09291607 -0.17642915 0.13189511
-0.2047197 -0.061150867 0.05490185 -0.16484447 0.105061255 -0.07423894 -0.26649272 0.24950606
0.49199224 -0.21851431 0.20745619 0.5403976 -0.13055973 0.105989106 0.43190163 0.021716755
0.01009453 -0.0004254647 -0.3601907 0.1404852 -0.11106724 -0.25103608 0.0878372 -0.014034028
-0.20473352 0.08110075 0.20225929 -0.05589953 -0.027294302 -0.06637346 -0.13346693 -0.20638847
-0.017326757 -0.2067323 0.06653674 0.172814 0.1142803 -0.03331058 -0.105126634 0.19679655
0.061699454 -0.18907799 -0.15745516 0.23549312 -0.024461146 0.20462564 0.28533578 0.109146714
0.09156929 0.061797924 -0.19997631 -0.037785944 0.2006006 -0.025847083 0.17706771 -0.08399279
-0.070760235 0.0885891 0.18234397 0.05086199 -0.13720512 0.16891079 -0.01768918 0.020616563
0.07107131 -0.0819714 -0.0623455 0.03122091 0.008967636 -0.023389779 0.059695873 0.15945095
0.35456118 0.10437015 0.30559754 0.20309292 -0.028717434 0.37278166 0.23790236 0.0799314
0.016282523 0.059808973 0.10610291 -0.089154415 0.1290107 0.004333185 -0.024741871 -0.06987146
-0.035359584 -0.10120659 -0.042033125 0.21710134 0.055528875 -0.029012106 0.09990243 0.13594311
0.06611297 0.12898321 0.036985397 -0.10517775 0.30476475 0.08152527 0.17570171 0.06253031
0.16392492 0.23339751 0.124506265 0.09560643 0.013359985 -0.09194702 -0.13179353 0.15398684
-0.029539725 0.04878138 -0.2521869 0.06975077 0.09361642 0.2525676 0.06733746 0.042281017
0.06600706 -0.018938161 -0.05124288 0.013316851 0.4248895 0.26948923 0.41068637 0.45848325
0.28399187 0.27022752 0.3773459 0.13572328 0.10802712 -0.06726305 -0.12266417 -0.08125297
-0.14221975 -0.23373233 -0.11420843 -0.08454273 -0.015980305 0.11574592 0.33550063 0.3636002
0.24381837 0.2708413 0.29836714 0.19308893 0.20352434 0.36061224 0.44304127 -0.23098196
-0.22795728 -0.005062226 0.06567688 -0.035838757 0.057504226 0.10020967 0.0726577 -0.0456902
0.18941288 0.12246843 0.1118582 0.0027363733 0.040538 0.02210676 0.08092538 -0.20247957
-0.04979225 -0.11327558 0.09594647 0.2707721 0.107101955 0.07647404 0.12305245 -0.020866184
0.023419686 0.06559646 0.04346431 0.23359773 0.27328494 0.069532745 0.1966321 0.1837208
0.23024642 -0.18247654 0.14567941 0.25354442 0.30160955 -0.1466367 -0.08201268 0.14886557
0.11872314 -0.1865334 -0.0181145 -0.2676756 0.059352387 0.14031206 0.22757094 0.06478342
00000000: 2d38 bc3d 9065 99bd 399b d23d 6d6e 6a3d
00000010: c8fc 95be 76cd a83c e60e 223d fd77 27be
00000020: 519f f43d ce4f a53e f540 11be 5335 d13e
00000030: 3ab4 013f fb09 92bd 274d c53e 4f79 fe3e
00000040: 0c4c 39bd 1a10 853e d193 52be 53fa 81be
00000050: 9b3f 5dbe 2790 1d3d 6d1c c4be 1f74 dabd
00000060: 6de0 1fbd b919 a4be 6d34 67be 51ba 8abc
00000070: e851 dfbd 13cf 233e 231b 3e3e bc38 403c
00000080: 44ff 0c3b c3a5 7abd f305 1f3d b5ac e1bd
00000090: c784 c53c bd01 623e 6f3d f23d 8673 2c3e
000000a0: 5406 cf3d ddfa aebd 930c e63d 0ddf 0dbe
000000b0: 8551 aa3d 8c36 b8bc 7057 823d ccd8 2f3e
000000c0: 97f7 b53d 024a 2d3e 301c 10bb 87a8 483e
000000d0: f8d8 a2bb c84a be3d d8a9 34be 830f 073e
000000e0: 0ba2 51be 5579 7abd c3e0 603d fdcc 28be
000000f0: 5b2a d73d 960a 98bd bc71 88be 847e 7f3e
00000100: 68e6 fb3e 37c2 5fbe 656f 543e 7f57 0a3f
00000110: 73b1 05be d110 d93d 3622 dd3e 56e7 b13c
00000120: 8763 253c e810 dfb9 ea6a b8be 5adb 0f3e
00000130: 3977 e3bd cd87 80be fde3 b33d fbee 65bc
00000140: aaa5 51be 2618 a63d 0f1d 4f3e e8f6 64bd
00000150: 4d98 dfbc cfee 87bd 8eab 08be 8057 53be
00000160: d8f0 8dbc a2b1 53be 6a44 883d 27f6 303e
00000170: ca0b ea3d ad70 08bd a24c d7bd 0985 493e
00000180: 91b8 7c3d a99d 41be ed3b 21be 1c25 713e
00000190: be62 c8bc 6289 513e 8817 923e 5088 df3d
000001a0: ae88 bb3d d21f 7d3d 97c6 4cbe 6fc5 1abd
000001b0: 3e6a 4d3e 43bd d3bc 3d51 353e 6904 acbd
000001c0: beea 90bd 346e b53d 61b8 3a3e a954 503d
000001d0: 807f 0cbe f3f6 2c3e e6e8 90bc 11e4 a83c
000001e0: d68d 913d 9fe0 a7bd ff5d 7fbd fec2 ff3c
000001f0: feec 123c ec9b bfbc a983 743d 1c47 233e
00000200: 0b89 b53e 04c0 d53d 4877 9c3e 97f7 4f3e
00000210: d340 ebbc 3ddd be3e ad9c 733e 13b3 a33d
00000220: ed62 853c 41fa 743d 7c4c d93d 9796 b6bd
00000230: 621b 043e 64fd 8d3b 77af cabc c518 8fbd
00000240: 36d5 10bd 6745 cfbd ed2a 2cbd d04f 5e3e
00000250: 3f72 633d ccaa edbc a599 cc3d ac34 0b3e
00000260: 3d66 873d 2d14 043e 007e 173d 6f67 d7bd
00000270: 200a 9c3e b9f6 a63d 26eb 333e e40f 803d
00000280: efdb 273e c2ff 6e3e 24fd fe3d 4ecd c33d
00000290: d7e3 5a3c b84e bcbd e2f4 06be baae 1d3e
000002a0: 4bfd f1bc fcce 473d a41e 81be 7ed9 8e3d
000002b0: f7b9 bf3d 8a50 813e 39e8 893d dc2e 2d3d
000002c0: b62e 873d 3424 9bbc 0ee4 51bd ec2e 5a3c
000002d0: 1e8b d93e 7efa 893e 7c45 d23e 51be ea3e
000002e0: 6267 913e 435b 8a3e 7b33 c13e 0bfb 0a3e
000002f0: 533d dd3d 36c1 89bd 5a37 fbbd f567 a6bd
00000300: 0ea2 11be 8757 6fbe 1ce6 e9bd bd24 adbd
00000310: 21e9 82bc 320c ed3d bdc6 ab3e ce29 ba3e
00000320: 86ab 793e b6ab 8a3e 94c3 983e 1bb9 453e
00000330: af68 503e 2ba2 b83e 4ed6 e23e 8986 6cbe
00000340: a26d 69be 08e1 a5bb 9a81 863d a9cb 12bd
00000350: 8d89 6b3d ba3a cd3d 8fcd 943d a625 3bbd
00000360: 73f5 413e bad0 fa3d e915 e53d ba54 333b
00000370: 2d0b 263d 3c19 b53c 35bc a53d ce56 4fbe
00000380: f5f2 4bbd 07fd e7bd 957f c43d a4a2 8a3e
00000390: 4558 db3d 6c9e 9c3d ec02 fc3d 8fef aabc
000003a0: a4da bf3c 7057 863d a207 323d 3e34 6f3e
000003b0: 01ec 8b3e 2f67 8e3d ed59 493e 4e21 3c3e
000003c0: b8c5 6b3e 21db 3abe fc2c 153e 93d0 813e
000003d0: 916c 9a3e ee27 16be 44f6 a7bd 3770 183e
000003e0: 1e25 f33d 9d02 3fbe dc64 94bc c70c 89be
000003f0: 7d1b 733d f7ad 0f3e 5b08 693e 2bad 843d

conv_1.bias f4 [16]
0.21545362 0.0031844687 0.027733179 -0.3221214 0.45800656 -0.26875904 -0.42384353 -0.8401282
-0.06313407 -0.07849785 -0.18716863 -0.36472738 -0.3631541 -0.16469544 -0.5645395 -0.007675457
00000000: e09f 5c3e 85b2 503b b130 e33c 19ed a4be
00000010: d67f ea3e c99a 89be 0502 d9be a412 57bf
00000020: 6f4c 81bd 7bc3 a0bd 22a9 3fbe 8cbd babe
00000030: 56ef b9be eca5 28be a985 10bf 6682 fbbb

conv_2.weight f4 [32, 16, 3, 3]
-0.001537789 -0.020579373 -0.046114087 0.008694258 -0.00653952 -0.11042683 0.008999731 -0.023976667
-0.072074376 -0.025022188 -0.12990917 -0.07376735 0.011022628 0.012533389 -0.12035253 -0.10869464
-0.05727136 -0.124468535 -0.015714837 -0.07071824 -0.036933348 -0.12760381 -0.11163088 -0.1140538
-0.053378392 -0.0878211 -0.049488433 0.036614966 -0.071511276 0.029733526 0.0058383374 -0.03436827
-0.05942547 -0.0014771335 -0.036832534 0.028002197 0.024288483 -0.072286054 0.03824979 -0.03145625
-0.028593551 -0.019311246 0.020254182 -0.11302765 -0.07701008 0.036369167 -0.119288966 -0.07265269
-0.09535881 -0.040906638 -0.08276465 -0.06412989 -0.07516147 -0.03052631 -0.007613088 0.032004867
-0.06355608 -0.112881765 -0.064497605 -0.016663127 -0.09460579 -0.022624219 -0.07650638 -0.014765534
0.011259176 -0.11705308 -0.095994085 0.021950103 -0.10485002 -0.08498327 0.024929697 -0.097589456
-0.08322654 -0.04953288 -0.14266387 -0.0055041253 -0.09089404 -0.14440565 -0.07467007 -0.1173608
-0.11488268 -0.068423904 -0.04451333 -0.09083526 -0.101044156 0.022383975 -0.017637936 -0.04153147
0.011649172 -0.102992594 -0.103413455 -0.065732464 -0.12362056 -0.070900746 -0.07044707 -0.12805691
-0.044191297 0.021850742 -0.13729525 -0.10223478 0.025841683 -0.079456285 -0.13226295 -0.05643782
-0.10038321 -0.0076874453 -0.09573264 -0.13627814 0.028763195 0.018278847 0.014523978 0.015705083
-0.041648135 -0.036331713 -0.0505289 -0.12054466 -0.119443804 -0.0660102 -0.0027591416 -0.05486834
-0.065507144 -0.12614973 -0.07367357 -0.026777538 -0.03660778 -0.026609661 -0.10245999 -0.122889504
-0.096566044 -0.06765234 -0.13746019 -0.022870818 -0.016799808 -0.05934576 0.014189505 -0.112390056
0.009253027 -0.08443987 -0.040633257 -0.13340396 -0.01225968 -0.018105943 -0.0707781 -0.002751191
-0.09424815 -0.07928776 -0.0040301764 -0.08948891 -0.12999697 -0.018884873 -0.02481982 -0.005916386
-0.089428425 -0.021730224 -0.11304146 -0.021654602 -0.08414076 -0.01982274 -0.09310731 -0.07594525
0.007682783 0.0099816 -0.0045836703 -0.12525868 -0.039831176 -0.033561066 -0.016291622 -0.08250881
-0.09042948 -0.12622596 -0.07115675 -0.012113799 -0.09236031 -0.022710187 -0.11652444 -0.10163596
-0.038533192 0.008709084 -0.06373883 -0.07478354 -0.09544737 -0.060754653 -0.05167866 0.021518316
-0.09744662 -0.06741214 -0.02560316 -0.025129098 -0.055781316 -0.12675327 -0.086732 -0.07974801
-0.095609084 0.021829737 -0.1102537 0.012059659 -0.01581349 0.009179397 -0.019896578 -0.0024593868
0.029130084 -0.06899187 0.015344388 -0.1033144 -0.1029778 0.031660233 0.01264499 -0.057134412
-0.11796051 -0.13184598 -0.107735164 -0.10341021 -0.12301133 -0.11833477 -0.043520782 -0.07789464
-0.09059847 -0.15298158 -0.07777602 -0.13877824 -0.04487029 -0.09490409 -0.012073451 -0.032258786
-0.078149095 0.005341321 -0.13425994 -0.09569476 0.00036401788 -0.12518847 -0.024836626 -0.0058246213
-0.018612495 -0.09510873 -0.10545905 0.005236319 -0.0004911567 -0.0403504 -0.10313491 -0.024154706
0.028031163 -0.11950597 -0.053585153 -0.033990763 -0.077181764 -0.1251585 -0.10410126 0.009154139
-0.14757021 -0.005664677 -0.052862357 0.0017331163 -0.14079769 -0.06849355 -0.13768834 -0.014995707
00000000: a38f c9ba 1396 a8bc 20e2 3cbd 5c72 0e3c
00000010: 7849 d6bb 7627 e2bd 9c73 133c b76a c4bc
00000020: bb9b 93bd 55fb ccbc e906 05be 5613 97bd
00000030: 4198 343c d858 4d3c 637b f6bd 4c9b debd
00000040: 6095 6abd 5ce9 febd 67bc 80bc bad4 90bd
00000050: 6c47 17bd 93aa 02be bb9e e4bd 0a95 e9bd
00000060: 4da3 5abd 8ddb b3bd 62b4 4abd 93f9 153d
00000070: 8174 92bd b993 f33c 864f bf3b bec5 0cbd
00000080: 1f68 73bd 609c c1ba b6dd 16bd dd64 e53c
00000090: a4f8 c63c b60a 94bd d0ab 1c3d 45d8 00bd
000000a0: 063d eabc 9e32 9ebc 19ec a53c 0a7b e7bd
000000b0: 76b7 9dbd d6f7 143d c64d f4bd efca 94bd
000000c0: 7b4b c3bd b88d 27bd 8380 a9bd 8856 83bd
000000d0: 42ee 99bd 5012 fabc 3677 f9bb 8917 033d
000000e0: b129 82bd 8e2e e7bd 5217 84bd 1c81 88bc
000000f0: aec0 c1bd 6d56 b9bc 61af 9cbd 23eb 71bc
00000100: 6878 383c 86b9 efbd 8c98 c4bd b4d0 b33c
00000110: 9bbb d6bd b50b aebd 5d39 cc3c fbdc c7bd
00000120: ad72 aabd fde2 4abd 7a16 12be f35b b4bb
00000130: a826 babd 13df 13be 9fec 98bd dc5a f0bd
00000140: 9c47 ebbd d521 8cbd 9c53 36bd d607 babd
00000150: 3df0 cebd 995e b73c 6f7d 90bc e71c 2abd
00000160: 2bdc 3e3c c8ed d2bd 6fca d3bd be9e 86bd
00000170: c72c fdbd 6934 91bd 8e46 90bd 5a21 03be
00000180: ef01 35bd 5400 b33c 2097 0cbe 7860 d1bd
00000190: f0b1 d33c fab9 a2bd f06f 07be 582b 67bd
000001a0: b695 cdbd f7e6 fbbb 790f c4bd 7f8c 0bbe
000001b0: cba0 eb3c 85bd 953c fbf5 6d3c f2a7 803c
000001c0: 3c97 2abd 90d0 14bd 64f7 4ebd 1ee0 f6bd
000001d0: f49e f4bd 5b30 87bd b7d2 34bb a0bd 60bd
000001e0: 9c28 86bd 652d 01be 2be2 96bd 915c dbbc
000001f0: 0af2 15bd 81fc d9bc 8bd6 d1bd 7ead fbbd
00000200: 6bc4 c5bd 4f8d 8abd 5dc2 0cbe 955b bbbc
00000210: c09f 89bc 8a14 73bd 197b 683c c22c e6bd
00000220: 029a 173c d0ee acbd 0f6f 26bd 0c9b 08be
00000230: d3dc 48bc ea52 94bc 1cf4 90bd 534d 34bb
00000240: 2d05 c1bd 9f61 a2bd 920f 84bb f645 b7bd
00000250: ed1d 05be 73b4 9abc ef52 cbbc 3ede c1bb
00000260: 4026 b7bd 9503 b2bc 4882 e7bd fe64 b1bc
00000270: fe51 acbd 4d63 a2bc 0caf bebd 2f89 9bbd
00000280: dbbf fb3b dd89 233c 9d32 96bb d043 00be
00000290: 0426 23bd 5477 09bd 0276 85bc 61fa a8bd
000002a0: 1733 b9bd 6141 01be a1ba 91bd f578 46bc
000002b0: 6727 bdbd b70a babc 5ea4 eebd 8426 d0bd
000002c0: fbd4 1dbd 8cb0 0e3c 8189 82bd 1d28 99bd
000002d0: e979 c3bd dfd9 78bd 01ad 53bd 2e47 b03c
000002e0: 1892 c7bd 600f 8abd b8bd d1bc 8adb cdbc
000002f0: f37a 64bd 9ccb 01be 8ca0 b1bd ed52 a3bd
00000300: b2ce c3bd 47d4 b23c b1cc e1bd e095 453c
00000310: 4b8b 81bc 2e65 163c 26fe a2bc aa2d 21bb
00000320: 37a2 ee3c 9c4b 8dbd 0767 7b3c 8096 d3bd
00000330: 06e6 d2bd 29ae 013d ef2c 4f3c c605 6abd
00000340: 4895 f1bd a202 07be 41a4 dcbd bbc8 d3bd
00000350: 5ded fbbd 8059 f2bd d942 32bd 3a87 9fbd
00000360: b18b b9bd 34a7 1cbe 0949 9fbd e21b 0ebe
00000370: e9c9 37bd 135d c2bd b9cf 45bc ca21 04bd
00000380: a20c a0bd 4006 af3b 707b 09be 9dfb c3bd
00000390: a7d9 be39 6831 00be 2e76 cbbc 77dc bebb
000003a0: 3b79 98bc 5ec8 c2bd eafa d7bd 6d95 ab3b
000003b0: f8c0 00ba 7646 25bd 6538 d3bd 17e0 c5bc
000003c0: 9ca1 e53c 8cbf f4bd 1b7c 5bbd e639 0bbd
000003d0: 7911 9ebd 8d29 00be 0b33 d5bd 3efb 153c
000003e0: a51c 17be c19e b9bb 3386 58bd bc29 e33a
000003f0: 452d 10be 5946 8cbd 2cfe 0cbe 8eb0 75bc

conv_2.bias f4 [32]
-0.008504042 -0.020919183 0.13781863 -0.111596234 -0.09848971 -0.091023 -0.084337026 -0.020714864
-0.060563516 -0.064586855 -0.041832283 -0.017387595 -0.12796116 -0.09430401 -0.09332113 -0.096000195
-0.059035696 -0.1917869 -0.10624519 -0.062278844 -0.05480708 -0.07453103 -0.042436726 0.0874808
-0.3562611 -0.081957445 -0.07049905 0.3943066 0.14989558 -0.12960723 -0.01662958 -0.11124991
00000000: 8a54 0bbc b55e abbc 5420 0d3e 918c e4bd
00000010: f9b4 c9bd 446a babd e4b8 acbd 38b2 a9bc
00000020: 7311 78bd 1d46 84bd 5458 2bbd 6e70 8ebc
00000030: 4008 03be 7622 c1bd 261f bfbd c09b c4bd
00000040: 6acf 71bd c963 44be 1497 d9bd 1a18 7fbd
00000050: 647d 60bd baa3 98bd 22d2 2dbd 2229 b33d
00000060: db67 b6be 4ed9 a7bd ce61 90bd 8ee2 c93e
00000070: 3a7e 193e c2b7 04be c23a 88bc fed6 e3bd

fully_connect1.weight f4 [10, 5408]
0.031218994 0.024876386 0.038381692 0.056553964 0.038255487 0.059249777 0.02816032 0.07408083
0.056961473 0.047644727 0.04824562 0.05220392 0.04040693 0.0753413 0.042709634 0.054616038
0.04374407 0.051827278 0.06323732 0.053152613 0.06716201 0.041770536 0.048614804 0.041523527
0.05465295 0.044278648 0.03623538 0.041735232 0.039583895 0.057541106 0.06664429 0.062143195
0.057031788 0.051467493 0.06517366 0.057528123 0.051402815 0.07147121 0.04191205 0.042848248
0.026225355 0.042000376 0.051930714 0.08727904 0.057394896 0.06349924 0.053902492 0.045833718
0.049523696 0.048130438 0.038613126 0.045737818 0.054646693 0.029984064 0.035084825 0.025966963
0.037948314 0.049138658 0.04829826 0.05326267 0.05820136 0.055461027 0.05675166 0.034386843
0.04031838 0.03548935 0.041859817 0.020295873 0.048542466 0.056357745 0.05132639 0.03565995
0.041256774 0.059360128 0.050894476 0.05551113 0.036757365 0.058353115 0.056453947 0.03373083
0.03256046 0.06045456 0.055980958 0.04188544 0.04169226 0.05722604 0.055526007 0.063401535
0.054403566 0.029728988 0.03671868 0.04509667 0.039797615 0.029520212 0.064371444 0.051791653
0.05320336 0.048578538 0.05211861 0.04834939 0.031313952 0.05950347 0.034021184 0.06523035
0.03462444 0.031174332 0.042056795 0.025320787 0.054233197 0.04383309 0.055318687 0.040631402
0.07135451 0.035370167 0.03267375 0.05495516 0.029044973 0.039390776 0.051848356 0.06961674
0.033385433 0.06220946 0.067922 0.063704185 0.077326156 0.05588915 0.0486604 0.060796916
0.040891927 0.030441703 0.027081022 0.043308306 0.032216858 0.055609852 0.07262703 0.045695104
0.04735122 0.04437454 0.07309821 0.038181562 0.04379175 0.030683778 0.024913672 0.024946697
0.02404626 0.050157975 0.050201144 0.047004417 0.07048706 0.07990102 0.027576191 0.04388231
0.06435767 0.023705475 0.02346615 0.033982556 0.04007829 0.043693207 0.050222218 0.051856916
0.03690408 0.04878765 0.05791467 0.052808844 0.055677976 0.025967786 0.060359094 0.028775342
0.02995892 0.07245426 0.02861427 0.05531108 0.052602496 0.06388837 0.09037157 0.06261361
0.07059716 0.07303635 0.09308211 0.076419555 0.086584784 0.07969438 0.034485873 0.031238003
0.076211564 0.08037198 0.0662798 0.08737412 0.049507365 0.04893087 0.036827702 0.032048117
0.063389555 0.068935975 0.07978398 0.044329636 0.043486625 0.088402145 0.07808786 0.07557057
0.05822037 0.08050126 0.08173865 0.082727864 0.03496317 0.034405295 0.033419833 0.016192144
0.06928587 0.08270011 0.03520708 0.0742019 0.031541202 0.05740946 0.0435276 0.04079359
0.067485124 0.07864868 0.045760833 0.04646983 0.036479644 0.07407398 0.027997902 0.04876668
0.04247196 0.04886771 0.022537872 0.047952287 0.02745652 0.042826686 0.081805624 0.04247599
0.053277258 0.06973573 0.07232947 0.047345508 0.030540898 0.036573146 0.04196825 0.030402275
0.0443763 0.030901773 0.055148408 0.035017174 0.015134223 0.041243408 0.03555317 0.041502707
0.038719952 0.050321214 0.03921031 0.07933539 0.04659796 0.052933414 0.079688855 0.03534843
00000000: fabe ff3c 90c9 cb3c 1f36 1d3d 21a5 673d
00000010: c9b1 1c3d e5af 723d 79b0 e63c b1b7 973d
00000020: 6f50 693d 1e27 433d 339d 453d c7d3 553d
00000030: bd81 253d 8a4c 9a3d 4cf0 2e3d 11b5 5f3d
00000040: fb2c 333d d748 543d 9182 813d 8eb6 593d
00000050: 3c8c 893d 9517 2b3d 5120 473d 9314 2a3d
00000060: c6db 5f3d 875d 353d 8d6b 143d 90f2 2a3d
00000070: b922 223d 39b0 6b3d cd7c 883d dd89 7e3d
00000080: 2a9a 693d 94cf 523d c579 853d 9ca2 6b3d
00000090: c28b 523d 7f5f 923d f8ab 2b3d a581 2f3d
000000a0: 8ed6 d63c 9608 2c3d 4db5 543d 5abf b23d
000000b0: e916 6b3d e40b 823d dcc8 5c3d 23bc 3b3d
000000c0: 5cd9 4a3d 6c24 453d cc28 1e3d 9457 3b3d
000000d0: 36d5 5f3d 24a1 f53c 1bb5 0f3d abb8 d43c
000000e0: b16f 1b3d 9e45 493d 65d4 453d f529 5a3d
000000f0: 8d64 6e3d 1a2b 633d 6e74 683d 38d9 0c3d
00000100: e324 253d 485d 113d 3375 2b3d 8843 a63c
00000110: 77d4 463d 61d7 663d 9f3b 523d 2b10 123d
00000120: ddfc 283d 9b23 733d ba76 503d a35f 633d
00000130: e48e 163d ad03 6f3d 413c 673d 5729 0a3d
00000140: 1e5e 053d 339f 773d 4a4c 653d 1190 2b3d
00000150: 81c5 2a3d da65 6a3d 3d6f 633d aad8 813d
00000160: 46d6 5e3d 358a f33c 5466 163d 49b7 383d
00000170: d302 233d 5fd4 f13c 2dd5 833d 7c23 543d
00000180: c4eb 593d 4afa 463d 537a 553d 030a 463d
00000190: 0f43 003d e9b9 733d cc59 0b3d 7d97 853d
000001a0: 5bd2 0d3d 5061 ff3c bf43 2c3d 8a6d cf3c
000001b0: a123 5e3d 548a 333d d995 623d 1d6d 263d
000001c0: 5022 923d 4fe0 103d e9d4 053d a918 613d
000001d0: b9ef ed3c 3958 213d f15e 543d 3993 8e3d
000001e0: 2abf 083d 59cf 7e3d b11a 8b3d 5777 823d
000001f0: 2d5d 9e3d 05ec 643d 2150 473d 3006 793d
00000200: 4b7e 273d e160 f93c 05d9 dd3c 0d64 313d
00000210: d3f5 033d 28c7 633d 7bbd 943d ca2a 3b3d
00000220: 5af3 413d 14c2 353d 84b4 953d 4564 1c3d
00000230: fa5e 333d 8c5c fb3c c217 cc3c 045d cc3c
00000240: aafc c43c 7372 4d3d b79f 4d3d b487 403d
00000250: 855b 903d 25a3 a33d 77e7 e13c f0bd 333d
00000260: f4cd 833d fc31 c23c 153c c03c 4b31 0b3d
00000270: 2229 243d a6f7 323d d0b5 4d3d eb67 543d
00000280: bc28 173d 8fd5 473d ef37 6d3d 164e 583d
00000290: 970e 643d 65ba d43c 193b 773d 44ba eb3c
000002a0: 696c f53c e662 943d 7968 ea3c df8d 623d
000002b0: b775 573d e8d7 823d bb14 b93d 903b 803d
000002c0: 3e95 903d 1594 953d d5a1 be3d db81 9c3d
000002d0: 5d53 b13d cf36 a33d 0f41 0d3d d7e6 ff3c
000002e0: cf14 9c3d 119a a43d b4bd 873d 34f1 b23d
000002f0: 3cc8 4a3d bc6b 483d a5d8 163d e344 033d
00000300: 62d2 813d 4e2e 8d3d c965 a33d fe92 353d
00000310: 081f 323d 2f0c b53d 87ec 9f3d bec4 9a3d
00000320: 7c78 6e3d d8dd a43d 9866 a73d 3a6d a93d
00000330: 8a35 0f3d 91ec 0c3d 3ce3 083d 63a5 843c
00000340: c0e5 8d3d ad5e a93d 4d35 103d 2af7 973d
00000350: 5931 013d 2f26 6b3d ff49 323d 2e17 273d
00000360: a435 8a3d 8f12 a13d b66f 3b3d 2657 3e3d
00000370: ae6b 153d 19b4 973d db5b e53c 92bf 473d
00000380: 14f7 2d3d 8229 483d 58a1 b83c 9e69 443d
00000390: 7fec e03c 096b 2f3d b589 a73d 4efb 2d3d
000003a0: 4139 5a3d 9bd1 8e3d 7921 943d 5ded 413d
000003b0: e830 fa3c b9cd 153d e6e6 2b3d 310e f93c
000003c0: ecc3 353d b725 fd3c 4ce3 613d 2b6e 0f3d
000003d0: 88f5 773c d9ee 283d 33a0 113d befe 293d
000003e0: d098 1e3d 9e1d 4e3d fd9a 203d 987a a23d
000003f0: 81dd 3e3d b5d0 583d e933 a33d 84c9 103d

fully_connect1.bias f4 [10]
0.44315818 0.28285536 0.056698427 0.61111695 0.636778 -0.0605221 -0.08347832 0.087558374
-0.023990534 -0.19526549
00000000: a1e5 e23e 6bd2 903e 9c3c 683d 2972 1c3f
00000010: e203 233f 06e6 77bd aef6 aabd ce51 b33d
00000020: cc87 c4bc adf3 47be

fully_connect2.weight f4 [1, 10]
-0.08102202 0.10989638 0.14411993 -0.1669215 -0.17198096 0.11806506 0.08652761 0.120921105
0.07262151 0.20682938
00000000: dfee a5bd 5a11 e13d 2d94 133e 78ed 2abe
00000010: c71b 30be 18cc f13d 6335 b13d 7ca5 f73d
00000020: 96ba 943d 15cb 533e
