bs32_lr0.01_weight.pt (torch, 240068 bytes, 7 tensors)

conv_1.weight f4 [16, 3, 3, 3]
0.027072866 -0.031798236 -0.18889 0.2967363 0.22884673 -0.106111564 -0.09089762 0.03812038
-0.1980147 -0.096124336 -0.013238846 -0.11129297 -0.02284261 -0.04077514 0.09421187 -0.043580815
0.014376447 0.10851417 -0.01692714 -0.030462597 -0.20362 -0.09938186 0.14930671 0.011784522
0.012644376 0.19759996 -0.11609676 -0.07790001 0.09226488 -0.109324396 -0.032182243 -0.07821282
-0.22168635 -0.15617354 0.14587383 -0.24977307 0.3880632 0.069815956 -0.17681508 0.24851863
0.41333914 -0.03503155 0.21959794 0.31208625 -0.04024878 -0.120093055 -0.08549592 -0.2219958
-0.038578015 -0.15204625 -0.17522585 -0.14720683 -0.09877325 -0.056563634 -0.1814361 -0.14393675
-0.15133002 -0.054459896 0.021329314 -0.09238893 -0.25472125 -0.20329699 -0.17245343 0.00060014776
0.09227567 0.003723864 0.014826834 0.30266276 0.31543005 0.022508603 0.13996564 0.30122793
-0.17384571 -0.21221358 0.038943432 0.0693363 0.0052006124 0.0033991733 -0.21333794 -0.03203754
0.08878226 -0.15330714 -0.12384855 -0.42889988 -0.16358578 -0.3203648 -0.25086913 0.26092556
0.33530542 0.25218827 0.06987974 -0.13061848 -0.04236231 -0.14611267 0.07655868 0.063043155
-0.14941 0.049078826 -0.10096248 -0.1611104 -0.05152076 -0.08463967 -0.017887866 -0.16522405
-0.061497997 0.18414024 -0.043484524 -0.011821007 0.01907176 0.06828451 0.15961479 0.0363046
0.2487633 0.15471426 -0.10243024 0.18709762 -0.18597792 0.040480707 -0.15552409 -0.2579616
-0.16246288 -0.11055469 0.100613914 0.18267119 0.22880645 0.14453062 -0.33058873 -0.18199232
-0.20913327 -0.09477241 -0.09392443 -0.12479724 0.095949 -0.08085088 0.122344635 0.035406552
-0.16279562 0.119164206 0.13493438 -0.12263775 -0.10541972 -0.0640604 0.002838119 -0.024620334
-0.04125948 -0.051411185 0.1430643 0.15332046 0.022429323 0.104663715 0.15408638 -0.095988
0.107305855 0.05494395 -0.004191233 -0.019943535 0.086293526 0.009529119 0.25892568 0.17843193
0.11565935 -0.09268194 0.0026325937 -0.22645597 -0.35910824 -0.26064616 -0.09177066 -0.111614175
-0.028423196 0.07624052 -0.01708709 -0.14818712 -0.13769847 -0.18446247 0.033037785 -0.16155556
-0.21855973 -0.10889903 0.0044689183 0.15181802 -0.16987394 0.05821589 -0.13840687 -0.15458144
0.15291473 0.010656982 0.06520898 -0.16167687 0.07075126 -0.09996785 0.16445062 -0.0022944645
0.08451844 -0.068256706 0.21475014 0.1344391 -0.106011674 -0.20299292 0.045674276 0.068029456
0.056411054 0.118196376 -0.098859444 0.14030123 0.043859262 -0.13845009 -0.030607143 0.17362265
0.23305723 0.06582926 -0.07798206 0.14882515 0.27526638 -0.11547082 0.0331983 0.060602307
-0.14546873 -0.015937172 -0.07253575 0.0040712054 -0.14336035 -0.14940397 -0.01874101 -0.018674633
0.16518076 0.04752963 0.08667734 0.2393155 0.17777662 0.21593465 -0.012550589 0.1288041
0.20783024 -0.042462002 -0.08580697 0.05666818 -0.045574345 -0.20496534 0.03973219 -0.07645638
0.092901334 -0.0817793 0.05749612 -0.08189844 0.22600545 -0.29944992 0.21890473 0.011357633
-0.26019123 0.18358578 0.08293024 -0.18764466 0.09917998 0.098680176 -0.02722517 0.08179371
00000000: eac7 dd3c de3e 02bd 616c 41be d2ed 973e
00000010: cc56 6a3e 0551 d9bd 8828 babd 1e24 1c3d
00000020: 5ec4 4abe d6dc c4bd bfe7 58bc 92ed e3bd
00000030: 6d20 bbbc d503 27bd 27f2 c03d cc81 32bd
00000040: 308b 6b3c ad3c de3d c9aa 8abc b28c f9bc
00000050: c381 50be b788 cbbd dce3 183e de13 413c
00000060: 5b2a 4f3c a557 4a3e 23c4 edbd 0a8a 9fbd
00000070: 5ff5 bc3d 78e5 dfbd 87d1 03bd 0b2e a0bd
00000080: bf01 63be f5eb 1fbe f35f 153e 83c4 7fbe
00000090: 38b0 c63e abfb 8e3d 030f 35be ab7b 7e3e
000000a0: 30a1 d33e 3e7d 0fbd 48de 603e c5c9 9f3e
000000b0: e8db 24bd 59f3 f5bd 7c18 afbd de52 63be
000000c0: fb03 1ebd 03b2 1bbe 686e 33be 63bd 16be
000000d0: a149 cabd 45af 67bd 63ca 39be 2864 13be
000000e0: 42f6 1abe 5711 5fbd d0ba ae3c 6836 bdbd
000000f0: d36a 82be 162d 50be a297 30be 3c53 1d3a
00000100: 07fb bc3d 120c 743b 40ec 723c 9df6 9a3e
00000110: 0c80 a13e f663 b83c 2753 0f3e 8c3a 9a3e
00000120: 9c04 32be 844e 59be 2683 1f3d 3100 8e3d
00000130: e669 aa3b aac4 5e3b 4375 5abe cc39 03bd
00000140: 79d3 b53d 8cfc 1cbe 4fa4 fdbd c498 dbbe
00000150: 0883 27be db06 a4be eb71 80be 0998 853e
00000160: 27ad ab3e d21e 813e 1c1d 8f3d dac0 05be
00000170: 1a84 2dbd 8f9e 15be ccca 9c3d c51c 813d
00000180: effe 18be e106 493d 6bc5 cebd 20fa 24be
00000190: 6f07 53bd 9057 adbd 9389 92bc 7e30 29be
000001a0: 53e5 7bbd 428f 3c3e d41c 32bd e6ac 41bc
000001b0: 613c 9c3c c0d8 8b3d 0f72 233e 22b4 143d
000001c0: cebb 7e3e 6a6d 1e3e f2c6 d1bd 8596 3f3e
000001d0: ff70 3ebe 19cf 253d b541 1fbe 8b13 84be
000001e0: ab5c 26be 7f6a e2bd ab0e ce3d 280e 3b3e
000001f0: 3d4c 6a3e d6ff 133e ed42 a9be 325c 3abe
00000200: 0827 56be 0a18 c2bd 745b c0bd b295 ffbd
00000210: e980 c43d 2595 a5bd d38f fa3d 7606 113d
00000220: e5b3 26be 5d0c f43d 3d2c 0a3e 8029 fbbd
00000230: 4be6 d7bd 1932 83bd bcff 393b 95b0 c9bc
00000240: b3ff 28bd 8994 52bd 737f 123e 0a00 1d3e
00000250: b3bd b73c ee59 d63d d2c8 1d3e 5b95 c4bd
00000260: 2cc3 db3d e80c 613d 9c56 89bb a060 a3bc
00000270: a9ba b03d 0620 1c3c e891 843e dcb6 363e
00000280: cfde ec3d 07d0 bdbd 9887 2c3b 13e4 67be
00000290: 09dd b7be 6a73 85be 41f2 bbbd f995 e4bd
000002a0: c3d7 e8bc fd23 9c3d 3afa 8bbc 5dbe 17be
000002b0: d400 0dbe bbe3 3cbe a152 073d d26e 25be
000002c0: 1fce 5fbe 7406 dfbd 0170 923b 2f76 1b3e
000002d0: 6ff3 2dbe c973 6e3d 88ba 0dbe 994a 1ebe
000002e0: ae95 1c3e 9f9a 2e3c 498c 853d 9f8e 25be
000002f0: 09e6 903d f2bb ccbd be65 283e ba5e 16bb
00000300: 0118 ad3d 2cca 8bbd 76e7 5b3e 67aa 093e
00000310: a61c d9bd 60dd 4fbe f314 3b3d 0753 8b3d
00000320: 470f 673d f110 f23d d276 cabd 20ab 0f3e
00000330: c5a5 333d dcc5 0dbe d5bb fabc 23ca 313e
00000340: 8ea6 6e3e 7ed1 863d 0fb5 9fbd 9f65 183e
00000350: b7ef 8c3e f77b ecbd f1fa 073d 203a 783d
00000360: c1f5 14be ac8e 82bc a08d 94bd bf67 853b
00000370: 0ecd 12be 5bfd 18be bf86 99bc 8bfb 98bc
00000380: 2525 293e 6eae 423d e483 b13d 1f0f 753e
00000390: 130b 363e f91d 5d3e fca0 4dbc 39e5 033e
000003a0: 73d1 543e a3ec 2dbd 91bb afbd e51c 683d
000003b0: 2aac 3abd 6fe2 51be 39be 223d 2a95 9cbd
000003c0: 0e43 be3d e87b a7bd 0d81 6b3d 5fba a7bd
000003d0: f96d 673e 8051 99be 9028 603e 5e15 3a3c
000003e0: c937 85be e9fd 3b3e 54d7 a93d ec25 40be
000003f0: e01e cb3d d518 ca3d 5207 dfbc 7683 a73d

conv_1.bias f4 [16]
-0.3190006 0.008932313 0.1411993 -0.16581625 -0.07827044 0.10674236 -0.094610706 -0.15877739
0.027261265 -0.4587099 -0.1548727 0.010327138 -0.2732801 -0.047642853 -0.37825117 -0.1837711
00000000: 0c54 a3be d658 123c 8d96 103e bccb 29be
00000010: 414c a0bd bd9b da3d 42c3 c1bd 8a96 22be
00000020: 0453 df3c 06dc eabe f396 1ebe 2833 293c
00000030: 5feb 8bbe 2725 43bd 23aa c1be 7e2e 3cbe

conv_2.weight f4 [32, 16, 3, 3]
-0.08840175 -0.048557293 0.014860236 -0.0261447 -0.08959707 -0.04291225 -0.063152604 -0.052519638
-0.13910137 0.03246995 -0.1025624 -0.110427216 0.03636561 -0.041865837 -0.004508326 -0.011313303
-0.065006174 -0.117275245 -0.05547741 -0.012573651 0.0039704004 -0.058527935 -0.11782592 0.011051025
-0.10412132 -0.046875548 -0.09301175 -0.08499951 -0.12027742 -0.054614678 -0.12456759 -0.034071583
-0.073465265 0.0049727373 -0.021170726 0.0031304997 -0.032727282 -0.10167005 -0.06008584 -0.02021167
-0.04258665 -0.003834826 0.02616936 -0.0019431857 -0.036022864 -0.008708333 0.05911736 -0.0017086896
-0.0545171 -0.11237802 -0.0625774 -0.12949352 -0.02573615 -0.074793994 -0.07694224 -0.046898045
-0.03923237 -0.076948196 0.005615748 -0.061685238 -0.019187784 -0.017683607 -0.072680235 -0.03590281
0.010678092 -0.006322799 -0.12709127 -0.10380688 -0.120153196 -0.00508165 -0.14756939 0.048517365
-0.095141046 -0.031846255 -0.1275847 0.03937703 -0.12732118 -0.13643304 -0.12860906 -0.0148281
-0.12793374 -0.04979513 -0.081087306 -0.13983467 -0.072966844 -0.02418615 -0.085214786 -0.10965561
-0.103305385 -0.10214459 -0.14087877 -0.020288708 -0.1551699 0.0055453214 -0.005970737 -0.06683683
0.036428157 -0.1347641 -0.039685514 -0.02180483 -0.06306323 -0.036462955 -0.061192643 -0.041293167
-0.059895042 -0.06491934 -0.09062396 0.023096964 -0.099713854 -0.09527292 -0.14959463 0.031581476
-0.109232 -0.06679704 0.04631489 -0.12420908 0.03292259 -0.10009782 -0.020457601 -0.09482181
-0.058133814 0.00090909586 -0.022296865 0.016338987 -0.009183039 -0.0838785 -0.063777015 -0.113570526
-0.10052464 -0.047513813 -0.03920287 -0.075172216 0.043554816 0.03390239 0.008812151 0.05835326
-0.06196555 -0.04316528 -0.06336152 -0.062996514 0.003911846 0.00068883825 0.039009754 -0.15239091
-0.010342017 -0.016318405 -0.09404787 -0.049474765 -0.059543733 -0.082657635 -0.046943396 0.03133874
0.026588827 -0.027402528 -0.07545798 -0.08138391 -0.107393086 -0.13511947 -0.028814165 -0.053506505
-0.11477686 -0.1266946 -0.017331073 -0.12113714 -0.11276705 -0.063389614 -0.08894419 -0.12746401
-0.1193095 -0.023569744 -0.006450982 -0.13040076 -0.038093623 -0.08184058 -0.02669432 0.019754862
-0.0556337 -0.017417734 0.008525517 -0.01754274 0.010787152 -0.049846716 -0.04852046 -0.08986436
-0.078318365 -0.04558207 -0.047202952 -0.063607566 -0.022557357 -0.031937122 -0.108696654 -0.043069102
-0.032783017 -0.13787374 -0.06158997 -0.08738838 -0.002103178 -0.12669219 0.01762889 0.0034193825
-0.085938595 -0.086564176 0.035270732 0.03378661 -0.0764706 -0.04685535 -0.1042926 -0.021082373
-0.043261234 -0.04959147 -0.028765561 -0.057184745 -0.046580017 -0.12745064 -0.044382054 -0.11368961
-0.04228394 -0.051909167 -0.10583653 -0.12385978 -0.03080349 -0.095281914 -0.0705035 -0.13662773
-0.12927239 -0.12861906 -0.0058668926 -0.004532221 -0.1280424 -0.030521145 -0.11963973 -0.14289714
-0.028072977 0.0035170878 -0.06618579 -0.1065038 -0.0778963 -0.09326881 -0.1469707 -0.019340133
0.007614328 -0.105813734 -0.09703363 -0.019628074 -0.1285144 -0.05577692 -0.12414173 0.027091434
-0.11943055 0.0026961109 -0.055529952 0.007716465 -0.13583224 -0.088545285 0.0024963717 -0.013186362
00000000: fa0b b5bd 03e4 46bd 5978 733c 692d d6bc
00000010: ab7e b7bd c1c4 2fbd 2756 81bd d51e 57bd
00000020: 9770 0ebe 36ff 043d 3c0c d2bd aa27 e2bd
00000030: 1bf4 143d 837b 2bbd 94ba 93bb 6f5b 39bc
00000040: f521 85bd 012e f0bd 483c 63bd b701 4ebc
00000050: 221a 823b fdba 6fbd b74e f1bd 5c0f 353c
00000060: 8f3d d5bd 9300 40bd f27c bebd 3914 aebd
00000070: 0254 f6bd a4b3 5fbd 4b1d ffbd a58e 0bbd
00000080: f574 96bd 58f2 a23b 3b6e adbc 1229 4d3b
00000090: 0b0d 06bd 6338 d0bd 921c 76bd f292 a5bc
000000a0: 576f 2ebd b451 7bbb 2061 d63c 7eb2 feba
000000b0: b68c 13bd 65ad 0ebc 0b25 723d 1cf6 dfba
000000c0: 534d 5fbd 7326 e6bd 9428 80bd f399 04be
000000d0: 9ed4 d2bc 982d 99bd e593 9dbd 2a18 40bd
000000e0: 1fb2 20bd 0497 9dbd 4f04 b83b a9a9 7cbd
000000f0: b32f 9dbc 36dd 90bc 60d9 94bd d30e 13bd
00000100: 2af3 2e3c 7b2f cfbb 3724 02be b498 d4bd
00000110: e112 f6bd f883 a6bb 6e1c 17be 25ba 463d
00000120: 4fd9 c2bd 3871 02bd 90a5 02be cf49 213d
00000130: 7c60 02be 1ab5 0bbe 18b2 03be 8ff1 72bc
00000140: 1001 03be faf5 4bbd 1a11 a6bd d230 0fbe
00000150: a46f 95bd 0822 c6bc 1785 aebd 1f93 e0bd
00000160: c691 d3bd 2f31 d1bd 8642 10be 8134 a6bc
00000170: dce4 1ebe 87b5 b53b 2ca6 c3bb bfe1 88bd
00000180: b135 153d 9aff 09be 478d 22bd 0ba0 b2bc
00000190: 4b27 81bd 2e5a 15bd 23a5 7abd 0623 29bd
000001a0: 8154 75bd 6ef4 84bd 0e99 b9bd d835 bd3c
000001b0: c736 ccbd 731e c3bd 562f 19be 945b 013d
000001c0: 07b5 dfbd e3cc 88bd afb4 3d3d 5561 febd
000001d0: d6d9 063d 1600 cdbd b396 a7bc f031 c2bd
000001e0: b91d 6ebd 6450 6e3a eaa7 b6bc 57d9 853c
000001f0: 7574 16bc 7ec8 abbd 869d 82bd aa97 e8bd
00000200: dddf cdbd d89d 42bd 3093 20bd e4f3 99bd
00000210: 8966 323d 3cdd 0a3d d760 103c d403 6f3d
00000220: 97cf 7dbd 14ce 30bd afc3 81bd 5104 81bd
00000230: f12e 803b 2793 343a b1c8 1f3d 5d0c 1cbe
00000240: 9071 29bc 2dae 85bc 2b9c c0bd 0da6 4abd
00000250: 21e4 73bd 6848 a9bd b847 40bd 0d5d 003d
00000260: d0d0 d93c 447b e0bc b789 9abd 9bac a6bd
00000270: e8f0 dbbd c25c 0abe af0b ecbc a329 5bbd
00000280: 2110 ebbd 3bbc 01be e5f9 8dbc c016 f8bd
00000290: 69f2 e6bd 6ad2 81bd 5f28 b6bd ed85 02be
000002a0: 8a58 f4bd 5615 c1bc c262 d3bb c787 05be
000002b0: 0f08 1cbd 099c a7bd 0cae dabc f3d4 a13c
000002c0: 2ae0 63bd a3af 8ebc 9cae 0b3c cbb5 8fbc
000002d0: 98bc 303c 122c 4cbd 64bd 46bd ce0a b8bd
000002e0: 6165 a0bd 44b4 3abd e257 41bd af44 82bd
000002f0: 35ca b8bc 80d0 02bd 5a9c debd 3a69 30bd
00000300: 7c47 06bd c62e 0dbe c445 7cbd aef8 b2bd
00000310: 79d5 09bb 99bb 01be 766a 903c b817 603b
00000320: 9300 b0bd 8f48 b1bd 0b78 103d d463 0a3d
00000330: 9e9c 9cbd 65eb 3fbd 5c97 d5bd f1b4 acbc
00000340: b132 31bd 6d20 4bbd c1a5 ebbc 8d3a 6abd
00000350: b0ca 3ebd 6c82 02be f5c9 35bd 19d6 e8bd
00000360: ed31 2dbd b59e 54bd d3c0 d8bd 32aa fdbd
00000370: 9a57 fcbc 2a23 c3bd 2464 90bd 24e8 0bbe
00000380: fb5f 04be b7b4 03be 103f c0bb 0683 94bb
00000390: 8c1d 03be 7b07 fabc ad05 f5bd a153 12be
000003a0: 4df9 e5bc f17e 663b 6a8c 87bd aa1e dabd
000003b0: 1888 9fbd b803 bfbd 7d7f 16be 336f 9ebc
000003c0: 9d81 f93b dfb4 d8bd 91b9 c6bd 0ecb a0bc
000003d0: 4799 03be 5776 64bd 053e febd dbee dd3c
000003e0: 0198 f4bd 3cb1 303b 6073 63bd 66da fc3b
000003f0: 9b17 0bbe 3b57 b5bd 2b9a 233b 9c0b 58bc

conv_2.bias f4 [32]
-0.085265756 0.012130322 0.11531854 -0.10422898 0.0006793834 -0.13495302 -0.14658743 -0.058731157
-0.027199894 -0.10694309 -0.056495614 -0.011037665 -0.06522744 -0.12588148 -0.071469456 -0.043282945
-0.02168106 -0.076613806 -0.06818448 -0.14072332 0.049133707 -0.072496735 0.03817077 0.024911338
0.031555213 -0.061430857 -0.032589972 -0.108855665 -0.12880157 -0.07865906 0.042604104 0.15900588
00000000: d09f aebd 42be 463c 202c ec3d 0176 d5bd
00000010: a618 323a 2031 0abe 041b 16be 1590 70bd
00000020: 50d2 debc fb04 dbbd f267 67bd 53d7 34bc
00000030: f795 85bd 13e7 00be 945e 92bd 7549 31bd
00000040: 7a9c b1bc b3e7 9cbd 4ea4 8bbd c619 10be
00000050: 6d40 493d 2b79 94bd f458 1c3d dd12 cc3c
00000060: 0a40 013d ec9e 7bbd 107d 05bd b8ef debd
00000070: 8fe4 03be 0018 a1bd a481 2e3d 70d2 223e

fully_connect1.weight f4 [10, 5408]
-0.02518228 -0.03878935 -0.015612381 -0.037338834 -0.027456863 -0.03108459 -0.018669924 -0.040590443
-0.020470802 -0.008956297 -0.021968404 -0.036190275 -0.07899123 -0.018202024 -0.000120524586 0.004028358
-0.084168136 -0.041277837 -0.078190014 -0.025418188 -0.022477524 -0.020724809 -0.031002063 -0.031894434
-0.0055801193 -0.022290755 -0.028912785 0.00411111 -0.025413405 -0.027931856 -0.07327138 -0.077257186
-0.030911395 -0.03852914 -0.029958187 -0.027637335 -0.01599761 -0.018764013 -0.034786876 -0.010670641
-0.06422625 -0.08627762 -0.06583733 -0.07499595 -0.015306855 -0.016784767 -0.019014724 -0.026520208
-0.061785854 -0.018924035 -0.0341888 -0.021919247 -0.014713899 -0.030174945 -0.06649392 -0.09020694
-0.020146918 -0.03355209 -0.041117094 -0.022871578 -0.018787704 -0.022661494 -0.034292478 -0.03048005
-0.037801884 -0.03103491 -0.02427593 -0.09004006 -0.014551413 -0.024553921 -0.03611967 -0.03846493
-0.041497316 -0.06649311 -0.032318424 -0.008720691 -0.014887739 -0.022401392 -0.03683295 -0.07609895
-0.033291385 -0.03943217 -0.034413394 -0.02062296 -0.04111196 -0.023986755 -0.018444993 -0.08545981
-0.026565103 -0.01601036 -0.013185492 -0.018478286 -0.06482994 -0.028398192 -0.020886203 -0.030982452
-0.019489773 -0.0173543 -0.08430772 -0.06879906 -0.074686706 -0.034333404 -0.03188597 -0.038595542
-0.020604916 -0.034479365 -0.022193773 -0.07102236 -0.07602577 -0.040908337 -0.0326502 -0.01737563
-0.022813011 -0.07606185 -0.038886774 -0.03257614 -0.016736671 -0.01854122 -0.079006776 -0.0759406
-0.07520085 -0.08721633 -0.06582981 -0.07704419 -0.019454233 -0.02949402 -0.08955538 -0.016201587
-0.030722734 -0.08997376 -0.06623592 -0.06830116 -0.06508751 -0.08039291 -0.09095696 -0.06863465
-0.07974184 -0.07622282 -0.07588905 -0.08242411 -0.09175077 -0.029834196 -0.028773904 -0.077084094
-0.03158511 -0.069406025 -0.0788285 -0.085780315 -0.0804065 -0.08742376 -0.02328704 -0.094738185
-0.07194018 -0.08655915 -0.03092457 -0.032536976 -0.010739374 -0.07116539 -0.026214417 -0.018950185
-0.0860493 -0.0874576 -0.081730075 -0.03375223 -0.0751347 -0.08938921 -0.068512335 -0.03190397
-0.027632589 -0.021867547 -0.0048847594 -0.026758913 -0.011963174 -0.032605562 -0.01673474 -0.09524681
-0.015971307 -0.023460481 -0.024168845 -0.014331455 -0.01668219 -0.03271103 0.0074248724 -0.018477354
-0.0062890924 -0.076348215 -0.022087272 -0.016023774 -0.09229156 -0.0122942105 -0.0370947 -0.016537182
-0.027892027 -0.0053307037 -0.027837565 0.016123874 -0.010300986 -0.033130776 -0.07929469 -0.034993414
-0.0231252 -0.037274506 -0.035138853 -0.030575713 -0.038383942 -0.010057383 -0.01249803 -0.025896663
-0.014384757 -0.012330394 -0.022185544 -0.070337996 -0.08635473 -0.024585772 -0.038067494 -0.013839843
-0.031468127 -0.03472072 -0.035531886 -0.013032662 -0.021267386 -0.015083316 -0.08063324 -0.033241887
-0.033319224 -0.030453324 -0.035279594 -0.02911444 -0.0310408 -0.016420824 -0.029578503 -0.022877144
-0.028135825 -0.013930805 -0.08052309 -0.018790795 -0.03358904 -0.07416154 -0.027521793 -0.037832983
-0.02650658 -0.037614074 -0.04122784 -0.023366958 -0.035704523 -0.016894896 -0.028232146 -0.017823067
-0.01473171 -0.026550088 -0.028338274 -0.015056298 -0.034969427 -0.030651137 -0.015801748 -0.0087205805
00000000: 124b cebc 95e1 1ebd 12cb 7fbc 9bf0 18bd
00000010: 37ed e0bc 1ca5 febc abf1 98bc 2a42 26bd
00000020: 62b2 a7bc 6fbd 12bc 15f7 b3bc 413c 14bd
00000030: 27c6 a1bd 691c 95bc 25c2 fcb8 5100 843b
00000040: 5860 acbd f312 29bd 1622 a0bd ce39 d0bc
00000050: c922 b8bc 13c7 a9bc 0af8 fdbc bda3 02bd
00000060: 6fd9 b6bb 1a9b b6bc 81da ecbc 7eb6 863b
00000070: c62f d0bc 59d1 e4bc 4e0f 96bd 0439 9ebd
00000080: e539 fdbc bbd0 1dbd df6a f5bc b167 e2bc
00000090: 6b0d 83bc fdb6 99bc af7c 0ebd ead3 2ebc
000000a0: 0d89 83bd 52b2 b0bd b9d5 86bd 7a97 99bd
000000b0: 9ac9 7abc 3580 89bc c4c4 9bbc e840 d9bc
000000c0: 2a13 7dbd 9406 9bbc 8e09 0cbd fe8f b3bc
000000d0: 9112 71bc 7231 f7bc f72d 88bd 6bbe b8bd
000000e0: 260b a5bc eb6d 09bd 666a 28bd 2d5d bbbc
000000f0: ace8 99bc 99a4 b9bc 4576 0cbd 4cb1 f9bc
00000100: 26d6 1abd ec3c febc 51de c6bc ec66 b8bd
00000110: 0d69 6ebc 4e25 c9bc 38f2 13bd 678d 1dbd
00000120: 17f9 29bd 8a2d 88bd 5360 04bd 3be1 0ebc
00000130: b4eb 73bc 2083 b7bc 26de 16bd c4d9 9bbd
00000140: 8c5c 08bd a183 21bd 0ff5 0cbd 7bf1 a8bc
00000150: 0465 28bd df7f c4bc f419 97bc 8e05 afbd
00000160: 0f9f d9bc 2928 83bc f607 58bc c65f 97bc
00000170: 8fc5 84bd 53a3 e8bc 8b19 abbc e9ce fdbc
00000180: 04a9 9fbc 9b2a 8ebc 87a9 acbd 86e6 8cbd
00000190: 58f5 98bd 2fa1 0cbd dd9a 02bd 5c16 1ebd
000001a0: a4cb a8bc 3c3a 0dbd b7cf b5bc 2c74 91bd
000001b0: 66b3 9bbd 808f 27bd 37bc 05bd 5657 8ebc
000001c0: 5ae2 babc 51c6 9bbd bd47 1fbd 8f6e 05bd
000001d0: 581b 89bc c2e3 97bc 4ece a1bd bf86 9bbd
000001e0: e702 9abd 7a9e b2bd c8d1 86bd 58c9 9dbd
000001f0: 7c5e 9fbc 719d f1bc d068 b7bd 31b9 84bc
00000200: 3eae fbbc 2a44 b8bd b3a6 87bd 7be1 8bbd
00000210: 9a4c 85bd 0aa5 a4bd a547 babd 5390 8cbd
00000220: b14f a3bd b61a 9cbd b86b 9bbd f9cd a8bd
00000230: d4e7 bbbd d866 f4bc 40b7 ebbc 44de 9dbd
00000240: 635f 01bd bf24 8ebd d670 a1bd 97ad afbd
00000250: 2aac a4bd 3a0b b3bd 76c4 bebc 1806 c2bd
00000260: 6055 93bd ec45 b1bd 8655 fdbc 7e45 05bd
00000270: 33f4 2fbc 29bf 91bd 9ebf d6bc 6b3d 9bbc
00000280: 9e3a b0bd f81c b3bd 1962 a7bd c73f 0abd
00000290: 39e0 99bd b111 b7bd 3250 8cbd bdad 02bd
000002a0: bd5d e2bc 9223 b3bc 5510 a0bb 8235 dbbc
000002b0: 3001 44bc 698d 05bd 4b17 89bc c210 c3bd
000002c0: 42d6 82bc 3230 c0bc befd c5bc 7bce 6abc
000002d0: 17a9 88bc 00fc 05bd 584c f33b d25d 97bc
000002e0: bb14 cebb 745c 9cbd 5ef0 b4bc 4a44 83bc
000002f0: 5b03 bdbd a86d 49bc 9df0 17bd fc78 87bc
00000300: d27d e4bc 2fad aebb 9b0b e4bc 3716 843c
00000310: 77c5 28bc 23b4 07bd 4165 a2bd 4155 0fbd
00000320: 0f71 bdbc 27ad 18bd c2ed 0fbd eb79 fabc
00000330: 7b38 1dbd b9c7 24bc 8ac4 4cbc 3d25 d4bc
00000340: 0bae 6bbc 6c05 4abc 75be b5bc 5e0d 90bd
00000350: c0da b0bd 1a68 c9bc a9ec 1bbd 82c0 62bc
00000360: b9e4 00bd 5037 0ebd e289 11bd f286 55bc
00000370: f138 aebc 0320 77bc 0a23 a5bd a528 08bd
00000380: bd79 08bd 4079 f9bc 5681 10bd 6881 eebc
00000390: 4749 febc f784 86bc 9e4e f2bc d968 bbbc
000003a0: 1a7d e6bc 083e 64bc 4ae9 a4bd 27ef 99bc
000003b0: a994 09bd 01e2 97bd 6275 e1bc c2f6 1abd
000003c0: 5424 d9bc 3711 1abd 86de 28bd 106c bfbc
000003d0: e83e 12bd 2a67 8abc 1a47 e7bc ae01 92bc
000003e0: 455d 71bc 927f d9bc ab25 e8bc b1ae 76bc
000003f0: 1a3c 0fbd 1818 fbbc ab72 81bc c4e0 0ebc

fully_connect1.bias f4 [10]
-0.080140695 -0.047992066 -0.07960888 -0.0065394226 0.07950167 -0.04923106 -0.13017668 -0.06695952
-0.07339 -0.036005326
00000000: ce20 a4bd 5493 44bd fb09 a3bd a748 d6bb
00000010: c6d1 a23d 82a6 49bd 094d 05be 1322 89bd
00000020: 7f4d 96bd 527a 13bd

fully_connect2.weight f4 [1, 10]
0.184042 0.073977016 0.12846737 0.048589006 -0.036943033 0.003275107 -0.0043429136 0.041416727
0.054616034 0.006482438
00000000: 8275 3c3e 4381 973d f38c 033e 4405 473d
00000010: 9451 17bd 2da3 563b 004f 8ebb 96a4 293d
00000020: 10b5 5f3d a26a d43b
