bs32_lr0.1_weight.pt (torch, 240056 bytes, 7 tensors)

conv_1.weight f4 [16, 3, 3, 3]
00000000: efef 093f 7e7b 1cbf 0235 153f 94c8 28bf
00000010: 4478 41bf daa3 203f 3510 2b3f 5b33 123f
00000020: a765 d33e fa75 2d3f a694 f13e 5fb8 f33e
00000030: f7a1 083f 4373 f93e 6878 0b3f cfe7 da3e
00000040: 0254 413f 8c70 213f 2bd2 363f df9e 493f
00000050: ebfd 2e3f e1c4 123f 9a6d 383f 3851 433f
00000060: def3 d23e 0858 2c3f 8207 083f a41e 42bf
00000070: 4436 d8be be50 e7be 436d debe f8c7 fbbe
00000080: 129d d2be ad33 43bf 95ef 05bf 146d 33bf
00000090: 14b8 393f aa0c e73e 601e 393f ae31 333f
000000a0: b259 163f aa44 fe3e 4c52 183f 83aa 203f
000000b0: 6c61 033f d08b 373f 5388 053f 5d01 473f
000000c0: d382 e63e 7b81 f83e e711 f13e c13f ea3e
000000d0: fa70 3d3f b364 d43e 2d66 f6be 9334 3ebf
000000e0: 1586 40bf 4f1e 15bf a788 18bf a634 33bf
000000f0: eebd 01bf 457c e3be 26c6 ed3e 28b7 f03e
00000100: 1539 2c3f dd97 443f eeee ea3e 6e40 423f
00000110: 0565 303f 5e8d 063f bbcd 483f 48a5 e73e
00000120: 4a62 123f 2369 193f 111e 183f 8556 223f
00000130: 0a54 ee3e c71a 433f 3673 ec3e 22ac f33e
00000140: b90f 2b3f 524b 16bf 0020 3cbf b22a 22bf
00000150: 7519 3dbf f244 fcbe 1ffd 15bf 4edb 35bf
00000160: 0c26 0fbf 4de4 14bf 59b3 1cbf 0d36 2ebf
00000170: 4e93 21bf f807 10bf cde4 d1be 4897 e8be
00000180: 02cd 3bbf 154c 38bf 5358 12bf b6ce 24bf
00000190: 78e4 37bf 08d1 ebbe 6108 3fbf 311b 3dbf
000001a0: 21d9 12bf 5646 dbbe 726b 23bf 0298 22bf
000001b0: aa00 24bf cf08 30bf 6228 f2be ee71 39bf
000001c0: fe20 42bf 5fec e9be 54d8 eebe 6894 17bf
000001d0: 3800 18bf 824e 26bf b945 3fbf ec96 12bf
000001e0: 41f9 d7be 30e0 1cbf 59d0 48bf 0b2a 04bf
000001f0: 2017 23bf 4c0f e7be 15d6 39bf f648 d5be
00000200: 8eb8 37bf a76b 0abf 582f 30bf aca5 2dbf
00000210: 698a f6be 3904 29bf 6dab 3cbf fe8c 303f
00000220: 5601 27bf 3718 fabe adf4 1c3f fe97 113f
00000230: 8ad9 d63e 36c5 293f 7c39 3e3f 7811 433f
00000240: ca6e 07bf 4101 19bf b9d2 01bf 758f 013f
00000250: 0be8 d53e caef 34bf 140a 293f 683e f43e
00000260: 43cc 3dbf a0ac f0be 7b0d ecbe eb06 26bf
00000270: feda 28bf 2364 d6be 8624 40bf 336e 02bf
00000280: e577 293f 03cc e0be 46ba e23e 74b5 083f
00000290: 960e f53e 984d 063f 72a3 103f 7987 213f
000002a0: fd1d 483f 4181 fa3e 1159 153f ff72 153f
000002b0: 16c0 333f 0249 d23e 629b 423f 691d 193f
000002c0: 30a6 e33e 104c e13e 7394 103f 476b 3b3f
000002d0: 6d6d 223f f633 363f ea30 103f 5671 da3e
000002e0: 885d fd3e 9d7a 0a3f 7118 1c3f 5cf9 053f
000002f0: e990 1f3f b145 0ebf 1287 15bf 0591 49bf
00000300: 7705 2ebf 12ab 08bf 2dd6 2fbf bce2 42bf
00000310: 61af 3fbf c99e 36bf 976e d13e 4ff8 323f
00000320: 15cc 003f f167 483f 901e 01bf 9fd0 0b3f
00000330: 89a9 493f df1c 353f cb00 483f ec5a 343f
00000340: 4820 da3e e8d0 483f 3ec8 d43e dded d63e
00000350: 940a 153f 76ac 493f 80dc 173f 8fbd e93e
00000360: cc51 06bf cd24 163f 659e 3d3f f846 2abf
00000370: 3eb7 403f f092 083f 27d4 febe f48d 043f
00000380: f939 063f 4dc9 f2be f2c3 3ebf 9dfe e9be
00000390: 00ee 3ebf bbbe 3bbf 8409 27bf 9335 1ebf
000003a0: 0ddd 1ebf 7e3c 16bf 5d42 d13e 21fe 2f3f
000003b0: 3dbb 393f 4ced fa3e ceb7 3f3f 1b7b e83e
000003c0: 419e 293f 86ee 193f 876b f03e 937e 1c3f
000003d0: 1ecc 1f3f 987e dd3e 8b27 073f 1605 0d3f
000003e0: dbfc 063f 2668 353f db33 193f 2233 ec3e
000003f0: c822 323f 289d d13e 8c92 fa3e b851 083f
0.53881735 -0.61125934 0.5828401 -0.6593106 -0.75574136 0.6275002 0.66821605 0.5710961
0.41288492 0.6775814 0.47183722 0.476016 0.5337214 0.4872075 0.544806 0.4275498
0.7551881 0.6306236 0.7141444 0.78758043 0.683562 0.57331663 0.7204224 0.76295805
0.4120168 0.67321825 0.53136456 -0.75828004 -0.422289 -0.4517879 -0.43442735 -0.49176002
-0.4113546 -0.76250726 -0.523187 -0.70088315 0.72546506 0.4512685 0.72311974 0.6999768
0.58730614 0.49661762 0.59500575 0.6276018 0.5132053 0.7169771 0.5216114 0.77736455
0.45021686 0.48536286 0.4708397 0.45751765 0.74000514 0.41483077 -0.4812483 -0.7429897
-0.7520459 -0.5824937 -0.59583515 -0.7000221 -0.50680435 -0.44430748 0.46440238 0.47014737
0.672746 0.76794225 0.45885414 0.7587956 0.68904144 0.5255946 0.7843892 0.45243287
0.5718123 0.5992605 0.5942088 0.6341327 0.46548492 0.76212734 0.4618165 0.47592264
0.66820866 -0.5870868 -0.7348633 -0.633464 -0.7386697 -0.4927135 -0.5858936 -0.7103776
-0.5591743 -0.5816086 -0.6121116 -0.68051225 -0.63115394 -0.5626216 -0.40994874 -0.45427918
-0.7335969 -0.7199109 -0.5716602 -0.64377916 -0.7183299 -0.46057916 -0.7462216 -0.73869616
-0.5736256 -0.428271 -0.63835824 -0.63513196 -0.64063513 -0.6876344 -0.47296435 -0.7243947
-0.7583159 -0.4568815 -0.4664942 -0.59210825 -0.59375334 -0.64963543 -0.74715763 -0.5726154
-0.42182353 -0.6127958 -0.78442913 -0.5162665 -0.6370716 -0.45128858 -0.7259229 -0.41657227
-0.71765983 -0.54070514 -0.6882224 -0.6783092 -0.48152474 -0.6602207 -0.73699075 0.68965137
-0.65236413 -0.488466 0.61310846 0.56872547 0.41962844 0.66316545 0.74306464 0.7619853
-0.52903426 -0.5976754 -0.5071216 0.50609523 0.41778597 -0.7067839 0.66031003 0.47703862
-0.74139804 -0.47006702 -0.46104035 -0.64854306 -0.65959156 -0.41873273 -0.7505573 -0.509494
0.6619857 -0.4390565 0.4428274 0.53401875 0.4786269 0.5246215 0.564994 0.6309734
0.7817076 0.48926738 0.5833903 0.58378595 0.70214975 0.41071326 0.76018345 0.598105
0.44462729 0.44003344 0.56476516 0.7321057 0.6344822 0.71173036 0.56324637 0.42664593
0.4948542 0.54093343 0.60974795 0.5233362 0.6233049 -0.5557509 -0.58409226 -0.7873691
-0.6797709 -0.5338603 -0.6868618 -0.7612722 -0.7487698 -0.71336037 0.40904686 0.6991014
0.50311404 0.782836 -0.5043726 0.54615206 0.78774315 0.7074718 0.7812621 0.70451236
0.42602754 0.78443766 0.41559023 0.4197835 0.58219266 0.7877878 0.5932083 0.45652434
-0.5246856 0.58649904 0.74069816 -0.6651454 0.75279605 0.5334921 -0.49771234 0.51779103
0.5243221 -0.47419205 -0.7451774 -0.45702067 -0.7458191 -0.73337907 -0.65248895 -0.618005
-0.62056047 -0.58686054 0.40870944 0.68747145 0.7255133 0.49009168 0.7488984 0.45406422
0.662571 0.6012958 0.46957037 0.61130637 0.62420833 0.43260646 0.5279471 0.55085886
0.52729577 0.7086204 0.5984475 0.4613276 0.6958432 0.40940213 0.4893993 0.5324969

conv_1.bias f4 [16]
00000000: bf66 24bf 66a5 debe 87fe f4be bfa4 023f
00000010: d14d 0a3f 7b2e 093f 970c d2be 5ee7 37bf
00000020: 4554 063f 253a 15bf f643 06bf 9844 dc3e
00000030: b489 2abf 658d 05bf 5958 2ebf 937b 40bf
-0.6421928 -0.43485564 -0.4785044 0.5103263 0.5402499 0.5358655 -0.4102523 -0.71837413
0.52472335 -0.58291847 -0.5244745 0.43021083 -0.6661637 -0.52168876 -0.6810356 -0.7518856

conv_2.weight f4 [32, 16, 3, 3]
00000000: 342b 183f 44a8 123f 5100 2f3f d205 2a3f
00000010: f908 263f 3c49 0b3f 4774 1e3f 5f06 253f
00000020: eab1 243f 3985 1f3f 400c 083f b45c 113f
00000030: 83e9 153f 0c99 173f 842d 0a3f 4f31 063f
00000040: daff 1b3f 7649 113f c2ac 233f 3f37 103f
00000050: c1bd 173f c7ba 223f f2bf 2c3f 0a62 1f3f
00000060: 0271 293f eb6b 183f 09ce 2a3f ad86 1e3f
00000070: 25e4 163f 083a 233f d1ab 143f 2db7 283f
00000080: 0b78 0f3f b447 103f 7ae9 1c3f c966 1d3f
00000090: 9bc5 083f da0e 103f 7dd5 273f 17b8 263f
000000a0: aa54 193f 1ffa 0c3f ca48 2d3f 2cc2 223f
000000b0: 3860 2a3f c148 203f 1309 133f f718 123f
000000c0: 655e 2c3f 32c8 0d3f d31c 163f 7820 273f
000000d0: d285 153f f617 083f 1685 193f d565 273f
000000e0: bf37 1c3f 2791 163f 3692 043f 3e08 283f
000000f0: e40e 0d3f 1b6e 2b3f 0264 243f 14c9 283f
00000100: 960f 1e3f 393a 0c3f 0511 213f aeb5 173f
00000110: 8cd1 2a3f e10f 093f 6064 0f3f 6bce 283f
00000120: 9f8f 223f 2d85 103f 7f3f 133f e771 043f
00000130: 85d1 183f cf2f 293f 3027 133f 3d8e 2b3f
00000140: eff6 083f f26e 0f3f e7e4 293f cf1f 1d3f
00000150: 1bd2 1a3f e4ef 183f c740 143f e1ac 1c3f
00000160: d0b2 0c3f 3304 073f 50be 153f 7aad 0e3f
00000170: cf93 163f 6abb 193f 98a7 1e3f b028 1c3f
00000180: eedf 203f 8bc9 123f 3a84 073f 7dfa 1d3f
00000190: 924a 1a3f aa1e 233f 0926 263f 6a16 1e3f
000001a0: 80a9 0f3f bf1c 173f a7bd 233f d0e9 2e3f
000001b0: 472c 0b3f 99ab 163f ef87 1b3f 27af 133f
000001c0: 42b6 29bf f694 273f 0bc1 2d3f b1f1 293f
000001d0: 442b 0e3f a597 283f 495c 1d3f 1c22 113f
000001e0: 49d5 193f 7a1b 2e3f 6172 163f 5d90 153f
000001f0: 918b 0a3f 417d 043f d60f 063f b9fc 183f
00000200: bb56 06bf e623 1d3f cb83 213f b6c0 253f
00000210: 793a 243f 31e8 103f dfb2 193f 3d92 233f
00000220: eec0 213f 8590 0a3f f972 0d3f d8a0 253f
00000230: 4fef 1d3f fab4 063f b8ec 0c3f a110 0a3f
00000240: fa91 273f e683 223f b687 19bf 3ce3 073f
00000250: bf40 183f 787c 08bf f44d 2a3f bc20 153f
00000260: cd52 1dbf 2aec 20bf 8193 23bf 910d 25bf
00000270: 660a 22bf 8dd5 12bf 1661 2dbf 8e97 24bf
00000280: 5c9c 1ebf 56c1 18bf e4d4 0a3f f6dc 053f
00000290: d472 083f c410 0dbf b428 2d3f 50eb 27bf
000002a0: 8ac6 26bf 9566 0b3f 9c2e 0fbf 3a8b 223f
000002b0: 0c92 0c3f f298 0c3f 9623 283f 0b74 093f
000002c0: c5d2 053f 23ad 193f 1a47 1f3f c16f 273f
000002d0: 0b32 113f c4ef 22bf 0014 0dbf 7d5a 0abf
000002e0: eb24 1ebf 4ab7 17bf ae6d 19bf 4544 09bf
000002f0: db28 28bf eb6a 0ebf 705c 1abf 1e1d 21bf
00000300: a07b 04bf 7e4f 0cbf bef7 0bbf 3749 0abf
00000310: 9029 1dbf 63f1 07bf e57e 083f 580c 283f
00000320: 7dea 1f3f a059 2d3f 49da 133f c0ca 213f
00000330: 6159 1c3f 2873 0d3f cbfa 22bf ebaa 163f
00000340: 97db 2d3f 4370 0e3f 708c 183f d73b 063f
00000350: 5a2f 08bf dc88 103f 2e23 133f b8a5 10bf
00000360: 76fb 27bf 3b5e 1dbf 9471 11bf d75f 10bf
00000370: f187 26bf 5b14 2dbf 6627 2dbf e646 20bf
00000380: 186d 0bbf fd32 213f 7b9c 2cbf 254d 1cbf
00000390: e305 133f 630f 293f e6f2 24bf bd6a 1a3f
000003a0: 5f63 1e3f 693f 29bf 9472 11bf 397a 0ebf
000003b0: eb8b 1fbf 82cf 27bf 98a0 05bf 2f9d 14bf
000003c0: dbf5 12bf d563 13bf b49c 1dbf afc4 263f
000003d0: 06fd 0e3f 80d7 073f 14e7 13bf 3533 213f
000003e0: 9cd1 253f 6347 1b3f a576 1b3f e8c7 093f
000003f0: 720d 15bf c6da 14bf 5fcf 0ebf 6710 08bf
0.5944092 0.57288 0.6835986 0.6641513 0.6485744 0.5440862 0.61896175 0.64462847
0.64333975 0.62312657 0.5314369 0.5678208 0.58559436 0.59217906 0.539757 0.5241899
0.60937274 0.5675272 0.6393548 0.563343 0.59273916 0.6356625 0.67480385 0.6225897
0.6618806 0.5953967 0.66720635 0.6192425 0.5894187 0.63760424 0.5807467 0.65904504
0.56042546 0.5635941 0.61293757 0.6148496 0.5342652 0.5627266 0.6556013 0.6512465
0.5989481 0.55069155 0.6768919 0.6357753 0.6655307 0.62611014 0.5743572 0.57069343
0.67331535 0.553836 0.5863773 0.6528392 0.5840732 0.5316156 0.599687 0.6538976
0.6102256 0.58815235 0.517856 0.65637577 0.55100846 0.6696488 0.642151 0.6593182
0.6174253 0.5477634 0.62916595 0.59261596 0.66725993 0.53539854 0.56012535 0.6593997
0.635004 0.5645321 0.5751876 0.517363 0.596947 0.66088575 0.5748167 0.67013913
0.5350179 0.56028664 0.663649 0.6137666 0.60476846 0.59741044 0.5791134 0.6120129
0.54960346 0.5274078 0.5849352 0.55733454 0.5881929 0.60051596 0.6197448 0.60999584
0.6284169 0.5733878 0.52936137 0.6171034 0.60270035 0.63718665 0.6490179 0.6175295
0.5611801 0.5902824 0.6396126 0.6832552 0.54364437 0.5885559 0.60754293 0.57689136
-0.6629373 0.6546167 0.67872685 0.66384417 0.5553477 0.6585639 0.6146894 0.5669267
0.6009107 0.68010676 0.5876828 0.58423406 0.5411921 0.5175362 0.52367914 0.59760624
-0.5247609 0.613829 0.63091725 0.6474718 0.6415172 0.56604296 0.6003856 0.63895017
0.6318501 0.5412677 0.5525356 0.64698553 0.6169328 0.526199 0.55048704 0.53931624
0.6545712 0.6348251 -0.59972703 0.5308111 0.59473795 -0.53314924 0.665252 0.58253074
-0.6145447 -0.6286036 -0.6389695 -0.64473826 -0.63297117 -0.573571 -0.67726266 -0.64293754
-0.61957335 -0.5967001 0.54231095 0.52290285 0.53300214 -0.5510371 0.67640233 -0.65593433
-0.65146697 0.544534 -0.55930495 0.6349369 0.5491035 0.54920876 0.656793 0.5369269
0.52274734 0.6002981 0.6221787 0.654049 0.56716985 -0.63647103 -0.5510864 -0.54044324
-0.6177508 -0.5926405 -0.5993298 -0.53619796 -0.6568734 -0.55631894 -0.602973 -0.62935054
-0.51751137 -0.54808795 -0.546749 -0.54017967 -0.61391544 -0.531027 0.53318626 0.65643835
0.62467176 0.6771488 0.5775495 0.63199997 0.6107388 0.5525384 -0.6366393 0.5885455
0.6791319 0.5564005 0.5958929 0.5243506 -0.5319725 0.5645883 0.57475555 -0.56502867
-0.65618074 -0.6147191 -0.5681393 -0.5639624 -0.6505118 -0.67609185 -0.6763824 -0.6260818
-0.5446334 0.62968427 -0.6742627 -0.61055213 0.5743086 0.66039103 -0.64433134 0.6031912
0.6187038 -0.6611238 -0.5681546 -0.55655247 -0.6232287 -0.65551007 -0.5219817 -0.58052343
-0.57406396 -0.57574207 -0.61567235 0.65143865 0.55854833 0.530632 -0.5777447 0.6296876
0.64772964 0.606558 0.6072791 0.5382066 -0.5822364 -0.5814632 -0.55785173 -0.5315003

conv_2.bias f4 [32]
00000000: 0242 133f 8ae0 19bf 7573 25bf 3466 09bf
00000010: 84c9 08bf c868 153f 6e34 12bf 3a71 1a3f
00000020: 43e6 27bf 5391 053f f92b 21bf be2a 0bbf
00000030: 00a0 0bbf bf97 133f d9b0 29bf f1a6 25bf
00000040: 2d5a 29bf 329b 15bf 98fe 173f 2d4b 10bf
00000050: a79a 17bf 4f1e 0ebf 7722 143f 8a67 13bf
00000060: 1ddb 12bf e9d9 10bf bcf9 143f acbd 103f
00000070: 9a9d 1a3f 0b8b 083f 0280 1a3f ca30 23bf
0.57522595 -0.60108244 -0.646293 -0.53671575 -0.5343249 0.5836301 -0.5711125 0.6032902
-0.65585726 0.5217487 -0.6295772 -0.54362094 -0.54541016 0.5765342 -0.66285473 -0.6470786
-0.6615322 -0.58439934 0.59372854 -0.5636471 -0.59220356 -0.55515 0.5786509 -0.57579863
-0.5736559 -0.56582505 0.58193564 0.56539416 0.6039673 0.5333716 0.60351574 -0.6374632

fully_connect1.weight f4 [10, 5408]
00000000: 8039 13bb 8c62 443c b19d 07bc 98a2 523b
00000010: 2c56 df3b 4e47 133c 042c 6cbb 98e5 2ebb
00000020: 6653 04bc 00c5 e43b 18ad ecba 575b 2ebc
00000030: c067 083c a8e0 113b 6450 50bc dee0 e0bb
00000040: 3de0 fcbb a0fc de3b 4009 2bba 9cad e43b
00000050: 6cec f1bb 7076 1dba c408 ac3b 5807 d13a
00000060: d6b2 413c 881f 1ebc 5ca8 863b 260e 223c
00000070: 3217 3f3c fe37 80bb 6620 583c d897 253c
00000080: 2eb5 c9bb 08ed 923b b07f bd3b 1098 34bb
00000090: b09b 3d3b c8b7 cb3a 6425 3abb 8809 903b
000000a0: cf91 e3bb 3f27 53bc b00d 013c 0dde 4abc
000000b0: 64e6 993b d202 f6bb d678 413c eb38 cbbb
000000c0: 7c36 3e3c 584b 053c 7029 ba3b c8e3 c4bb
000000d0: 0626 f5bb 5c5f 5dbc 2018 a4bb 1e9a 3bbc
000000e0: c40d 5a3c e482 08bc a8b0 823a c046 163b
000000f0: cadf 42bc 2b2f 55bc f60d 2e3c 90e2 8d3a
00000100: 3458 0b3c c07f 513a f21f 353c 9eb3 0dbc
00000110: 4023 47b9 b0fc 6f3b 7476 933b 2ce7 27bc
00000120: ede5 ddbb e443 463c a6da 183c f811 513c
00000130: c771 55bc ee7c 2d3c 4365 c9bb 4c01 b73b
00000140: 00d6 45bc 94bc 033c 8cce 2a3c 2070 a6b9
00000150: 88f9 93bb 147b 08bb 559d 32bc f8f6 47bb
00000160: 21b8 50bc 38be 03bb 116f d3bb c59f 25bc
00000170: c2b2 58bc e46f e93b 10fa 8bbb 60fd 7d3b
00000180: d0a2 56bc 404d 79bb 0aff fdbb 50cd 34bb
00000190: 02d7 213c 176f f2bb bc23 43bb 4046 2dba
000001a0: ffe4 52bc 089e 693b c4ba 35bc 249e 4e3c
000001b0: 5459 0e3c 9027 5bbb c900 55bc 74db bc3b
000001c0: 2030 d439 7878 d93b 98fb cc3a 1059 52bb
000001d0: 049b 91bb bb82 4abc 2062 bbb9 5014 883b
000001e0: 7e24 80bb 15d1 24bc a846 103b 55cf bfbb
000001f0: 3412 113c fb19 08bc 608d f93b 38a7 203c
00000200: b25b 403c 4cd4 cb3b 2c06 03bc 50e8 7a3b
00000210: ccdd 86bb b4e1 6cbb d449 60bb 7432 cb3b
00000220: b48d 13bb 1284 0f3c 0144 11bc 146f 203c
00000230: d45f 33bc 50b3 0f3a d07d 41ba 8f9f cdbb
00000240: 9948 c7bb 5e4d 1cbc 406f 613b de0a 2bbc
00000250: 9ca1 53bc d0d2 a03b 8817 5e3c c6fd 23bc
00000260: b8cb 19bc 879f ecbb a0f8 7c3b 8857 b9bb
00000270: 9961 f9bb 8585 17bc 8b05 2ebc 40d0 073b
00000280: 426b 403c cd55 24bc 1e69 4b3c 0a15 3f3c
00000290: 2c7a fe3b 60cb c43b 2454 473c aa38 a6bb
000002a0: c80f f8ba 48c6 4b3b e050 34bc fc3c 8c3b
000002b0: 8af3 1a3c f5f1 20bc 949c 393c 7a4b 47bc
000002c0: 5c69 f53b e184 41bc c4f4 983b 5e15 56bc
000002d0: 8baa 5dbc 0030 7bb6 4455 fc3b 704b 393b
000002e0: cb48 55bc b4da 0e3c c8fe 9c3b c87d 543c
000002f0: 88e2 2b3c 7fb8 d9bb 38af 30bc c5ea 50bc
00000300: 38fd 8e3b faf9 0bbc 1efd 2fbc 9122 41bc
00000310: 7e15 2abc 4031 28ba e816 7f3b f662 31bc
00000320: e4cc 923b ace1 babb 0c1c e8bb e610 2e3c
00000330: f6b1 a3bb c03b 4fbb 44e1 55bb d083 163b
00000340: f8c2 3dbb adea d1bb f0ce 61ba 9cf4 593c
00000350: b80a f7bb 24f4 403c 907a a63b 106c db3a
00000360: d0d7 47ba 60de 353c 2045 933a 62d4 9bbb
00000370: 6cb1 f2bb 5476 9b3b 6c41 ab3b d30b 0abc
00000380: 2883 583c a459 5cbc 08ad c73a bffc 5abc
00000390: 2246 00bc 41d3 3fbc 7601 13bc 3c0a 89bb
000003a0: 506b 25ba debd 123c c605 5c3c 201b da3b
000003b0: d4cb 5b3c 585b b53b b2d0 51bc 26ac d7bb
000003c0: e0f8 283b cc74 e03b c0c5 f039 0cce bf3b
000003d0: 64d5 11bc 5074 73ba 78d9 143b f81f 493b
000003e0: 48da 3a3c 5024 073c e7f9 2cbc 3ab9 2e3c
000003f0: ec5a f3bb 60e5 bebb 70d5 523b c059 4bbb
-0.0022464693 0.011986386 -0.008277343 0.003214037 0.0068156924 0.008989168 -0.0036036978 -0.0026687142
-0.008076524 0.006981492 -0.0018056957 -0.010641894 0.008325517 0.002225915 -0.012714479 -0.0068627438
-0.007717161 0.0068050176 -0.00065245107 0.0069787037 -0.00738292 -0.0006006723 0.0052500684 0.0015947623
0.011822423 -0.009651072 0.0041094255 0.009891069 0.011663245 -0.003912925 0.013191318 0.010107003
-0.0061556315 0.0044838227 0.005783044 -0.0027556457 0.0028931908 0.0015542442 -0.0028403634 0.0043956675
-0.006944872 -0.012887775 0.0078767985 -0.012382043 0.004696654 -0.0075076604 0.011808595 -0.0062018535
0.01160967 0.008135639 0.0056812093 -0.006008599 -0.0074813394 -0.013511505 -0.0050077587 -0.011450319
0.013308946 -0.008331988 0.000997086 0.0022930354 -0.011894176 -0.013011734 0.010623446 0.0010824967
0.008504916 0.00079917535 0.01105498 -0.008648781 -0.0001899125 0.003661912 0.0045002047 -0.010247987
-0.006771794 0.012101147 0.009329474 0.012760632 -0.013027615 0.010588868 -0.0061461045 0.0055848714
-0.012074947 0.008040566 0.010425221 -0.00031745527 -0.0045158304 -0.0020825313 -0.010901769 -0.0030512195
-0.012739212 -0.0020102393 -0.006452449 -0.010108893 -0.013226213 0.007123934 -0.004271753 0.003875576
-0.013100341 -0.003804043 -0.0077513503 -0.0027588196 0.009877922 -0.007398497 -0.0029775938 -0.00066098943
-0.01287198 0.0035647172 -0.011091892 0.012610946 0.00868829 -0.003344033 -0.0130006755 0.0057634655
0.00040471647 0.0066366754 0.0015638946 -0.0032096542 -0.004443528 -0.01236027 -0.00035740528 0.004152812
-0.0039106 -0.010059615 0.002201477 -0.0058535733 0.008854438 -0.0083069755 0.00761573 0.009805493
0.011740612 0.006220376 -0.007997077 0.0038285442 -0.0041157957 -0.0036145272 -0.0034223692 0.006201083
-0.0022514882 0.008759515 -0.008866311 0.009792108 -0.01094814 0.0005481737 -0.0007381113 -0.0062751244
-0.0060816524 -0.00953993 0.0034398586 -0.010439603 -0.012916949 0.0049079433 0.013555415 -0.010009235
-0.009386949 -0.0072211656 0.003860034 -0.0056561865 -0.0076105115 -0.009248142 -0.010621439 0.0020723492
0.011744322 -0.010030222 0.012415199 0.011662731 0.007766029 0.0060056895 0.012166057 -0.005072673
-0.0018925602 0.0031093527 -0.01100561 0.004279731 0.009457478 -0.009823312 0.011328835 -0.012163991
0.0074893665 -0.011811466 0.00466785 -0.013066618 -0.01352943 -3.7429854e-06 0.007700594 0.0028273724
-0.0130178435 0.008719135 0.0047911145 0.012969442 0.010491021 -0.006644308 -0.010783963 -0.012751286
0.004363682 -0.008543486 -0.0107415 -0.011788026 -0.010381101 -0.000641603 0.0038923565 -0.010826817
0.0044799913 -0.0057031717 -0.0070834216 0.010624146 -0.00499558 -0.0031621307 -0.003263549 0.002296675
-0.0028955322 -0.0064061494 -0.0008613905 0.013302948 -0.0075391196 0.011776958 0.0050805286 0.0016740579
-0.0007623406 0.011100382 0.0011235811 -0.0047555426 -0.0074064042 0.0047443304 0.0052263048 -0.008425671
0.013214864 -0.013449106 0.0015234062 -0.013365923 -0.007829221 -0.011708082 -0.008972516 -0.0041821282
-0.00063102413 0.008956401 0.013429111 0.0066560656 0.013415296 0.0055345707 -0.0128061045 -0.006581801
0.0025783107 0.006849861 0.00045923702 0.00585342 -0.008900974 -0.0009287046 0.002271263 0.003068922
0.011404581 0.008248404 -0.010557628 0.010664279 -0.00742661 -0.0058256835 0.0032170676 -0.0031028837

fully_connect1.bias f4 [10]
00000000: 1e25 37bc 0e88 1b3f 66a9 1cbf 727a 1bbf
00000010: bbb6 193f c0b7 17bf fdca 163f ed4d 17bf
00000020: 9171 18bf 38ad 18bf
-0.011178283 0.6075448 -0.6119598 -0.6073371 0.6004445 -0.59264755 0.58903486 -0.5910328
-0.5954829 -0.5963931

fully_connect2.weight f4 [1, 10]
00000000: 4521 10be 5d7a 2d3f edc9 ce3e 4dcf 473f
00000010: 6c4d 473f 66b0 fe3e 1a0a 0bbf 9566 063f
00000020: e2c4 c93e b0fa f03e
-0.14075191 0.67764837 0.40388432 0.7805069 0.7785251 0.49743956 -0.5431229 0.5250028
0.39408022 0.4706626
