bs32_lr0.001_weight.pt (torch, 240144 bytes, 7 tensors)

conv_1.weight f4 [16, 3, 3, 3]
0	0xbd8bfc72	-0.068352595
1	0x3b39873c	0.0028309366
2	0xbdd5d27f	-0.104405396
3	0x3d8f802a	0.07006867
4	0x3d86bb66	0.06578712
5	0x3d587950	0.052850068
6	0x3dfd9b75	0.12383167
7	0xbdf1a6c5	-0.11799387
8	0x3e1bec76	0.15226921
9	0x3e2bff31	0.16796567
10	0xbcf61a92	-0.030041967
11	0x3de47075	0.11154262
12	0x3dc5ce77	0.09658521
13	0xbdcbd8da	-0.099534705
14	0xbde49aa5	-0.111623086
15	0xbdf0bfa4	-0.117553025
16	0x3d87d8b8	0.06633133
17	0x3ddacc82	0.10683538
18	0xbe60611f	-0.21912049
19	0x3d4787bb	0.048713427
20	0x3be51794	0.006991336
21	0xbd4d3b5b	-0.050105434
22	0x3d7758d7	0.06038746
23	0xbdadb3cb	-0.084815584
24	0xbd7cdb80	-0.06173277
25	0xbe1ab7f0	-0.15109229
26	0x3e1497e9	0.14511074
27	0x3e33a97e	0.17545125
28	0x3e3e649c	0.18593067
29	0xbbaf7bf5	-0.005355353
30	0x3e20fa27	0.15720426
31	0x3dae9ab5	0.08525602
32	0xbd54eb03	-0.051981937
33	0x3e113fbc	0.14184469
34	0xbe07672c	-0.1322295
35	0x3decfa00	0.11571121
36	0x3bad472f	0.0052880268
37	0x3dcd99e6	0.100391194
38	0xbe373468	-0.17891085
39	0xbdf86119	-0.12127895
40	0xbc902d0d	-0.017599607
41	0x3d2c7246	0.042101167
42	0x3e4d375a	0.20040646
43	0x3dc157e6	0.094405934
44	0xbe1cb237	-0.15302359
45	0xbdc793a5	-0.09744958
46	0xbc93e0e6	-0.018051576
47	0x3d9faf0e	0.07797061
48	0x3c536213	0.012901801
49	0x3e3f19e4	0.1866222
50	0xbdfdad83	-0.1238661
51	0x3d3e44c0	0.046452284
52	0x3d142e61	0.036177043
53	0x3e37c485	0.1794606
54	0x3e201cdd	0.1563601
55	0xbd6849a6	-0.05671086
56	0x3d3b23d1	0.045688454
57	0xbe20fc51	-0.15721251
58	0xbd914ee2	-0.07095124
59	0x3e4e9a56	0.20176062
60	0xbd24674c	-0.040137574
61	0x3d3d1cb3	0.046169948
62	0x3e58b697	0.21163402
63	0xbde73ddb	-0.11291095
64	0xbc1039ee	-0.008802874
65	0x3e334984	0.17508513
66	0xbe0b8e26	-0.13628444
67	0x3d45b43f	0.0482676
68	0x3da0b9fb	0.07847973
69	0xbdfb6748	-0.12275559
70	0xbdd1570d	-0.10221682
71	0x3e2956d4	0.16537029
72	0xbb819e7e	-0.0039556613
73	0xbd2a3485	-0.041553993
74	0xbe1f3429	-0.15547241
75	0x3e1b0014	0.15136749
76	0xbe3d2af2	-0.18473414
77	0xbe10c3a6	-0.14137134
78	0xbe3a5431	-0.18196179
79	0x3e26a244	0.16272837
80	0x3d80c56e	0.06287657
81	0x3e0bfb89	0.13670172
82	0xbdd7ad16	-0.105310604
83	0x3af6d35b	0.0018831299
84	0x3e092e5d	0.13396592
85	0xbd01cf04	-0.031691566
86	0x3d164e38	0.03669569
87	0x3dc40739	0.0957169
88	0x3dbb6378	0.091498315
89	0xbde98f78	-0.114043176
90	0x3e685d44	0.22691828
91	0xbbc9cb49	-0.0061582667
92	0x3bec9f34	0.007221127
93	0x3e1c979e	0.15292212
94	0xbc7e91e9	-0.015537717
95	0xbe461d42	-0.19347098
96	0x3e22dc72	0.15904406
97	0xbdf2610a	-0.11834915
98	0xbe2b9827	-0.1675726
99	0x3db70924	0.0893729
100	0x3d2c4e39	0.042066786
101	0xbe29f460	-0.16597128
102	0xbba0633a	-0.004894641
103	0x3ca30b74	0.019902922
104	0xbe28fa23	-0.1650167
105	0x3e067da3	0.13133864
106	0x3e1f5aae	0.15561935
107	0xbd80392f	-0.06260907
108	0xbce8e62e	-0.02843007
109	0x3dc7d3ad	0.09757171
110	0xbe0e14da	-0.13875142
111	0xbdbc5da0	-0.09197545
112	0x3cacd580	0.021097898
113	0x3d991948	0.07475525
114	0xbd8293bb	-0.063758336
115	0x3e352004	0.17687994
116	0xbcb6c27f	-0.02230954
117	0xbe2dfb29	-0.16990341
118	0x3e2ad9e5	0.16684683
119	0x3d81f188	0.063448966
120	0xbd9c8f07	-0.07644468
121	0x3e2c2775	0.16811927
122	0xbdc10ed4	-0.09426656
123	0xbe512bbb	-0.20426838
124	0xbda4b0cf	-0.08041536
125	0x3d9f647c	0.07782838
126	0xbe3cf504	-0.18452841
127	0xbd959e06	-0.07305531
128	0x3e1e12df	0.15436886
129	0x3b9cd751	0.00478641
130	0x3e43567a	0.19075957
131	0x3d208740	0.039191484
132	0xbe4d2a08	-0.20035565
133	0xba89663c	-0.0010482739
134	0x3e354c14	0.17704803
135	0x3d9de5bb	0.07709833
136	0xbe22eb8a	-0.15910164
137	0xbd062d51	-0.03275806
138	0xbd25b17e	-0.040452473
139	0xbe267527	-0.16255628
140	0x3ccf957c	0.025339834
141	0xbc9aee53	-0.01891247
142	0x3cc68441	0.024232985
143	0x3e1f3385	0.15546997
144	0x3ca3971d	0.019969517
145	0x3e4c9192	0.19977406
146	0x3e340954	0.17581683
147	0xbc048d59	-0.0080903405
148	0x3e00a9c5	0.12564762
149	0x3e39b86d	0.18136759
150	0x3cc96453	0.024583971
151	0xbbf4668b	-0.007458513
152	0xbdf3c52e	-0.119028434
153	0xbe4bba22	-0.19895223
154	0xbdf2b7c5	-0.118514575
155	0x3e0c1c1b	0.13682596
156	0xbe0d60a9	-0.13806404
157	0xbe3bc081	-0.18335153
158	0x3e0f36e4	0.13985783
159	0xbe26a99e	-0.16275641
160	0xbe24100f	-0.16021751
161	0x3e0a3b44	0.1349917
162	0x3e467ac7	0.19382773
163	0xbe1550d0	-0.14581609
164	0x3cf623ea	0.030046422
165	0xbe08a954	-0.13345844
166	0xbbf870ac	-0.007581791
167	0xbe2132e4	-0.1574207
168	0x3c367761	0.011136861
169	0xbdba13e9	-0.09085829
170	0x3e01c655	0.12673314
171	0xbc3f19ed	-0.011663896
172	0x3dc9908c	0.09842023
173	0xbda6a469	-0.081368275
174	0x3d95fc29	0.07323486
175	0x3db66881	0.08906651
176	0x3d969d4d	0.073542215
177	0x3e08f7ae	0.13375732
178	0xbda3463c	-0.079723805
179	0xbe0ad9b3	-0.13559608
180	0xbdb35c37	-0.08757823
181	0x3e2d7e0c	0.16942614
182	0x3e4cd000	0.2000122
183	0x3cd0deda	0.025496889
184	0x3c4e00bd	0.012573418
185	0x3e5f31a2	0.21796277
186	0x3e12bf1c	0.14330715
187	0x3daa6d0d	0.08321581
188	0x3d5b156e	0.053487234
189	0xbcbce950	-0.02306047
190	0xbe010b0b	-0.12601869
191	0x3de0a167	0.10968285
192	0x3e37a818	0.17935216
193	0xbe1fae7f	-0.15593909
194	0x3e19ace5	0.1500736
195	0x3c88a94e	0.016682293
196	0x3dd72ef5	0.10507003
197	0x3ddfef76	0.109343454
198	0x3d0eaee2	0.03483475
199	0x3ce6f5d9	0.028193401
200	0xbdd4297f	-0.10359477
201	0x3e029cd2	0.12755135
202	0xbe0220af	-0.1270778
203	0xbe4658d5	-0.19369824
204	0x3e0a786a	0.13522497
205	0xbd0e6fb6	-0.034774505
206	0xbd9767f8	-0.07392877
207	0xbab9bcbe	-0.001417063
208	0xbd95dc53	-0.07317414
209	0xbdb095a7	-0.08622294
210	0xbe01f7a5	-0.12692125
211	0x3e2c3e5f	0.16820668
212	0x3d7f071f	0.06226265
213	0xbd861778	-0.06547445
214	0x3db402a6	0.08789568
215	0xbdab5a0e	-0.08366786
216	0xbd83403e	-0.064087376
217	0x3de7ac99	0.11312217
218	0xbe4abbde	-0.19798228
219	0xbe3fa27e	-0.1871433
220	0x3d3caa30	0.04606074
221	0x3e4609c5	0.19339664
222	0xbe0523d7	-0.13001953
223	0x3da49d7d	0.08037851
224	0xbd42736a	-0.04747335
225	0x3dd57fc9	0.10424764
226	0x3e1edaec	0.155132
227	0xbd6d1b6c	-0.05788748
228	0xbe31c2dd	-0.1735949
229	0xbe1a5a51	-0.15073515
230	0x3e0843dc	0.13307136
231	0x3c3b6fe8	0.011440255
232	0xbd04439e	-0.032291047
233	0x3d319406	0.043354057
234	0x3c112417	0.008858702
235	0xbe1fc442	-0.1560221
236	0x3b1d61aa	0.002401451
237	0xbe31b1ec	-0.17353028
238	0x3e260992	0.16214588
239	0x3dc5f636	0.09666102
240	0xbe13a814	-0.14419585
241	0xbe20fbd1	-0.1572106
242	0xbe07df0d	-0.13268681
243	0x3e0bf963	0.13669352
244	0x3e12aaac	0.14322919
245	0x3e44e10c	0.19226474
246	0x3e3adbeb	0.18247955
247	0x3c9b3efa	0.018950928
248	0x3dd77f21	0.10522295
249	0xbd4cf2e2	-0.05003632
250	0xbe35afb7	-0.17742811
251	0xbdcd9e4a	-0.10039957
252	0x3b7830fd	0.0037870996
253	0x3e40a8af	0.18814348
254	0xbd7b2b97	-0.061320867
255	0xbd82ac36	-0.06380503

conv_1.bias f4 [16]
0	0x3d635473	0.05550046
1	0x3c9d78f7	0.01922272
2	0x3dc6e2dc	0.09711239
3	0x3cc1cd72	0.023657534
4	0xbdcba416	-0.09943406
5	0xbdbe19c6	-0.0928226
6	0xbc81658b	-0.01579549
7	0xbb509a26	-0.003183016
8	0x3dd9cf9d	0.10635302
9	0xbd4c40f1	-0.04986662
10	0xbd51c85c	-0.05121647
11	0xbe4d21d9	-0.20032443
12	0x3d2d97a0	0.04238093
13	0xbdca08a6	-0.09864931
14	0xbe4c72f4	-0.19965726
15	0xbd7263fb	-0.05917738

conv_2.weight f4 [32, 16, 3, 3]
0	0x3d181837	0.037132468
1	0xbcb6a0cb	-0.022293469
2	0xbc972770	-0.018451422
3	0xbd774026	-0.06036391
4	0x3c7367e1	0.01485631
5	0xbd7f33ea	-0.06230537
6	0x3cf8c4e4	0.030367322
7	0xbde6a7d2	-0.11262478
8	0xbc445cda	-0.011985028
9	0xbd311599	-0.043233488
10	0xbd8efdd6	-0.06982009
11	0xbdc3c845	-0.09559683
12	0xbb3eaf77	-0.0029096284
13	0xbc1df9f9	-0.009642118
14	0x3d88af60	0.06674075
15	0xbd199775	-0.037497956
16	0x3d2d55e0	0.042318225
17	0xbd2087f1	-0.039192144
18	0x3d94a102	0.07257272
19	0xbc915232	-0.01773939
20	0x3d1add89	0.03780893
21	0x3cca609f	0.024704276
22	0xbd633def	-0.055478986
23	0x3d1c1dc5	0.038114328
24	0xbcfe1015	-0.031013528
25	0xbd6ef06b	-0.05833475
26	0x3cf528b8	0.029926643
27	0x3ce2a315	0.027665654
28	0x3cced0b3	0.025246
29	0x3d028cca	0.03187255
30	0x3ccd13b1	0.025033804
31	0x3aac26b4	0.0013134093
32	0xbd2995e0	-0.041402698
33	0x3cd90990	0.026493818
34	0x3d2e8092	0.042603083
35	0x3cc66e36	0.024222475
36	0x3d67fb0c	0.0566359
37	0x3cef7fa0	0.029235661
38	0x3d448b2b	0.047984283
39	0xbca5b63a	-0.020228494
40	0x3dac7c8f	0.08422195
41	0x3d85c85a	0.06532355
42	0x3dd50ceb	0.104028545
43	0x3c7dcef6	0.015491238
44	0x39f6e495	0.00047091083
45	0x3d873730	0.06602323
46	0x3d478cf6	0.048718415
47	0x3d84d158	0.06485242
48	0x3df8d4b3	0.12149944
49	0x3d28b3dc	0.041187152
50	0x3e07c7e7	0.1325985
51	0x3db36801	0.087600715
52	0x3d7c67bd	0.06162237
53	0x3e15ac4d	0.14616509
54	0xbd10fe80	-0.03539896
55	0x3ccf7480	0.025324106
56	0x3c785f52	0.015159445
57	0xbd279608	-0.040914565
58	0xbcd2ca10	-0.025731117
59	0x3cbe5324	0.023233004
60	0x3d240de6	0.040052317
61	0x3c12ff1f	0.008971958
62	0xbd4186eb	-0.04724781
63	0xbd490cf9	-0.049084637
64	0x3d645bd9	0.055751655
65	0xbd72a05d	-0.059234966
66	0x3c237a00	0.009977818
67	0xbd089f30	-0.033354938
68	0xbd224a9c	-0.039621934
69	0xbdc5ab41	-0.09651805
70	0x3d8f9f48	0.07012802
71	0xbda989e1	-0.082782514
72	0x3d776e0a	0.060407676
73	0xbd056ae4	-0.032572642
74	0x3d57c5b8	0.052678794
75	0x3c06a6ea	0.008218506
76	0xbd418c4c	-0.04725294
77	0x3d59f1d7	0.053209152
78	0x3bcf4210	0.006325014
79	0x3d8390df	0.06424116
80	0xbc0899a5	-0.008337413
81	0xbd7e4985	-0.062081832
82	0xbcc368bb	-0.02385365
83	0xbd6de454	-0.05807908
84	0x3d648e12	0.05579955
85	0xbd4162f2	-0.047213502
86	0xbcb0a05e	-0.021560844
87	0xbbc2b113	-0.005941519
88	0x3d647cd9	0.055783127
89	0xbc9da5b6	-0.019244056
90	0xbd37fe90	-0.044920504
91	0xbd708a4e	-0.058725648
92	0xbd057c44	-0.032589212
93	0xbd38eeda	-0.04514966
94	0xbd8e8143	-0.069582485
95	0xbd60b3a8	-0.054858834
96	0x3cd91419	0.026498841
97	0xbd73cd17	-0.05952176
98	0xbd9a6306	-0.075384185
99	0xbd2e88b9	-0.042610858
100	0x3c958e38	0.018256292
101	0x3c8811da	0.016610075
102	0xbcc5ea1a	-0.02415948
103	0x3c068ea6	0.008212721
104	0x3b469db8	0.003030641
105	0x3d85bf06	0.065305755
106	0x3d7ff34a	0.062487878
107	0x3c9f00c0	0.019409537
108	0x3d5482b5	0.051882464
109	0xbce861d6	-0.028366964
110	0x3aaaa86e	0.0013020167
111	0xbd08eafb	-0.03342722
112	0xbd689974	-0.05678697
113	0xbd1eeb5c	-0.038798675
114	0x3c996708	0.018725887
115	0x3c42c5f1	0.011888013
116	0x3db6e29a	0.089299396
117	0x3d427019	0.047470186
118	0xbccbfa21	-0.024899544
119	0xbd2beaf6	-0.041972123
120	0x3db815e9	0.08988554
121	0xbca09386	-0.019601595
122	0x3d9be9d6	0.0761296
123	0x3d7b61a7	0.061372425
124	0xbd80409f	-0.062623255
125	0x3d81478f	0.06312477
126	0xbca4f1bb	-0.020134797
127	0xbda82cc7	-0.082116656
128	0xbc7aac1b	-0.015299822
129	0x3cbca1d7	0.02302639
130	0xbd7d3c93	-0.061825346
131	0x3d249171	0.040177766
132	0x3c101561	0.00879416
133	0xbcdb575c	-0.026775055
134	0x3d10d153	0.035355877
135	0xbd88e9c6	-0.06685214
136	0xbcd98d16	-0.026556533
137	0xbd4d7d89	-0.050168548
138	0xbd1d3b45	-0.038386602
139	0x3d8bb7ae	0.068221435
140	0x3d630e7b	0.05543373
141	0xbbff112a	-0.0077840285
142	0x3c94fb45	0.01818622
143	0xbda7a6cf	-0.08186113
144	0x3dc4092c	0.09572062
145	0xbc9f821d	-0.019471223
146	0x3d463604	0.048391357
147	0x3d21d291	0.039507452
148	0xbcc41388	-0.023935094
149	0xbd549a2a	-0.051904835
150	0x3bce1ebd	0.0062902854
151	0x3d5bb4a2	0.05363906
152	0xbd02bc46	-0.031917833
153	0x3d982a14	0.07429901
154	0xbd0d43f2	-0.034488626
155	0xbd5e2499	-0.05423412
156	0x3d9c67bc	0.07636973
157	0xbc7efba3	-0.015562925
158	0xbdd45e62	-0.103695646
159	0xbcbf516d	-0.023354257
160	0xbd9ba829	-0.076004334
161	0xbc36a6ed	-0.011148197
162	0x3d3931d9	0.045213554
163	0xbd155a56	-0.036463104
164	0xbd6fd325	-0.058550972
165	0xbd88fa3d	-0.06688354
166	0xbdac37d2	-0.084090844
167	0x3d95566a	0.07291873
168	0x3c09d85b	0.0084134
169	0xbb421d7a	-0.002961962
170	0x3dc96a13	0.09834685
171	0x3d02ebc3	0.03196312
172	0x3d32e5c1	0.04367614
173	0x3db48d2a	0.088159874
174	0x3dfe3b74	0.124136835
175	0x3e05cfb8	0.1306752
176	0x3cca29fd	0.024678225
177	0x3dac702e	0.08419834
178	0x3d83d08d	0.06436262
179	0xbd916acf	-0.0710045
180	0x3d85c285	0.06531242
181	0x3d861262	0.06546475
182	0x3d1099ac	0.035302803
183	0x3d2b7e2b	0.04186837
184	0xbd0d068c	-0.03443007
185	0xbcec963a	-0.028880227
186	0xbdb26412	-0.08710493
187	0x3bca7c34	0.006179357
188	0xbd21a103	-0.039460193
189	0xbb39e803	-0.002836705
190	0xbd81fb8e	-0.063468084
191	0xbdb964e0	-0.090524435
192	0x3c349bc4	0.011023466
193	0x3d4fe6b7	0.050757136
194	0x3d80090e	0.06251727
195	0xbce7e2c1	-0.028306367
196	0xbc588c37	-0.013217024
197	0x3da28d8f	0.079371564
198	0xbd5cf292	-0.05394227
199	0xbd4a05f4	-0.049322084
200	0xbda0acea	-0.07845481
201	0xbd04d30d	-0.032427836
202	0x3c97de54	0.018538631
203	0x3bbf95ee	0.0058467304
204	0x3c7628ab	0.015024344
205	0xbd19d2ad	-0.03755443
206	0xbe1c653f	-0.15272997
207	0xbd50b1b0	-0.050950706
208	0x3dde7b13	0.10863318
209	0xbb45c9a3	-0.003018
210	0x3d1b1c2c	0.037868664
211	0xbd52018b	-0.051271003
212	0xbd4ae862	-0.049538024
213	0x3cd56f34	0.026054002
214	0x3d94aec3	0.07259896
215	0x3d437b04	0.04772474
216	0xbdaac308	-0.083379805
217	0xbcc3ea2b	-0.02391537
218	0x39a7ba62	0.00031991588
219	0xbdb7315b	-0.08944961
220	0xbd428bf8	-0.047496766
221	0x3d725362	0.05916155
222	0x3cc833a4	0.024438687
223	0xbc8aae08	-0.016928688
224	0x3bd4e7e3	0.0064973696
225	0x3dafa269	0.08575899
226	0xbd3fff86	-0.046874546
227	0xbc327ec7	-0.010894484
228	0x3d71160c	0.058858916
229	0x3bf31888	0.007418696
230	0xbd43bdbe	-0.047788374
231	0x3d94f922	0.07274081
232	0x3d1081a5	0.03527989
233	0x3ca8ae52	0.020590935
234	0x3dac59aa	0.084155396
235	0x3da9b3f3	0.08286276
236	0x3d3a3256	0.04545816
237	0xbc74fd7a	-0.014953012
238	0xbbdeab7b	-0.0067953444
239	0xbccd749c	-0.025080018
240	0x3aefa198	0.0018282412
241	0x3d489324	0.04896845
242	0xbdd1bf07	-0.10241514
243	0xbd240b14	-0.040049627
244	0xbd67de6b	-0.0566086
245	0xbd62b0f6	-0.055344544
246	0xbd8259f1	-0.06364811
247	0xbcc9843e	-0.02459919
248	0x3ce66e0c	0.028128646
249	0xbd61a143	-0.05508543
250	0x3cd66b9c	0.026174359
251	0x3d18cd24	0.037305012
252	0xbbd3de70	-0.0064657256
253	0x3d909bf4	0.07060996
254	0x3be7246e	0.0070539033
255	0x3d40223b	0.046907645

conv_2.bias f4 [32]
0	0x3c90c149	0.01767029
1	0x3d479b7f	0.048732277
2	0x3cb96308	0.02263023
3	0x3d54cb18	0.051951498
4	0xbd77aaca	-0.06046561
5	0x3d5ca470	0.053867757
6	0xbc30b7c1	-0.010785998
7	0xbd9a4ec8	-0.075345576
8	0xbc9d572a	-0.019206602
9	0xbbb72aaf	-0.005589805
10	0xbda74619	-0.08167667
11	0xbda02522	-0.078195825
12	0xbc5120c0	-0.012764156
13	0xbd64ea34	-0.055887416
14	0x3ce86180	0.028366804
15	0x3b9e6088	0.0048332848
16	0xbd5cc303	-0.053896915
17	0xbdd646d8	-0.10462731
18	0xbdb00ada	-0.0859582
19	0x3b625445	0.0034535092
20	0x3c27b2da	0.010235513
21	0xbc8d0953	-0.01721636
22	0x3cc40d3d	0.023932094
23	0x3ca72706	0.02040435
24	0x3ae2721f	0.0017276442
25	0x3c502081	0.012703062
26	0xbd9c8273	-0.07642069
27	0x3d6f0a11	0.05835921
28	0x3d23737d	0.03990506
29	0xbd0b6d23	-0.034039628
30	0xbd12c0c7	-0.035828378
31	0x3cdc3338	0.026879892

fully_connect1.weight f4 [10, 5408]
0	0x3cb0bac7	0.021573437
1	0x3d0f92d0	0.03505212
2	0x3c2ba6c8	0.0104767755
3	0x3c7a104d	0.0152626755
4	0x3ca53458	0.020166561
5	0x3c895bdb	0.016767433
6	0x3c53ad86	0.012919789
7	0x3c963661	0.018336477
8	0x3cb48860	0.022037685
9	0x3bbbbbad	0.00572916
10	0x3c226e7d	0.009914038
11	0x3ca95f72	0.020675395
12	0x3c1873ae	0.009304924
13	0x3c3ce059	0.011528098
14	0x3c967cab	0.018369993
15	0x3c96eb59	0.01842277
16	0xbbaef6f7	-0.005339499
17	0x3d0f2c9c	0.034954652
18	0x3c8a4e45	0.016883025
19	0x3c021c3e	0.007941304
20	0x3cc3519e	0.023842629
21	0x3cedcc88	0.029028192
22	0x3c26b814	0.010175724
23	0x3c49f894	0.012327332
24	0xbb2be681	-0.002622992
25	0x3c026ff9	0.007961267
26	0x3ab581b9	0.0013847864
27	0x3cda1b99	0.026624488
28	0x3cb39c54	0.021925129
29	0x3cca2818	0.024677321
30	0x3c1a8b19	0.0094325775
31	0x3ce9fd34	0.02856312
32	0x3b1a5930	0.0023551695
33	0xbb9bf4b5	-0.004759396
34	0x3cb688c0	0.022282004
35	0x3c6ea6af	0.014566108
36	0x3cce076c	0.025150023
37	0x3b746b5b	0.0037295434
38	0x3c500b60	0.0126980245
39	0x3cbc4b93	0.022985255
40	0x3b0950d8	0.0020952728
41	0x3ced3257	0.028954668
42	0x3d081288	0.033220798
43	0x3d13973e	0.036032908
44	0x3cb43724	0.02199895
45	0x3c0c883b	0.008577402
46	0x3c63a556	0.0138944
47	0x3b83e9df	0.0040256823
48	0x3cff3f1d	0.031158024
49	0x3d06e1eb	0.032930296
50	0xbca0f383	-0.019647365
51	0x3c421e1d	0.011848
52	0x3afd8ce5	0.0019344358
53	0x3c060c40	0.008181632
54	0xbc31d6a5	-0.010854398
55	0x3c484588	0.012223609
56	0x3c24fc58	0.010069929
57	0x3c9fb3af	0.01949486
58	0x3c1318b2	0.008978056
59	0x3bf8a152	0.0075875903
60	0x3d13e802	0.03610993
61	0x3cd2d342	0.025735501
62	0x3c637e45	0.0138850855
63	0x3c853b9b	0.016263774
64	0xb9b1116d	-0.00033773054
65	0x3b1b4541	0.0023692402
66	0x3caa4695	0.02078561
67	0x3bbfb498	0.005850386
68	0xbba006da	-0.0048836293
69	0x3ba4b80e	0.005026824
70	0x3bfdffa6	0.007751423
71	0x3cdea81d	0.027179772
72	0x3d14a46a	0.03628961
73	0x3ba89bfa	0.005145547
74	0x3bebce88	0.0071962513
75	0xb87b4518	-5.9907412e-05
76	0x3c12b7d4	0.008954961
77	0x3c0153f0	0.007893547
78	0xbc8d01ad	-0.017212713
79	0x3a6b7823	0.00089824403
80	0xbb9befab	-0.0047587953
81	0x3bf9a7f5	0.007618899
82	0x3c1cca3a	0.009569699
83	0xbab2f5fc	-0.0013653631
84	0x3c6758f7	0.014120332
85	0x3c8284df	0.015932498
86	0xbb0bf02b	-0.0021352868
87	0x3cbaf71f	0.022822915
88	0x3c812ef3	0.015769457
89	0xbc01ec86	-0.007929927
90	0x3aa29d5b	0.0012406515
91	0xbce24c67	-0.027624322
92	0x3b985781	0.004649103
93	0xbbcca451	-0.006245174
94	0xbc100d42	-0.008792223
95	0x3a8fbf60	0.0010967068
96	0x3c313f04	0.010818247
97	0x3c86b076	0.016441565
98	0x3c008e30	0.0078464
99	0x3b81a087	0.003955904
100	0xbb59b6a6	-0.003322044
101	0xbbb276bb	-0.0054462827
102	0xba363253	-0.0006950248
103	0x3a7e546c	0.0009701911
104	0xbca982c3	-0.020692235
105	0x3c03062c	0.007997077
106	0x3bcfdca7	0.0063434425
107	0x3bd353d1	0.0064492007
108	0xb92b0391	-0.0001630916
109	0x3c13ad50	0.009013489
110	0x3ca4e5a0	0.020129025
111	0xbb0fae49	-0.002192395
112	0xbc1cf6c9	-0.009580323
113	0x3b18a988	0.0023294408
114	0x3cb33f43	0.021880751
115	0x3c1b6f10	0.009486929
116	0xbb467d25	-0.0030286994
117	0xbc08ba25	-0.008345162
118	0x3c61a534	0.013772298
119	0x3c40aa17	0.011759303
120	0xbb133c2e	-0.002246629
121	0xbb136c75	-0.0022495065
122	0x3ba428af	0.0050097327
123	0x3bda5c69	0.006663848
124	0xbc63b8da	-0.0138990525
125	0xbc81fef7	-0.015868647
126	0xbc306e6c	-0.010768514
127	0x3c0b978a	0.008520016
128	0x3ba719f8	0.0050995313
129	0x3b86aab6	0.004109706
130	0xbc89da7b	-0.016827812
131	0x3bba4ca5	0.0056854063
132	0x3c64565d	0.013936606
133	0x3c91a34d	0.017778063
134	0x3cb3331b	0.021874955
135	0x3c14c3a7	0.00907985
136	0x3cac2718	0.021014735
137	0xbc6515d1	-0.013982252
138	0x3b5a966a	0.0033353814
139	0xbbaadcdc	-0.005214317
140	0xbc814100	-0.015778065
141	0xbc37b819	-0.011213326
142	0x3ba294b7	0.004961576
143	0xbc7fdd6e	-0.015616758
144	0x3c170dd1	0.009219603
145	0x3b2a0c8f	0.0025947427
146	0xbb9837f7	-0.0046453434
147	0x3c56192b	0.013067524
148	0xbbee3063	-0.0072689517
149	0xbc3ecb4e	-0.011645151
150	0x3c2052b4	0.009785343
151	0xbbc295d4	-0.005938271
152	0xbb9d697e	-0.0048038354
153	0xbad593c2	-0.0016294646
154	0x3a5647d7	0.0008174157
155	0xbb06d7ec	-0.0020575477
156	0xbcf3128c	-0.02967193
157	0xbb24ff1a	-0.0025176466
158	0x3c3d808c	0.0115662925
159	0xbb9d9924	-0.0048095156
160	0x3b88991d	0.004168643
161	0xbcdfc087	-0.027313484
162	0xbc936da7	-0.017996622
163	0x3bdf74c9	0.006819342
164	0xbc28eb7b	-0.010310049
165	0xbbbb9618	-0.0057246797
166	0xbcd90a3a	-0.026494134
167	0xbb8faefe	-0.0043848744
168	0xb9dfc4ea	-0.00042680587
169	0x3c674a53	0.014116841
170	0xbbc09abf	-0.005877822
171	0x3bb264c7	0.0054441425
172	0x3d7676c9	0.060171876
173	0x3ce891b6	0.028389793
174	0x3cf643ca	0.030061621
175	0x3d319542	0.043355234
176	0x3d4ecb18	0.050486654
177	0xbbfb8c5d	-0.0076766447
178	0x3d46e582	0.04855872
179	0x3cdb0ecd	0.026740456
180	0x3bf82868	0.007573176
181	0xbceaf44e	-0.028680947
182	0x3a8a5978	0.0010555228
183	0xbb812ec8	-0.0039423443
184	0x3cb6120a	0.022225399
185	0x3bad5906	0.0052901534
186	0xbc556a2b	-0.013025801
187	0xbc1bd7e8	-0.009511925
188	0x3ca4146b	0.020029267
189	0x3bc334d3	0.005957225
190	0x3c880836	0.016605478
191	0xba7fa35f	-0.0009751822
192	0xbc9885e9	-0.01861854
193	0xbcbfec84	-0.02342821
194	0xbbe7a9e1	-0.0070698117
195	0xbc455d7d	-0.012046215
196	0x3c5fb363	0.013653609
197	0x3c7986ac	0.015229862
198	0xbba67f5a	-0.0050810995
199	0xbaac3cc3	-0.0013140667
200	0xbbd94638	-0.006630685
201	0xbd2f7fd1	-0.042846505
202	0xbcc38948	-0.023869172
203	0xbcbc4e3b	-0.022986522
204	0xbc92bf3a	-0.01791345
205	0xbd629da7	-0.05532613
206	0xbca40517	-0.020021958
207	0xbba1b835	-0.0049352893
208	0x3c842af5	0.016133765
209	0x3c56f1be	0.013119159
210	0x3d40b99f	0.047052022
211	0xbc95a7b1	-0.018268438
212	0xbc7d8aa9	-0.015474954
213	0xbd3764e2	-0.044773944
214	0xbd58f12f	-0.052964386
215	0xbd84f345	-0.064917125
216	0xbae11e2a	-0.0017175127
217	0x3b112918	0.0022149738
218	0xbd75b500	-0.05998707
219	0xbca959f1	-0.02067277
220	0xbcd96135	-0.02653561
221	0x3a943d4c	0.0011309772
222	0x3ca8d210	0.020607978
223	0x3acbbc36	0.0015543762
224	0xbbc326ba	-0.0059555443
225	0x39a501d1	0.00031472606
226	0xbbbfe572	-0.0058562094
227	0xbd78164d	-0.060568143
228	0xbd0b9480	-0.034077168
229	0xbacb8f84	-0.0015530442
230	0x3c77ecb7	0.015132121
231	0xbd3cfeb9	-0.04614136
232	0x3c93b39f	0.018029986
233	0x3c5331a4	0.012890253
234	0x3c2988e2	0.010347577
235	0x3c9d49a4	0.019200154
236	0x3c0e82a6	0.008698141
237	0xbb99b509	-0.0046907705
238	0x3c0e25a1	0.008675964
239	0x3bd4fe2b	0.0065000257
240	0xbc2557c2	-0.010091724
241	0xbc05a585	-0.008157139
242	0xbcea5fc2	-0.028610114
243	0x3ca818fa	0.020519722
244	0x3b84b88c	0.00405032
245	0x3d1c5e7a	0.038176037
246	0xbc14c2aa	-0.009079615
247	0x3d54c8c6	0.051949285
248	0x3bee20cc	0.0072670933
249	0xbb0a419c	-0.0021096235
250	0xbba3780b	-0.0049886755
251	0x3cad7bbd	0.021177167
252	0x3c56f56c	0.013120037
253	0x3af390f6	0.001858263
254	0x39286c82	0.00016062151
255	0x3c984b9b	0.018590739

fully_connect1.bias f4 [10]
0	0x3a4465ae	0.0007491958
1	0x3ccd29fa	0.02504443
2	0x3bd804ca	0.006592368
3	0x3c322d0e	0.010875
4	0xbbcec4be	-0.0063100746
5	0xbc4c81cf	-0.012482121
6	0x3cbcf682	0.023066763
7	0xbb8850ed	-0.0041600377
8	0x3ca00a97	0.0195363
9	0x3be45937	0.006968643

fully_connect2.weight f4 [1, 10]
0	0xbd31a2de	-0.043368213
1	0x3e540e9e	0.20708701
2	0xbe8b646d	-0.27225056
3	0xbe89dda5	-0.26926914
4	0xbe072665	-0.1319824
5	0xbe04b076	-0.1295794
6	0x3d6b8abe	0.05750536
7	0xbdb3c6ae	-0.087781295
8	0x3d441ea0	0.04788077
9	0x3d9d5c64	0.07683638
