bs48_lr0.01_weight.pt (torch, 240068 bytes, 7 tensors)

conv_1.weight f4 [16, 3, 3, 3]
000000 f8 16 a3 3e 53 d5 b3 bb 99 9c 33 be 4a 2e c6 3e
       0.3185346 -0.0054880767 -0.17540206 0.3870719
000010 9e b8 e9 bc af 54 b5 be 58 aa 78 3e 8c 17 c3 bc
       -0.028530415 -0.3541617 0.24283731 -0.023814939
000020 e9 e4 aa be 9e 5b a3 bd c5 c5 1d 3e ed d2 ee bd
       -0.3337777 -0.07976459 0.15407474 -0.11661325
000030 a9 c6 29 3e ce da b7 bd a0 11 54 be d2 48 90 3d
       0.16579689 -0.089772806 -0.20709848 0.07045139
000040 02 c0 31 3e 5a b3 c0 bc 19 69 aa bd 34 e7 8a bd
       0.17358401 -0.023523021 -0.08320827 -0.0678238
000050 e1 4b d9 3d e2 1e 86 bd 17 37 b8 3d 19 82 04 be
       0.10610176 -0.06548859 0.089948826 -0.12940253
000060 c7 ce 0e 3e 9b 6d 06 3e b7 ae bc bd d1 d1 86 3d
       0.13946067 0.13127749 -0.09213012 0.06582988
000070 59 cb 83 3e 57 76 a5 3c 34 33 06 3e 43 de 8a 3d
       0.2574108 0.02019803 0.1310547 0.06780674
000080 af de f7 3b 75 5c 23 3e 4f 10 9a 3c a2 28 54 3e
       0.0075643877 0.15953238 0.018806605 0.20718625
000090 59 6b 2d 3e 7a c5 5d 3e 90 bc 33 3e 86 d6 6f 3e
       0.16935481 0.21657363 0.175524 0.23421678
0000a0 93 63 6f bc 2d 10 90 3d 53 bd 49 3e 76 51 39 3e
       -0.014611143 0.07034335 0.19701128 0.18097481
0000b0 bd c6 9b bd 6f 75 b8 3d 40 ad 11 be 5e 55 24 3e
       -0.07606266 0.09006774 -0.14226246 0.1604819
0000c0 0c 38 fd bd cc 12 3d be bd 70 1d be 43 94 f0 bd
       -0.12364206 -0.18464202 -0.15375037 -0.11747029
0000d0 5b 0c b8 bb 20 73 1a 3e a7 e2 a8 3d 0d 1d f5 3d
       -0.0056167073 0.15082979 0.082463555 0.119684316
0000e0 74 c7 68 3c 94 fa 53 be 7e 8a 7e be 14 2c 90 bc
       0.01420771 -0.20701057 -0.24857518 -0.017599143
0000f0 ae 02 61 3d eb d8 07 be 1e e1 01 3d 16 a3 ce 3d
       0.054934196 -0.13266341 0.03170883 0.100897
000100 73 43 15 3e 7b a2 53 bd 8a 7c c4 3d 56 57 f2 bd
       0.14576511 -0.051668625 0.095940664 -0.11833064
000110 3f 01 91 bd ee 81 78 bd da 7b 10 3e b2 11 45 bd
       -0.07080316 -0.060670786 0.14109746 -0.04811258
000120 bc 44 b9 3d 08 2f 9c 3c 86 d9 f8 bc c1 6c 11 3e
       0.09046313 0.019065395 -0.03037716 0.14201643
000130 8d fa 8c bc 48 3e 05 3e 53 e8 5e bd d3 ef 58 3e
       -0.017209316 0.1301204 -0.05442078 0.21185236
000140 75 f1 62 3e 31 17 00 3e bd c4 ce 3c 0d 19 78 be
       0.22162421 0.12508847 0.025240296 -0.24228306
000150 af 80 51 be b4 2c 04 3e b2 19 c5 bc 82 06 2d 3d
       -0.20459245 0.12907678 -0.024060104 0.042242534
000160 8e 0a b8 bd 69 ff 64 be a0 d3 80 3d f7 13 e6 3d
       -0.08986388 -0.22363056 0.06290364 0.11234277
000170 1e 8f ca bd 46 2a a7 3c 81 26 35 3e 42 00 31 be
       -0.09890579 0.0204059 0.1769047 -0.17285255
000180 d4 bd 65 3e 44 f5 9c 3d 49 5c f3 3d 25 12 df 3d
       0.22435695 0.07663968 0.11882836 0.10892133
000190 57 c6 0f 3e 34 6d 27 bd 09 7e 43 bc b0 6e ba 3d
       0.14040504 -0.04087563 -0.011931905 0.09103143
0001a0 8f a8 4b 3e ba 62 d6 3d a1 91 75 3e e4 63 e1 bb
       0.19888519 0.10468049 0.23981334 -0.006878363
0001b0 ce 28 2b 3e 98 28 78 bd 4d f3 db 3d 6f d1 54 3e
       0.16714785 -0.06058559 0.10739765 0.20783018
0001c0 96 ef 99 3e 5b 37 c5 3d 5e fb 76 be 0e 4d 25 be
       0.30065602 0.09629699 -0.24119326 -0.16142675
0001d0 d5 79 2e be 1f f9 0d be d8 fb 43 b9 38 ae eb bb
       -0.17038663 -0.13864563 -0.00018690468 -0.0071923994
0001e0 39 16 1d 3d 97 f4 42 3e 3b ca 56 3d 39 e8 18 be
       0.03835127 0.19038616 0.052438956 -0.14932336
0001f0 dd ba 19 be 8e 51 06 3c 62 f4 bb 3d a2 16 68 3e
       -0.15012689 0.008198155 0.09177472 0.22664884
000200 a4 11 cc bd 06 b0 06 3d d8 d3 2a 3d b2 db 32 3e
       -0.09964302 0.032882713 0.041705936 0.1746662
000210 a6 d6 1a bd e3 2d e3 bd 77 0a 86 bb 01 10 b5 bd
       -0.03780236 -0.110927366 -0.004090603 -0.08840943
000220 9c 9d 04 3d b4 d1 ad 3d 32 2c 19 3e 7f 33 01 3e
       0.03237687 0.08487263 0.14958265 0.126173
000230 62 30 5f bd 20 1e 25 bd 29 dc 10 bb 3c a9 43 bd
       -0.0544895 -0.040311933 -0.0022103882 -0.047768816
000240 85 0d e8 bd 30 68 26 be e6 43 0a be 52 bb bd bd
       -0.11330704 -0.16250682 -0.13502464 -0.09264244
000250 39 70 36 3e d5 8e 17 bd a6 e9 84 bd 51 33 b8 bc
       0.17816247 -0.03700145 -0.064898774 -0.022485407
000260 0f 8c 14 3e 27 05 67 3e 78 ea 52 3e 25 85 67 3e
       0.14506553 0.22560559 0.20597255 0.22609384
000270 1b c8 66 3d 2b e9 75 bd 2e a1 2b bc bf fc 95 3e
       0.05634318 -0.06003682 -0.01047544 0.29294392
000280 24 4a 91 bc f6 78 7d 3e 89 93 1c 3e e2 43 23 be
       -0.017735548 0.24753174 0.15290655 -0.15943864
000290 c9 2f 46 3d fd 29 52 bd 8f 0e f3 bd 52 d2 13 bd
       0.048385415 -0.051309574 -0.11868011 -0.03608925
0002a0 46 ed 45 be 48 08 d3 bd 6e 8c c8 3d ad 4d 93 3c
       -0.19328794 -0.10304314 0.0979241 0.017981375
0002b0 56 69 39 3e 1f ec c9 3d 53 a1 d0 ba 73 ad 4a 3d
       0.18106589 0.0985949 -0.0015917219 0.04948182
0002c0 1f 17 99 bd 8e 2c f5 3d ed 25 86 bd 4d 8c 4d 3e
       -0.07475113 0.11971389 -0.065502025 0.20073052
0002d0 53 27 53 3e 0c a8 50 3e 2c e9 80 3d 1b 4b ff bb
       0.2062047 0.20376605 0.06294474 -0.0077909357
0002e0 16 55 60 3d d1 7f a3 bd 27 c8 87 bc 47 f0 35 3e
       0.054768644 -0.079833634 -0.016574932 0.1776744
0002f0 11 71 b7 3c 55 cb 10 bd 42 e5 96 3d c9 db 3a bd
       0.022392781 -0.035350163 0.07367946 -0.04561976
000300 21 90 c4 bd 29 22 9e 3d 27 87 69 3e 48 b4 a8 bd
       -0.09597803 0.07721359 0.22805463 -0.08237511
000310 e3 e3 d3 3d 63 e8 94 3d b3 97 86 be 4b 79 38 be
       0.103462 0.07270887 -0.26287612 -0.1801502
000320 d7 2d 38 be 9b d3 89 bb 95 4e 2b be 3d e3 08 be
       -0.17986237 -0.0042061335 -0.16729195 -0.13367935
000330 17 95 41 3d d2 73 e9 bd 46 20 b2 bd 3e a3 09 bc
       0.047261324 -0.11399044 -0.08697562 -0.008400736
000340 e2 10 dd 3d 90 1a 26 be d5 8b a9 3d a3 ee 13 3e
       0.10794236 -0.1622107 0.08278624 0.14446501
000350 76 22 1c 3e 5d 73 34 3d 30 db 54 bd 76 de 4d 3b
       0.15247521 0.04405533 -0.051966846 0.0031413115
000360 47 17 ac bd 85 75 9f bd 33 71 7b 3d 75 ac 53 3e
       -0.08402877 -0.07786087 0.061387252 0.20671256
000370 f6 47 93 bd 97 09 d5 bc 86 79 08 3e 1d 97 1a 3e
       -0.0719146 -0.02600555 0.13327608 0.15096708
000380 99 f9 31 bd cb 53 46 bd 82 55 f6 bd 0c aa fb 3d
       -0.043450925 -0.048419755 -0.12028028 0.12288293
000390 f1 fa d0 bd 63 ad 8a 3d c5 9c aa 3c 99 5b d7 bc
       -0.10204113 0.06771352 0.020826707 -0.026288794
0003a0 7b a1 30 3e 3e 39 8b bd 57 1e ae 3d 45 e9 b4 3c
       0.172491 -0.067980275 0.085018806 0.022083888
0003b0 f2 fb b3 3e fe 35 c6 3e b8 54 6b 3e 4a e6 96 3d
       0.35153157 0.38713068 0.22981536 0.07368143
0003c0 14 42 6f 3d 70 ea b9 3e ff 36 ee 3d dc 09 2a be
       0.058412626 0.36311674 0.116315834 -0.16605324
0003d0 30 db 00 be 43 e6 de bb 47 d1 5c 3c c2 ce 15 3e
       -0.12583613 -0.0068023517 0.01347763 0.14629653
0003e0 62 73 0c be 47 d7 83 3c 08 1d ba bd 7f 0e 1b 3e
       -0.1371589 0.016093863 -0.090875685 0.15142249
0003f0 e7 f4 3b 3e cf 90 28 bc ef 23 fe 3d b6 29 eb 3d
       0.18355142 -0.010288431 0.124091975 0.11482565

conv_1.bias f4 [16]
000000 e6 f3 5a bd 4c 71 c4 bd be 27 ca bb 99 df 45 be
       -0.053455256 -0.09591922 -0.0061692884 -0.19323577
000010 76 0a 66 be c8 fb 81 3d db 11 e5 bd fd 67 44 be
       -0.22464928 0.063468516 -0.11185046 -0.19180293
000020 c5 3d a5 be ac 40 84 be 21 42 cf bc 63 36 0a 3e
       -0.3227369 -0.2583059 -0.025300087 0.1349731
000030 60 27 8a be 67 a1 79 3d a0 52 ac 3d e4 d4 97 be
       -0.26983166 0.06094494 0.08414197 -0.2965461

conv_2.weight f4 [32, 16, 3, 3]
000000 5e 0d 17 3d eb 66 c4 3b 26 14 d1 bd ef d7 05 3c
       0.036877982 0.005993714 -0.10208921 0.008169158
000010 9a e2 04 3c c9 71 0f be 4f 34 1c bd 49 49 fe bc
       0.008110667 -0.1400825 -0.038135823 -0.031040804
000020 cc c2 ed bc a7 82 a4 ba 50 61 77 bd 62 fd 2a bd
       -0.02902355 -0.0012551144 -0.06039554 -0.04174555
000030 15 36 ec bd 88 ad ad bd ca 18 74 bd 4d 37 29 bd
       -0.11533753 -0.08480364 -0.059593953 -0.041312505
000040 a8 aa a2 bd c1 be b0 3b 35 03 aa bd 35 c9 14 3b
       -0.07942706 0.0053938334 -0.08301393 0.0022702937
000050 3d a4 6d bd 3b 1c c4 bd 66 0d e5 bd 06 08 b5 bd
       -0.058017958 -0.09575697 -0.11184196 -0.08839421
000060 69 e5 2a bd 2d fe bd bd 74 05 ad bd ee 98 d4 bc
       -0.04172269 -0.09276996 -0.08448306 -0.025951829
000070 b6 91 81 3c cb c0 8a bb 12 b6 9e bc 9b 18 06 bd
       0.01581655 -0.0042344085 -0.019373927 -0.03273831
000080 65 88 94 bd 2f 16 96 bd 3c 13 d9 bd a6 3d be bd
       -0.07252578 -0.0732845 -0.10599372 -0.09289102
000090 f9 f5 85 bd 06 1c 0a be c6 13 33 be 3f 59 d4 bd
       -0.06541056 -0.13487253 -0.17488012 -0.10368585
0000a0 5b 3b ae bd 3e 5b ae bd ba a0 17 bd 3c 7a 27 be
       -0.08507415 -0.08513497 -0.037018515 -0.16355222
0000b0 6b 90 0d be ca 90 fa bd bb 51 a5 bc 71 20 42 3b
       -0.13824622 -0.122346476 -0.020180574 0.0029621387
0000c0 ed 80 b4 bd 7e 17 34 bb 53 82 06 be 36 de 7c bd
       -0.08813653 -0.0027479823 -0.13135652 -0.061735354
0000d0 93 e2 e2 bd 84 e3 45 bd f0 e3 44 bd d1 1a 0b 3d
       -0.11078372 -0.04831268 -0.04806894 0.03396112
0000e0 22 b7 58 bd f3 9a a1 ba b5 e4 d5 bd c3 76 ac 3c
       -0.052909024 -0.0012329504 -0.10444013 0.021052724
0000f0 e0 e8 bc bd a8 cb 2e 3b e8 99 18 bd 82 4d 7a bd
       -0.09224105 0.0026671682 -0.03725615 -0.061109073
000100 7f 5c 96 bd a1 e7 13 be 1a 76 b2 bd 4b cd 1f be
       -0.07341861 -0.14443828 -0.08713932 -0.15605657
000110 23 77 b6 bd e7 8d 98 3c 70 c8 57 bd 2b 99 49 bc
       -0.08909442 0.018622352 -0.052681386 -0.0123045845
000120 a0 49 0b be cd 28 ad bd c0 c6 06 be 88 33 03 be
       -0.13602304 -0.08455048 -0.13161755 -0.12812626
000130 50 32 09 be b4 6b e1 bd 52 0c cf bc dc b4 23 bb
       -0.13398099 -0.11006871 -0.02527443 -0.0024979627
000140 00 28 ab bd 2f 4c 09 bd 44 89 00 bc 84 60 13 be
       -0.08357239 -0.03351992 -0.007845227 -0.14392287
000150 b6 0e 51 bd 01 8b 5c bd c2 b5 bf bc 08 98 16 bd
       -0.05103942 -0.053843502 -0.023402099 -0.036766082
000160 c5 71 44 bd 53 fd c0 bd 11 6d fd bd f7 10 90 bc
       -0.04796006 -0.09423318 -0.123743184 -0.017586214
000170 e1 d2 5d bd d1 9f f0 bc 7f 56 fb bd e1 ca 5f bc
       -0.054156188 -0.029373081 -0.12272357 -0.01365921
000180 e5 a6 98 bd 37 62 a2 bc 80 ff b7 bd aa e5 a1 bd
       -0.074537076 -0.019822223 -0.0898428 -0.07905133
000190 b5 6a cf 3c e0 45 81 bd e7 65 43 bd 58 68 dd bd
       0.025319437 -0.06312156 -0.047704604 -0.108109176
0001a0 0c af a3 bd d2 48 cc bd 35 92 a7 3b fe 0a e0 bc
       -0.07992372 -0.09974827 0.005113865 -0.027348991
0001b0 b4 7e 05 be 73 e6 fd bd 7d 28 ad bc a2 b9 8d bd
       -0.13036615 -0.1239747 -0.02113747 -0.06920172
0001c0 1a 49 0c 3c 86 f0 04 bd 60 be 2a ba 7d c4 63 bd
       0.008562351 -0.032455944 -0.00065133534 -0.055607308
0001d0 86 d3 47 bd 99 d2 ad bc 6c e2 d8 bb 28 b6 a7 bd
       -0.04878571 -0.021218585 -0.0066187885 -0.081890404
0001e0 2f c7 11 be da a2 dc bc b0 17 30 bc 88 68 7a bd
       -0.14236139 -0.026933122 -0.010747835 -0.061134845
0001f0 cc d2 0f be 29 db d7 bb 34 c7 4f ba 56 49 92 bd
       -0.14045256 -0.006587405 -0.0007926107 -0.07142894
000200 35 c8 e8 bd 60 13 5f bb b3 0b be bd 61 b8 67 bd
       -0.113663115 -0.0034038648 -0.09279575 -0.05657232
000210 49 9e 1a be 0d 63 e6 bd 09 f2 d3 bd 91 bd 0e be
       -0.15099443 -0.11249361 -0.10348899 -0.13939501
000220 cd 40 13 be 5b bc d2 bd 76 d7 0c be 99 6c a4 bd
       -0.14380188 -0.10289832 -0.13754067 -0.08028526
000230 90 a6 04 be d3 23 7d bd 1e 72 34 bd 59 1d e1 bd
       -0.12954164 -0.061801743 -0.044054143 -0.10991926
000240 16 09 12 bd d1 8a 75 bc 9b b8 bb bc 68 d0 00 be
       -0.035653196 -0.01498671 -0.022915175 -0.125795
000250 92 85 b8 bd 0f 1e a5 bd c9 9a 37 be 18 ea d7 bd
       -0.090098515 -0.08062374 -0.1793014 -0.10542697
000260 86 ea bc bc 63 31 07 be 7c 8a f3 bc 29 79 10 be
       -0.023061048 -0.13202433 -0.02972912 -0.14108719
000270 f3 dd 01 be 4e 0c 03 be 97 b5 cb bd c8 e5 2a bd
       -0.12682323 -0.12797663 -0.09946745 -0.041723043
000280 fe 4e 88 bd 97 d2 3c bd c5 92 c5 bc 2a 6a d8 bd
       -0.066556916 -0.04609927 -0.024117837 -0.10567124
000290 89 e6 2d be 9c 2e 0f be db 40 b9 bd 57 08 3a bd
       -0.16982473 -0.13982624 -0.09045573 -0.04541811
0002a0 aa 09 6c bd 62 f0 11 be 08 4c 13 bc d8 43 97 bd
       -0.057626404 -0.14251855 -0.008990295 -0.07385987
0002b0 21 ec c4 bc ec 16 5f bd 0f 80 be bd c9 ea 3a bd
       -0.024038376 -0.05446522 -0.09301769 -0.045634065
0002c0 76 cd 9a bd 68 2f 8a bb dc 30 4c 3c 8b fd 66 bc
       -0.0755872 -0.004217077 0.012462821 -0.014098535
0002d0 0d 72 80 bd 1c dd 6e bd e9 9d 1f bc b2 26 b4 bd
       -0.062717535 -0.058316335 -0.009742239 -0.08796443
0002e0 75 76 de bb e2 45 49 bd 22 06 ef bd 78 d1 78 bd
       -0.0067890235 -0.04913891 -0.116710916 -0.06074664
0002f0 87 50 06 be 57 3a fb bd 36 96 a0 bd 3a 03 10 bd
       -0.13116656 -0.12266987 -0.078411505 -0.035159327
000300 47 92 d5 bd f8 78 5d bd c5 60 01 be 1f b8 81 bd
       -0.10428291 -0.054070443 -0.12634571 -0.063339464
000310 e3 02 46 bd d3 72 98 bd c1 bc 8f 3b bc ac 93 3c
       -0.048342597 -0.07443776 0.004386515 0.018026702
000320 81 dc 0e be 06 4d fe bd ca 13 01 bd a8 40 06 bd
       -0.13951303 -0.12417035 -0.031513013 -0.032776505
000330 21 18 85 bd a9 ef 5c bc 68 3e 7a 3c 4f 0e b2 bd
       -0.06498743 -0.013484874 0.015273668 -0.086941354
000340 c0 b8 43 bd d7 8d bd bd 36 82 c7 bd 8c 3d be bd
       -0.047783613 -0.092555694 -0.09741633 -0.09289083
000350 f8 1d 47 bd d1 ca 04 be 5a b6 92 bc 13 ec 07 be
       -0.048612565 -0.12967993 -0.017909218 -0.13273649
000360 89 aa 05 be 68 c4 8d 3b fb 0d 35 3c f0 47 e8 3b
       -0.13053335 0.004326392 0.0110506965 0.0070886537
000370 2b b8 a5 bd 5e b1 96 3c 91 4c cd bd aa 44 14 bc
       -0.08091768 0.018395122 -0.100243695 -0.009049574
000380 cd 8f c7 bd ff a6 a8 bd 29 cc f7 bd 32 c2 a6 bd
       -0.09744225 -0.08234977 -0.12099487 -0.081425086
000390 36 20 df bd e8 97 8f bd c7 4a 4f bd 5c a8 04 be
       -0.108948156 -0.07011396 -0.050608423 -0.12954849
0003a0 2d 54 f0 bd 0a 6e 20 ba 99 5e cc bd 61 65 fd bd
       -0.11734805 -0.0006119913 -0.099789806 -0.12372852
0003b0 4b 0a 2b be 9f a8 e1 bd b2 04 bd bd 0f 7c 02 be
       -0.16703145 -0.1101849 -0.09229411 -0.12742637
0003c0 be 34 b6 bd 67 bb b9 bd 83 46 b6 bd 71 33 d1 bd
       -0.088967785 -0.09068947 -0.08900168 -0.1021489
0003d0 5f b0 66 bc a3 8b 44 bd 79 e2 04 be 53 cf ab bd
       -0.014080136 -0.04798473 -0.12977017 -0.08389153
0003e0 b2 68 a2 bd bc 7a 03 bd b7 58 84 bd 20 ff 92 bb
       -0.07930125 -0.03209947 -0.064622335 -0.0044859797
0003f0 cd 2b ed bd 95 9e af bc 12 fd 82 3c 4c e4 25 bd
       -0.1158062 -0.021437922 0.015989814 -0.040500924

conv_2.bias f4 [32]
000000 48 f2 c3 bd 14 29 97 bd 5e 72 e1 bc 6d 01 5e 3c
       -0.09567696 -0.07380882 -0.027520355 0.013550145
000010 d3 dc 93 ba b5 5e 24 be 16 ca c1 bc c5 4b 0f 3d
       -0.0011281021 -0.16051753 -0.023655932 0.03498437
000020 ca a1 03 be 59 11 d9 bd 1a a2 4d bd 9e cf a4 3c
       -0.12854686 -0.10599012 -0.05020342 0.02011853
000030 02 21 dd bd 46 ec 9a bd d7 40 f9 bd 72 c2 d4 bd
       -0.10797311 -0.07564597 -0.1217057 -0.1038865
000040 a5 40 a3 bd c8 25 b1 bd 5f f0 62 3d 95 cd d9 bd
       -0.07971314 -0.08649784 0.055405017 -0.10634915
000050 ed 90 c3 bd fd 14 13 3c 2c 32 d3 bd d3 27 5b bd
       -0.09549127 0.008977172 -0.10312304 -0.053504776
000060 90 f0 f3 bd 12 24 9a bb c1 d6 e5 bd ac 47 cd bd
       -0.11911118 -0.004704007 -0.11222602 -0.10023436
000070 1c d6 f6 bd 61 50 0a be 59 2e 83 bd bd b5 a7 bb
       -0.12052557 -0.13507225 -0.064053245 -0.0051181004

fully_connect1.weight f4 [10, 5408]
000000 6f fb 62 bd 3a 96 15 bd 7a f7 00 bd cd bf 3d 3d
       -0.055415567 -0.03652022 -0.031486012 0.046325494
000010 e7 c3 1d 3d a9 7a 5f 3d 7d c2 ff bc ea 86 91 3b
       0.038516905 0.054560337 -0.031220669 0.004441132
000020 53 8b 6f 3d 54 e2 90 3d fb 8f 5b 3d d3 6c 21 3d
       0.05848248 0.07074419 0.053604107 0.039410423
000030 79 fa 59 3d ec 94 ac bc c7 4f c3 bc 20 52 79 3d
       0.053217385 -0.021067105 -0.023841752 0.060869336
000040 fa 1a 5b 3d 62 36 84 3d 91 97 25 3d 64 27 47 3c
       0.053492524 0.06455685 0.040427748 0.012155388
000050 e0 d6 92 3d ff 9b 9f 3c 72 4a 98 3d 2a c7 12 bc
       0.071698904 0.019483564 0.07436074 -0.008958617
000060 47 a0 d5 3c e0 96 84 3c 4b b1 f8 3c 80 4b 9b bc
       0.026077403 0.016185224 0.030357977 -0.0189569
000070 d8 44 61 3d f1 c8 6f 3d cb 47 29 3d 66 72 7c 3d
       0.054997295 0.058541242 0.041328233 0.061632536
000080 70 5a 84 bc 07 c0 df bb 8b 0c 19 3d 0a 90 9b 3d
       -0.016156405 -0.0068283114 0.037365478 0.07595833
000090 d7 84 a2 3d 8d e6 89 3d 9a 1b 50 3d a9 73 92 3d
       0.079354934 0.06733427 0.050807573 0.07150967
0000a0 de de 89 3d c9 0a b3 3d 48 5c 8f 3d df 02 65 3c
       0.06731962 0.087422915 0.07000023 0.013977735
0000b0 ae fc 0c bc 4d 96 62 bd 3e 7f c8 bd 06 dd 88 3d
       -0.008605165 -0.05531912 -0.097898945 0.06682782
0000c0 eb 0c 8d 3d 69 ff 62 bd df ee 89 3d 23 39 9d 3c
       0.068872295 -0.05541936 0.06735014 0.019192284
0000d0 bc d5 8f 3d 32 d0 9a 3d 4c 64 8d 3d 5b 08 3c 3d
       0.070231885 0.07559241 0.06903896 0.045906406
0000e0 3c eb 84 3d 7b 4e 3c 3d 4c ed 0b bd c2 5e 67 3d
       0.0649018 0.045973282 -0.03416185 0.056486852
0000f0 aa 2f 9e 3d bc ba 8d bd e8 a8 8f bd fe 08 52 3d
       0.07723935 -0.069203824 -0.07014638 0.051278107
000100 f1 14 95 3d a2 c0 67 3d 37 64 a9 3d da 7b 78 3d
       0.07279385 0.056580193 0.082710676 0.06066499
000110 45 27 bb b9 70 b1 2a 3d 47 32 69 3d 28 9a 9c 3d
       -0.00035696678 0.041673124 0.056932714 0.076465905
000120 30 90 b4 3d 62 b7 ab 3d 1e 7b 9a 3d b5 cf aa bd
       0.08816564 0.08384587 0.07543014 -0.08340398
000130 3a de 34 bd 65 d0 e0 3b 7c 04 49 3d 91 73 7f 3d
       -0.044157244 0.00686078 0.049076542 0.062366072
000140 e0 15 54 3d 50 75 2e 3c b5 f2 a6 3d 92 a1 bc 3d
       0.051778674 0.010648087 0.081517614 0.092105046
000150 49 a0 aa 3d c0 a4 26 3d ed 84 86 3d e3 2f d8 3b
       0.08331353 0.04068446 0.06568322 0.0065975054
000160 85 1e 08 bd 71 e3 47 bd c3 df ba bb 92 be 1a bd
       -0.03323223 -0.04880089 -0.005702944 -0.0377794
000170 08 46 ff ba 7c 3f 69 3d 75 41 c1 bb d3 d6 dd 3c
       -0.0019475827 0.05694531 -0.0058976957 0.027079975
000180 f9 56 31 3d 5d 1a 95 3d c7 4d 08 3d 63 ba 32 bb
       0.043295834 0.07280419 0.0332773 -0.002727174
000190 9f dd da bb f4 aa ab bd b1 7b bd bc b3 39 a0 3d
       -0.0066792513 -0.08382216 -0.02313027 0.07823505
0001a0 a0 85 65 bc ea 1f c0 3d 15 2b a9 3d ea 93 0b bd
       -0.014008909 0.09381087 0.0826017 -0.03407661
0001b0 06 38 8d bc 89 43 84 3d 7e 15 a5 bd ef 58 ce bd
       -0.017238628 0.06458194 -0.0806074 -0.100755565
0001c0 6d 8f 96 bc 00 4c 2a bd b1 fe b7 bd 6f 2e a4 bd
       -0.018378938 -0.041576385 -0.089841254 -0.08016669
0001d0 85 ec db 38 54 0e fd bc 6a c0 9f 3d 26 63 a7 3a
       0.00010486789 -0.030890621 0.07800372 0.0012770637
0001e0 e2 ee b7 bd 8a 7b 2f bc 76 b0 8b bd dc 55 94 bd
       -0.0898111 -0.010710606 -0.06820767 -0.07242939
0001f0 28 ed c7 bd d1 45 36 bd 65 ef bf 3d 83 62 5b bd
       -0.09762031 -0.044500176 0.09371833 -0.053560745
000200 3c f0 b7 3d e7 b9 d1 bc b5 21 c9 bc 64 35 5f bc
       0.08981368 -0.02560134 -0.024552206 -0.013623569
000210 d5 52 00 bd 43 d6 1a bc 2a 89 54 bd c6 42 0f bd
       -0.031328995 -0.009450498 -0.051888622 -0.03497579
000220 76 70 81 bd eb 68 81 bd ca 2f d8 bb da 8c 98 3d
       -0.06320278 -0.0631884 -0.006597494 0.0744874
000230 d7 53 67 3d a1 1c a2 bc d0 d7 9e bd 8c 70 f5 bc
       0.05647644 -0.019789042 -0.07756007 -0.029960893
000240 cf 38 5a bd 23 d7 f3 bc e9 75 b2 bc 67 86 40 bd
       -0.053276833 -0.029765671 -0.02178474 -0.047003176
000250 dd 93 1a bd 25 eb 1a bd 30 84 d6 bc 8d fc b3 3d
       -0.03773867 -0.037821908 -0.026186079 0.087884046
000260 fd da e6 3c 70 83 b5 bc 35 97 b2 bd c1 76 17 bd
       0.028180594 -0.0221574 -0.08720247 -0.036978487
000270 60 b3 5b bd 3a 0d 4b bd c7 4f ae bc 3e b7 71 bc
       -0.053637862 -0.04957316 -0.021278275 -0.014753161
000280 3f 08 04 bc 31 28 5b bd 8d d7 6d bd 19 9d 04 bd
       -0.008058607 -0.053505126 -0.058066893 -0.032376382
000290 85 40 9b 3d 1f d2 b5 3c 7c 76 2c bd d8 e4 35 bd
       0.075806655 0.02219492 -0.042105183 -0.044407696
0002a0 1d a8 3d bd a3 8b 56 3d 11 73 0b 3d e6 65 05 3d
       -0.046302903 0.05237926 0.034045283 0.03256788
0002b0 a7 a7 80 3d cb 68 7e 3d 06 9b 0e 3d 7f 6f 14 3d
       0.06281977 0.062111657 0.03481581 0.036239143
0002c0 35 1f 98 3d b0 c0 77 3d 9f a2 36 3d 2a d0 94 3d
       0.07427827 0.060486495 0.04458868 0.07266267
0002d0 86 44 49 3d 35 ce 25 3d e4 2c 5d 3d 12 6e 20 3d
       0.049137615 0.040479857 0.05399789 0.03916747
0002e0 88 e4 73 3d f3 86 89 3d 6a 5c 76 3d 20 54 54 3d
       0.059544116 0.06715193 0.060146727 0.05183804
0002f0 62 61 92 3d ce a0 8c 3d 3a 0e 71 3d fe 9f ab 3d
       0.071474805 0.068666086 0.058851458 0.083801255
000300 5b 40 0d 3d 3d da 78 3d 82 ee 84 3d b8 32 7f 3d
       0.034485202 0.060755003 0.06490804 0.06230423
000310 2d 54 5a 3d b3 42 96 3d 4a c5 8e 3d 05 31 7d 3d
       0.053302933 0.073369406 0.06971224 0.061814327
000320 0e fe 82 3d 0c e7 5b 3d dc da 23 3d 8f d6 92 3d
       0.06396113 0.05368714 0.040003642 0.0716983
000330 60 f4 92 3d fc 8e 71 3d 7d e8 4d 3d 7d c4 f9 3c
       0.07175517 0.05897425 0.050270546 0.0304892
000340 cf cb 91 3d 8f 1d 70 3d 0e fe 64 3d 6d b8 b5 3d
       0.071189515 0.05862194 0.055906348 0.08873067
000350 14 4f a3 3d aa 66 95 3d ef 5e 0f 3d 65 26 83 3d
       0.07974067 0.07294972 0.035002645 0.064038076
000360 8a 0e a5 3d 0c b9 6e 3d 5d 1a 81 3d 73 e0 68 3d
       0.08059414 0.058281943 0.063038565 0.056854676
000370 f8 b6 74 3d ad db 78 3d 7f 9a 9b 3d 42 4a 8b 3d
       0.059744805 0.060756374 0.07597827 0.06801273
000380 d2 7d 9e 3d 70 c0 a8 3d 6a 2a 18 3d 80 6d 9d 3d
       0.07738842 0.082398295 0.037149824 0.07686901
000390 e6 c5 b1 3d 5e 24 83 3d 9e 2c 53 3d 6d 0e 82 3d
       0.08680324 0.06403421 0.051556222 0.06350408
0003a0 d5 a7 67 3d 6e e4 46 3d 34 a8 9a 3d a5 22 91 3d
       0.05655654 0.04855769 0.075516135 0.07086686
0003b0 29 70 b1 3d a6 85 81 3d 8c 2c 75 3d ad fe 20 3d
       0.08663971 0.063243195 0.059856936 0.039305378
0003c0 05 8f 90 3d 32 6e 9f 3d 43 ae 91 3d cb 66 33 3d
       0.07058529 0.0778469 0.07113316 0.043799203
0003d0 2b 0c 1e 3d 4f e9 3f 3d 04 a7 6d 3d 1d 47 0e 3d
       0.038585823 0.04685336 0.058020607 0.034735788
0003e0 15 da a0 3d 96 aa 94 3d 0c e8 b4 3d 1e 97 83 3d
       0.07854096 0.07259099 0.08833322 0.06425308
0003f0 95 50 92 3d b5 4e 91 3d 84 b6 65 3d 20 4f 63 3d
       0.07144276 0.0709509 0.056082264 0.05549538

fully_connect1.bias f4 [10]
000000 40 75 0a 3f 6b 11 03 3f 45 a3 0a 3f 52 a1 1a 3f
       0.5408516 0.5119845 0.5415538 0.60402405
000010 0e 70 8a be 83 b2 39 3f 6e f8 34 be 01 bc c9 bd
       -0.27038616 0.7253801 -0.17672893 -0.09850312
000020 da 31 7c be 50 49 ce bd
       -0.24628392 -0.10072577

fully_connect2.weight f4 [1, 10]
000000 10 e7 d3 bd 31 3b 03 be bb 72 27 be b2 32 86 be
       -0.10346806 -0.12815548 -0.1635236 -0.26210552
000010 d1 e8 af 3d 23 b3 1b be a9 46 ad 3d da 57 c5 3d
       0.08589328 -0.15205054 0.08460743 0.09635897
000020 dc 04 39 3e a7 aa 77 3e
       0.1806826 0.24186192
