bs48_lr0.1_weight.pt (torch, 240056 bytes, 7 tensors)

conv_1.weight f4 [16, 3, 3, 3]
0.6479835 -0.7208944 -0.79123026 0.5656471 0.7397119 0.5696691 -0.49830103 -0.6919983
-0.6522636 0.56514394 0.6823657 0.4779664 0.52214277 0.4564833 0.6239343 0.5142767
0.73640925 0.7437339 0.53962815 0.7352817 0.68319196 0.4335405 0.42732447 0.4108863
0.58993965 0.4755205 0.7528585 0.616825 0.4984824 -0.7190793 0.55648273 0.66292197
0.7591505 0.54048324 0.49209863 0.41811907 0.4806865 0.6684552 0.76971 0.46156377
0.7486331 0.51831526 0.72897166 0.66347265 0.54897356 0.6871358 -0.61047 -0.5002242
0.53021353 -0.78079134 -0.77174073 0.5439053 -0.5611051 -0.41967368 -0.41286045 0.743656
0.6898615 -0.68469065 0.4844201 -0.56617886 -0.61365575 -0.4579951 0.43516377 -0.64837563
-0.5127159 -0.5742619 -0.72974205 -0.47702903 -0.44641298 -0.71352625 -0.75063914 -0.57688767
0.42334017 0.5391141 0.5149254 0.7415365 0.7317111 0.4479105 0.69274384 0.60813
0.75789857 0.65224665 0.53917044 0.5141414 -0.4287281 0.5030174 0.4404459 -0.5744686
0.7695356 0.5260342 0.5561169 0.6693232 0.77500755 -0.5793533 -0.7046661 0.6422902
-0.5372597 -0.57183206 0.6470723 0.49166024 0.48441294 0.58037376 -0.47872007 -0.5967341
0.59912163 -0.73502356 -0.6610728 -0.51415056 0.44696504 0.6642763 0.7525108 0.46177152
0.7438396 0.47478253 0.6504665 0.41340077 0.4724437 -0.49989194 -0.5661374 -0.7242666
-0.6539194 -0.76701975 -0.68628937 -0.40882304 -0.4802116 -0.43136024 0.7494342 -0.40865698
-0.5322017 -0.4717601 0.64575833 0.57901955 -0.43893436 0.4367308 0.42507818 0.47044885
0.45207113 0.6395524 0.6451199 0.49322948 0.6168474 0.6206427 0.70861804 0.5967406
0.70529944 0.6134212 0.41874617 0.76383966 0.6559688 -0.69190645 0.47053015 0.71022356
-0.5842587 0.6165341 0.7429281 0.5508195 0.60459995 0.7579935 0.74271905 0.50373983
0.633681 0.47260922 0.6393361 0.5503002 0.73536736 0.5600698 0.5125229 0.65222657
0.687431 0.6909104 0.50287956 -0.5394026 -0.47806212 -0.5135052 -0.5963021 0.46957105
-0.52790993 0.68371147 0.78339624 0.4638337 0.6300721 0.7299564 0.4328019 0.59497154
0.50252825 0.53390086 0.74977785 0.6934904 0.57310283 -0.669088 -0.46420157 -0.63778174
-0.4132342 -0.598701 0.7788952 0.7202015 0.472617 0.5638397 0.59736836 0.565058
0.41274336 0.7529666 0.43967995 0.77396953 0.67062765 0.7797983 0.5842462 -0.73695225
-0.5762613 -0.49864158 -0.58462584 -0.47822362 0.65736246 0.51656294 0.5366875 0.50615704
0.7851448 0.5662992 0.6986092 0.41881588 0.571489 0.7708667 0.66008013 0.51455
0.76399094 -0.59767294 -0.5227651 -0.5048811 -0.48857096 -0.4603536 -0.696685 0.7800127
0.6758316 -0.7775201 -0.6800606 -0.5953232 -0.6954821 -0.71542925 -0.6436113 -0.53329754
-0.6354618 -0.5004178 -0.50544935 -0.7086371 -0.71621954 -0.546496 -0.5051358 -0.49929354
-0.6116714 -0.6882355 -0.4963721 -0.65919393 -0.67230123 -0.72193354 -0.7534089 -0.49312952
00000000: 3fe2 253f 898c 38bf 118e 4abf 40ce 103f
00000010: c25d 3d3f d6d5 113f 5021 ffbe cd26 31bf
00000020: bffa 26bf 46ad 103f 85af 2e3f 03b8 f43e
00000030: 26ab 053f 2eb8 e93e 29ba 1f3f a3a7 033f
00000040: 5185 3c3f 5865 3e3f 1225 0a3f 6c3b 3c3f
00000050: abe5 2e3f 05f9 dd3e 46ca da3e b05f d23e
00000060: 4906 173f 6c77 f33e 56bb 403f 3ee8 1d3f
00000070: 1639 ff3e 9515 38bf a775 0e3f 41b5 293f
00000080: b057 423f 1c5d 0a3f 5af4 fb3e b413 d63e
00000090: 8a1c f63e e11f 2b3f b70b 453f 1652 ec3e
000000a0: 6ba6 3f3f 4fb0 043f e39d 3a3f 58d9 293f
000000b0: 8889 0c3f 22e8 2f3f c347 1cbf b10e 00bf
000000c0: 13bc 073f f1e1 47bf cd90 45bf 613d 0b3f
000000d0: 95a4 0fbf 78df d6be 7262 d3be 3d60 3e3f
000000e0: c39a 303f e347 2fbf e905 f83e 19f1 10bf
000000f0: 8b18 1dbf 557e eabe c9cd de3e f2fb 25bf
00000100: 5941 03bf d402 13bf 60d0 3abf 263d f4be
00000110: 3e90 e4be a8a9 36bf e329 40bf e9ae 13bf
00000120: 0bc0 d83e 6203 0a3f 27d2 033f 56d5 3d3f
00000130: 6b51 3b3f 8654 e53e a957 313f 68ae 1b3f
00000140: a405 423f a3f9 263f 1307 0a3f c59e 033f
00000150: 4082 dbbe c0c5 003f 2082 e13e 6010 13bf
00000160: 4900 453f 2daa 063f ad5d 0e3f c458 2b3f
00000170: e566 463f 7f50 14bf ff64 34bf 216d 243f
00000180: da89 09bf 9663 12bf 88a6 253f e4ba fb3e
00000190: f904 f83e 6093 143f cc1a f5be 91c3 18bf
000001a0: 0960 193f 812a 3cbf 113c 29bf 5f9f 03bf
000001b0: 9ad8 e43e 030e 2a3f 8ca4 403f 516d ec3e
000001c0: 466c 3e3f b216 f33e f984 263f 44a9 d33e
000001d0: 24e4 f13e d6f1 ffbe 61ee 10bf 8969 39bf
000001e0: 4367 27bf 685b 44bf a9b0 2fbf 4151 d1be
000001f0: 4bde f5be 40db dcbe ebda 3f3f 7d3b d1be
00000200: 5f3e 08bf 8a8a f1be 6b50 253f a03a 143f
00000210: 01bc e0be 2e9b df3e d9a3 d93e acde f03e
00000220: de75 e73e b5b9 233f 9426 253f 9388 fc3e
00000230: b6e9 1d3f 71e2 1e3f fe67 353f fec3 183f
00000240: 818e 343f 2c09 1d3f e665 d63e ff8a 433f
00000250: 92ed 273f c820 31bf 54e9 f03e 36d1 353f
00000260: fa91 15bf 2ed5 1d3f 8930 3e3f 8202 0d3f
00000270: 10c7 1a3f dd0b 423f d622 3e3f 18f5 003f
00000280: eb38 223f d6f9 f13e 88ab 233f 79e0 0c3f
00000290: 0941 3c3f bc60 0f3f b334 033f 52f8 263f
000002a0: 7afb 2f3f 81df 303f b7bc 003f 4a16 0abf
000002b0: 8fc4 f4be 1475 03bf 41a7 18bf 9e6b f03e
000002c0: 1b25 07bf b707 2f3f a88c 483f 9c7b ed3e
000002d0: 684c 213f 6cde 3a3f 3698 dd3e 0e50 183f
000002e0: b1a5 003f baad 083f 71f1 3f3f 9688 313f
000002f0: deb6 123f 5a49 2bbf d4ab edbe aa45 23bf
00000300: 6f93 d3be 7844 19bf ad65 473f 205f 383f
00000310: dbfa f13e cc57 103f 22ed 183f a4a7 103f
00000320: 1953 d33e 6bc2 403f bb1d e13e de22 463f
00000330: 41ae 2b3f dda0 473f 2991 153f e7a8 3cbf
00000340: dc85 13bf f34d ffbe 0aaa 15bf bad9 f4be
00000350: e848 283f 783d 043f 5a64 093f 8293 013f
00000360: 40ff 483f fcf8 103f 0dd8 323f 096f d63e
00000370: 1a4d 123f 8557 453f 03fb 283f 8cb9 033f
00000380: e994 433f 1801 19bf efd3 05bf e33f 01bf
00000390: f925 fabe 78b3 ebbe f359 32bf eaae 473f
000003a0: 4d03 2d3f 8f0b 47bf 7418 2ebf 1a67 18bf
000003b0: 1d0b 32bf 5f26 37bf b6c3 24bf 3086 08bf
000003c0: a0ad 22bf 621b 00bf 2165 01bf 3e69 35bf
000003d0: 2a5a 37bf 29e7 0bbf 9450 01bf 67a3 ffbe
000003e0: 7f96 1cbf 3430 30bf 7c24 febe efc0 28bf
000003f0: ef1b 2cbf a3d0 38bf 68df 40bf 797b fcbe

conv_1.bias f4 [16]
-0.4876061 -0.48048586 -0.6711369 -0.75216454 -0.60396415 0.6070653 0.77852577 0.7169076
0.64197636 0.6523889 0.74332 0.5886218 -0.55025446 -0.5150186 0.42408907 0.68207633
00000000: 82a7 f9be 3e02 f6be a1cf 2bbf db8d 40bf
00000010: 659d 1abf a268 1b3f 774d 473f 4287 373f
00000020: 9058 243f f502 273f 384a 3e3f ebaf 163f
00000030: 7add 0cbf 42d8 03bf 3422 d93e 8e9c 2e3f

conv_2.weight f4 [32, 16, 3, 3]
0.5452551 0.5775424 0.66413915 0.6090661 0.55142343 0.6668418 0.60129195 0.625693
0.6521993 0.618595 0.558563 0.52282614 0.63618356 0.6238056 0.6405574 0.6481771
0.6027505 0.62052035 -0.6148259 0.52432054 -0.60894513 -0.62682676 0.6814151 0.57458735
0.6728713 0.52085656 -0.61265945 -0.58468354 -0.61185217 -0.55678535 -0.6445281 -0.5631111
-0.55480003 -0.6698917 -0.53418183 -0.6097907 0.5464423 0.6507234 0.59363765 0.6459885
0.5461038 0.6244645 0.64308804 0.55760974 0.6717828 0.6124031 0.6481894 0.66319907
0.65714246 0.6398443 -0.67247874 0.5515612 0.6593915 0.638292 0.66732603 0.6490376
0.65966564 0.6533444 0.55323714 0.5540494 0.554916 0.5389917 -0.6526204 0.54555523
0.61388654 0.56551665 0.5351916 0.6101207 -0.6374115 0.6047999 0.61546206 0.52528155
0.6655663 0.6287619 0.68243986 0.5414012 0.6657203 0.5320522 0.5472839 0.59386563
-0.67828166 0.6446953 0.57412547 0.58321863 0.61140573 0.6273823 0.5250281 0.52187854
0.6722193 0.6469586 -0.59785557 -0.66471475 0.5939624 0.60643864 0.5403051 0.56473035
-0.56281334 -0.5965095 -0.67411935 -0.5798155 0.6212372 0.63372314 -0.65336436 0.52971524
0.52079415 0.5358923 0.57792413 0.6588057 0.6593912 0.5445081 0.6375234 0.5334292
0.61035764 0.65430015 0.52579266 0.62951833 0.6510965 0.57986 0.6150099 0.58467674
0.584555 0.5627108 0.5651607 0.56201446 0.66708595 0.5896715 -0.5762425 0.54228497
0.59094155 -0.58321494 0.5309214 -0.58018976 0.6206874 0.54399854 0.6469625 -0.6248251
0.6361934 0.52705795 0.63288033 0.5459377 0.5617729 0.60543406 0.54764265 0.64950484
0.66500884 -0.53339505 -0.68291754 -0.525912 -0.5484207 0.6536646 0.54517454 -0.563149
0.642582 -0.6511533 -0.61902434 -0.6618133 0.6566104 0.65362984 -0.59213877 0.535931
-0.5414702 0.56310815 0.62283826 0.63600117 0.6373604 0.64207923 0.56771004 0.6684392
0.6487784 0.6623039 0.61173683 -0.55489004 -0.68258816 -0.5961579 -0.5726144 -0.5738015
-0.6296028 -0.6165076 -0.6485957 0.56372774 0.5597643 0.6699015 0.56738883 0.62372136
0.67852455 0.54968214 -0.6729646 0.52690506 0.557449 0.6704504 0.6350598 0.5811706
0.6474682 0.6609332 0.64845383 0.65901506 0.6499792 -0.66919243 0.6390321 0.6311525
0.62285125 0.58179384 0.5666586 0.55540884 0.6695458 0.62180245 0.63403213 0.59705275
0.54859847 0.567065 -0.575573 0.536213 0.68301755 0.5295208 0.5686492 0.6736594
0.57439256 0.6608594 0.6534378 0.61409307 0.6362065 0.5187898 0.54077655 0.54406464
0.6168016 0.5870126 -0.58536005 -0.6750553 -0.57072026 -0.62837005 -0.61071646 -0.59313685
-0.6071731 -0.59529227 0.6790589 0.643052 0.5286715 -0.5669907 -0.5992206 -0.5342688
0.5207158 -0.6170444 -0.58302397 -0.6437828 -0.5579219 -0.6758428 -0.5325271 -0.6461405
-0.53370726 -0.56248266 -0.58398575 -0.5860211 0.6499796 0.67802614 -0.549563 0.63090676
00000000: d795 0b3f d2d9 133f 0605 2a3f c2eb 1b3f
00000010: 162a 0d3f 25b6 2a3f 45ee 193f 6b2d 203f
00000020: 89f6 263f 3e5c 1e3f fcfd 0e3f efd7 053f
00000030: eddc 223f b9b1 1f3f 92fb 233f efee 253f
00000040: db4d 1a3f 6cda 1e3f 3b65 1dbf df39 063f
00000050: d4e3 1bbf b877 20bf 3871 2e3f 2818 133f
00000060: 4b41 2c3f db56 053f 40d7 1cbf d2ad 15bf
00000070: 58a2 1cbf 7c89 0ebf cbff 24bf 0d28 10bf
00000080: 6007 0ebf 067e 2bbf 24c0 08bf 3e1b 1cbf
00000090: a4e3 0b3f cf95 263f a3f8 173f 815f 253f
000000a0: 75cd 0b3f e8dc 1f3f 6ba1 243f 83bf 0e3f
000000b0: f5f9 2b3f 73c6 1c3f beef 253f 6ac7 293f
000000c0: 7d3a 283f d6cc 233f 9127 2cbf 1d33 0d3f
000000d0: e2cd 283f 1b67 233f e1d5 2a3f 5427 263f
000000e0: d9df 283f 9441 273f f3a0 0d3f 2ed6 0d3f
000000f0: fa0e 0e3f 5cfb 093f 2112 27bf 82a9 0b3f
00000100: ab27 1d3f b3c5 103f 5102 093f df30 1c3f
00000110: 662d 23bf 2bd4 1a3f ec8e 1d3f da78 063f
00000120: 8e62 2a3f 8af6 203f 61b4 2e3f 4599 0a3f
00000130: a56c 2a3f 9334 083f cc1a 0c3f 9407 183f
00000140: dea3 2dbf c00a 253f e3f9 123f d14d 153f
00000150: 1685 1c3f 209c 203f 3e68 063f d599 053f
00000160: 9016 2c3f 149f 253f 100d 19bf bf2a 2abf
00000170: eb0d 183f 903f 1b3f 6f51 0a3f 2b92 103f
00000180: 8914 10bf d9b4 18bf 1693 2cbf ca6e 14bf
00000190: 6709 1f3f ae3b 223f e342 27bf 6b9b 073f
000001a0: c452 053f 3d30 093f d6f2 133f 7ea7 283f
000001b0: ddcd 283f e264 0b3f bc34 233f d18e 083f
000001c0: 6640 1c3f 3780 273f 599a 063f 1d28 213f
000001d0: 43ae 263f b471 143f 4a71 1d3f 60ad 153f
000001e0: 65a5 153f d10d 103f 5fae 103f 2ee0 0f3f
000001f0: 25c6 2a3f b6f4 163f a184 13bf 30d3 0a3f
00000200: f247 173f 934d 15bf 77ea 073f 5187 14bf
00000210: 5fe5 1e3f 7d43 0b3f 569f 253f 8af4 1fbf
00000220: 92dd 223f 45ed 063f 7204 223f 93c2 0b3f
00000230: 59d0 0f3f bafd 1a3f 4f32 0c3f f345 263f
00000240: 053e 2a3f 948c 08bf afd3 2ebf 2ba2 06bf
00000250: 4d65 0cbf 9056 273f 8f90 0b3f 882a 10bf
00000260: 4180 243f fcb1 26bf 6178 1ebf 996c 29bf
00000270: 9f17 283f 4954 273f 6896 17bf c632 093f
00000280: cb9d 0abf db27 103f 5472 1f3f f9d0 223f
00000290: 0d2a 233f 4e5f 243f 7255 113f d51e 2b3f
000002a0: 5716 263f c08c 293f c99a 1c3f 460d 0ebf
000002b0: 19be 2ebf ce9d 18bf db96 12bf a8e4 12bf
000002c0: a62d 21bf 71d3 1dbf 5e0a 26bf 7650 103f
000002d0: b74c 0f3f aa7e 2b3f 6540 113f 34ac 1f3f
000002e0: c9b3 2d3f f8b7 0c3f 6847 2cbf 40e3 063f
000002f0: fab4 0e3f a3a2 2b3f 4793 223f 99c7 143f
00000300: 7ac0 253f eb32 293f 1201 263f 36b5 283f
00000310: 0965 263f 3250 2bbf 9c97 233f 3693 213f
00000320: 2e73 1f3f 71f0 143f 8a10 113f 462f 0e3f
00000330: 5b67 2b3f 722e 1f3f ee4f 223f 73d8 183f
00000340: f370 0c3f 2c2b 113f c158 13bf 4145 093f
00000350: 3dda 2e3f ad8e 073f fe92 113f f174 2c3f
00000360: 640b 133f 152e 293f b347 273f 3435 1d3f
00000370: 6ede 223f 69cf 043f 5570 0a3f d247 0b3f
00000380: b6e6 1d3f 7546 163f 28da 15bf 6dd0 2cbf
00000390: b91a 12bf dcdc 20bf ea57 1cbf d1d7 17bf
000003a0: b26f 1bbf 1365 18bf ced6 2d3f 0e9f 243f
000003b0: 0457 073f 4d26 11bf 8566 19bf d7c5 08bf
000003c0: a14d 053f 9ff6 1dbf 0f41 15bf f3ce 24bf
000003d0: f8d3 0ebf 0904 2dbf b253 08bf 7769 25bf
000003e0: 0aa1 08bf ddfe 0fbf 1780 15bf 7b05 16bf
000003f0: 1065 263f 1f93 2d3f 29b0 0cbf 1b83 213f

conv_2.bias f4 [32]
0.6735301 0.6310664 0.5716869 -0.60412544 -0.52651596 0.5706641 -0.6838567 0.6665369
-0.5307288 -0.56563133 0.58854777 -0.54869646 -0.67959493 -0.57478297 -0.6275403 0.64963824
0.54014254 -0.5470434 0.60071164 -0.57805747 0.64785916 -0.59291655 -0.55655426 0.6530448
-0.59311074 0.5481607 -0.61556965 -0.6006932 -0.58901477 -0.5878637 0.5936454 0.60395396
00000000: 786c 2c3f 918d 213f 135a 123f f7a7 1abf
00000010: c0c9 06bf 0b17 123f 3c11 2fbf 2aa2 2a3f
00000020: d8dd 07bf 37cd 10bf 11ab 163f 5f77 0cbf
00000030: eff9 2dbf fa24 13bf 7ba6 20bf b14e 263f
00000040: c846 0a3f 090b 0cbf 3dc8 193f 93fb 13bf
00000050: 19da 253f 61c9 17bf 577a 0ebf f22d 273f
00000060: 1bd6 17bf 4254 0c3f f995 1dbf 08c7 19bf
00000070: acc9 16bf 3c7e 16bf 25f9 173f ba9c 1a3f

fully_connect1.weight f4 [10, 5408]
-0.60368186 -0.58803415 -0.5996367 -0.60441875 -0.59658575 -0.604342 -0.61072075 -0.5950779
-0.5900116 -0.5942609 -0.5955561 -0.60338795 -0.60945857 -0.59270954 -0.60001326 -0.5955543
-0.5996278 -0.6130551 -0.61304444 -0.6050895 -0.61258256 -0.58740926 -0.6112753 -0.5982015
-0.5912887 -0.5961112 -0.59364545 -0.606453 -0.6010389 -0.5983677 -0.59490985 -0.5937942
-0.5977316 -0.5928735 -0.6130027 -0.61063135 -0.59795845 -0.6101377 -0.5980342 -0.6035605
-0.594749 -0.61248934 -0.60808325 -0.59071636 -0.59439546 -0.5991139 -0.6045767 -0.5980774
-0.59973824 -0.6096928 -0.61217296 -0.5960548 -0.60847384 -0.59114647 -0.59893215 -0.60405725
-0.6105428 -0.6005094 -0.5931512 -0.5987279 -0.58862203 -0.6087373 -0.5993236 -0.59177154
-0.5916943 -0.61161464 0.60551435 -0.6127337 0.6043351 -0.60109746 -0.60223794 -0.59677184
-0.6093284 -0.58995014 -0.6123946 -0.600771 -0.6036289 -0.5877819 -0.5924445 0.5986424
0.59324205 0.6043192 0.5966894 -0.5926307 -0.59413904 -0.6100403 -0.6021597 -0.5911032
-0.61267763 -0.6034654 -0.5976883 -0.5924522 -0.5950188 -0.5915197 -0.5958864 -0.6038502
-0.59455997 -0.6060981 -0.6034253 -0.60582906 -0.60414916 -0.5878462 -0.6013919 -0.60618407
-0.5873987 -0.6077275 -0.60713446 -0.6098046 -0.604648 -0.59065694 -0.59381115 -0.6027687
-0.6113175 -0.5885082 -0.59262234 -0.595333 -0.6043845 -0.5985465 -0.6005627 -0.593011
-0.61102885 -0.59985447 -0.60354817 -0.6044598 -0.60297316 -0.5900943 -0.6120961 -0.598212
-0.61306375 -0.6123719 -0.6133641 -0.609064 -0.590723 -0.59818685 -0.5973773 -0.59219855
-0.610116 -0.58815247 -0.5875858 -0.61204094 -0.6012985 -0.5930765 -0.59631586 -0.60185033
-0.6042659 -0.6047785 -0.61229473 -0.59937364 -0.61267227 -0.6044363 -0.60725564 -0.59719104
-0.6127741 -0.61246055 -0.5952257 -0.6052834 -0.6032809 -0.5957283 -0.61110085 -0.59953266
-0.60824484 -0.598446 -0.59869313 -0.5883275 -0.5892061 -0.59715784 -0.5982667 -0.6112796
-0.6036055 -0.5900048 -0.6072484 -0.5896596 -0.60190153 -0.59924173 0.6123918 -0.59367204
-0.5962371 -0.59589005 -0.5955974 -0.6100655 -0.60343456 -0.6107912 -0.6134503 -0.5943693
-0.6099063 -0.5955008 0.59476334 0.60593057 -0.60899025 -0.6129685 -0.58847404 -0.5947374
-0.59246707 -0.6091314 -0.59387237 -0.606231 -0.59486884 -0.60254997 -0.6124597 0.59250444
0.5980311 -0.6098476 -0.59167147 0.60196793 0.6014003 -0.5888562 -0.61147356 -0.58947563
-0.6056578 -0.6068394 -0.5891201 -0.6043492 -0.60593355 -0.61246884 -0.59670556 -0.5945433
-0.610203 -0.5878191 -0.61067426 -0.6014427 -0.5996237 -0.6138243 -0.59480107 -0.5948303
-0.5945841 -0.6020623 -0.6120997 -0.6099834 -0.58955014 -0.6046833 -0.596669 -0.6088211
-0.5947427 -0.59662837 -0.5991186 -0.5880325 -0.59295857 -0.6079989 -0.5964576 -0.5895822
-0.5971261 -0.6092572 -0.612874 -0.59014106 -0.59740174 -0.60473806 -0.5969703 -0.6103886
-0.59318006 -0.5991491 -0.5922679 -0.5912264 -0.5926503 -0.6126408 -0.6043354 -0.60192466
00000000: e58a 1abf 6889 16bf ca81 19bf 30bb 1abf
00000010: d8b9 18bf 28b6 1abf 3258 1cbf 0657 18bf
00000020: 000b 17bf 7b21 18bf 5d76 18bf a277 1abf
00000030: 7a05 1cbf d0bb 17bf 789a 19bf 3f76 18bf
00000040: 3581 19bf 2ef1 1cbf 7bf0 1cbf 25e7 1abf
00000050: 36d2 1cbf 7460 16bf 8a7c 1cbf bc23 19bf
00000060: b25e 17bf be9a 18bf 26f9 17bf 8140 1bbf
00000070: afdd 19bf a02e 19bf 034c 18bf e602 18bf
00000080: f004 19bf 8fc6 17bf bfed 1cbf 5652 1cbf
00000090: ce13 19bf fc31 1cbf c518 19bf f182 1abf
000000a0: 7841 18bf 1acc 1cbf 58ab 1bbf 3039 17bf
000000b0: 4d2a 18bf 875f 19bf 8ac5 1abf 9a1b 19bf
000000c0: 7288 19bf d414 1cbf 5eb7 1cbf 0c97 18bf
000000d0: f1c4 1bbf 6055 17bf 9e53 19bf 7fa3 1abf
000000e0: 884c 1cbf fcba 19bf c2d8 17bf 3b46 19bf
000000f0: efaf 16bf 35d6 1bbf 456d 19bf 577e 17bf
00000100: 4779 17bf c792 1cbf fd02 1b3f 1edc 1cbf
00000110: b5b5 1a3f 86e1 19bf 442c 1abf 0ac6 18bf
00000120: f2fc 1bbf f906 17bf e4c5 1cbf 21cc 19bf
00000130: 6c87 1abf e078 16bf 71aa 17bf a140 193f
00000140: b6de 173f aab4 1a3f a3c0 183f a5b6 17bf
00000150: 7f19 18bf 9a2b 1cbf 2327 1abf 8a52 17bf
00000160: 71d8 1cbf b57c 1abf 1a02 19bf f3aa 17bf
00000170: 2753 18bf d66d 17bf 038c 18bf ed95 1abf
00000180: 1535 18bf 3f29 1bbf 157a 1abf 9d17 1bbf
00000190: 85a9 1abf 177d 16bf d2f4 19bf e12e 1bbf
000001a0: c35f 16bf 0894 1bbf 2a6d 1bbf 271c 1cbf
000001b0: 36ca 1abf 4b35 17bf 0204 18bf 0d4f 1abf
000001c0: 4e7f 1cbf 79a8 16bf 19b6 17bf be67 18bf
000001d0: f1b8 1abf 583a 19bf 7abe 19bf 92cf 17bf
000001e0: 636c 1cbf 1090 19bf 2282 1abf e1bd 1abf
000001f0: 735c 1abf 6c10 17bf 54b2 1cbf 6c24 19bf
00000200: bff1 1cbf 68c4 1cbf 6e05 1dbf 9eeb 1bbf
00000210: 9f39 17bf c622 19bf b8ed 18bf 539a 17bf
00000220: 9030 1cbf 2991 16bf 066c 16bf b7ae 1cbf
00000230: b3ee 19bf ddd3 17bf 28a8 18bf dd12 1abf
00000240: 2cb1 1abf c4d2 1abf 59bf 1cbf 8d70 19bf
00000250: 17d8 1cbf 56bc 1abf 1b75 1bbf 83e1 18bf
00000260: c3de 1cbf 37ca 1cbf b660 18bf daf3 1abf
00000270: 9e70 1abf a681 18bf 1b71 1cbf f97a 19bf
00000280: efb5 1bbf c233 19bf f443 19bf a29c 16bf
00000290: 36d6 16bf 56df 18bf 0228 19bf d27c 1cbf
000002a0: e485 1abf 8e0a 17bf a274 1bbf eef3 16bf
000002b0: 3816 1abf e867 19bf b6c5 1c3f e4fa 17bf
000002c0: ffa2 18bf 408c 18bf 1279 18bf 412d 1cbf
000002d0: b07a 1abf d05c 1cbf 140b 1dbf 9628 18bf
000002e0: d222 1cbf be72 18bf 6942 183f 441e 1b3f
000002f0: c9e6 1bbf 81eb 1cbf 3ca6 16bf b640 18bf
00000300: ecab 17bf 09f0 1bbf 0508 18bf f431 1bbf
00000310: 5349 18bf b740 1abf 29ca 1cbf 5fae 173f
00000320: 9118 193f f91e 1cbf c877 17bf 921a 1a3f
00000330: 5ff5 193f 48bf 16bf 8889 1cbf e0e7 16bf
00000340: 640c 1bbf d459 1bbf 93d0 16bf a1b6 1abf
00000350: 761e 1bbf c2ca 1cbf b2c1 18bf fd33 18bf
00000360: 4436 1cbf 507b 16bf 2655 1cbf 26f8 19bf
00000370: f080 19bf 9723 1dbf e244 18bf cc46 18bf
00000380: aa36 18bf c120 1abf 91b2 1cbf df27 1cbf
00000390: c2ec 16bf 86cc 1abf 4dbf 18bf b3db 1bbf
000003a0: 0f41 18bf a3bc 18bf d65f 19bf 4c89 16bf
000003b0: 22cc 17bf d1a5 1bbf 72b1 18bf dcee 16bf
000003c0: 42dd 18bf 48f8 1bbf 4fe5 1cbf 7c13 17bf
000003d0: 52ef 18bf 1dd0 1abf 0cd3 18bf 6d42 1cbf
000003e0: a6da 17bf d661 19bf de9e 17bf 9d5a 17bf
000003f0: eeb7 17bf 07d6 1cbf bab5 1abf bc17 1abf

fully_connect1.bias f4 [10]
-0.58794475 0.59245104 0.6124966 0.6065575 0.58833444 0.6140785 -0.58755475 -0.005953649
-0.60948646 -0.6057946
00000000: 8c83 16bf dfaa 173f 94cc 1c3f 5a47 1b3f
00000010: 169d 163f 4034 1d3f fd69 16bf d416 c3bb
00000020: 4e07 1cbf 5b15 1bbf

fully_connect2.weight f4 [1, 10]
-0.90472984 0.67471683 0.56250197 0.5446387 0.43007764 -0.47736382 0.41825196 0.26363376
0.38514432 -0.35083067
00000000: 609c 67bf 3eba 2c3f 2100 103f 716d 0b3f
00000010: 2333 dc3e 0869 f4be 1f25 d63e 01fb 863e
00000020: a331 c53e 14a0 b3be
