bs48_lr0.001_weight.pt (torch, 240144 bytes, 7 tensors)

conv_1.weight f4 [16, 3, 3, 3]
0	0xbd262876	-0.04056593
1	0x3df3e1bb	0.11908289
2	0x3dc748c6	0.09730677
3	0x3e2713a0	0.1631608
4	0xbd3529a9	-0.044229183
5	0xbe0af611	-0.1357043
6	0xbe21a5d2	-0.15785912
7	0x3e2c1780	0.1680584
8	0xbe46a265	-0.19397886
9	0xbe0fe9ad	-0.14053984
10	0x3c89f6ad	0.016841257
11	0xbdc55a84	-0.09636405
12	0x3e1c71b4	0.1527775
13	0x3db680fb	0.0891132
14	0xbcc0fe52	-0.02355877
15	0xbda4ea78	-0.08052534
16	0xbc9dd3dd	-0.019266063
17	0x3cb38ec9	0.021918671
18	0x3db6f80f	0.08934032
19	0x3e3de14d	0.18542977
20	0xbdb95dd7	-0.09051102
21	0xbdee9793	-0.11650004
22	0xbe039a8d	-0.12851925
23	0x3e17e581	0.14833643
24	0xbdbffbad	-0.09374175
25	0x3e3b2d6c	0.18279046
26	0xbe3b1234	-0.18268663
27	0x3e37db77	0.17954813
28	0x3bfe024e	0.0077517396
29	0xbde385fd	-0.111095406
30	0xbe4a8b4d	-0.19779702
31	0xbdcfe213	-0.10150542
32	0x3e30b4b3	0.17256431
33	0xbc4be75a	-0.012445295
34	0xbddd2438	-0.10797924
35	0x3de83831	0.11338843
36	0xbd333fed	-0.043762136
37	0xbdcef8f8	-0.10106081
38	0xbdf898ae	-0.12138496
39	0xbdce8d2a	-0.10085519
40	0xbd21bed0	-0.039488614
41	0x3d7f5cfd	0.06234454
42	0x3d89f334	0.067358404
43	0xbdc2e979	-0.095171876
44	0xbdb513f0	-0.088416934
45	0xbd289363	-0.041156184
46	0x3d90494c	0.0704523
47	0xbe35f515	-0.17769273
48	0xbc152945	-0.009104078
49	0x3d0954ae	0.033528022
50	0x3d582f45	0.052779455
51	0x3e1873e8	0.14887965
52	0x3dc533db	0.09629031
53	0x3ddeb411	0.10874189
54	0x3db459ba	0.088061765
55	0xbe223ca4	-0.15843445
56	0xbd1a0e9c	-0.03761159
57	0x3d9d2ca4	0.0767453
58	0x3b6b3c11	0.0035893957
59	0xbd29c846	-0.04145076
60	0x3e427d94	0.18993217
61	0xbd5c3eb8	-0.05377075
62	0x3b847f18	0.004043471
63	0xbd574464	-0.052555457
64	0x3dfa363e	0.12217377
65	0x3dec55c4	0.11539796
66	0xbe1a1448	-0.15046799
67	0xbdc9f187	-0.09860521
68	0x3e3a3bac	0.18186826
69	0xbe1291ee	-0.1431348
70	0xbe3948e5	-0.18094213
71	0xbe4447da	-0.19168034
72	0xbd154129	-0.036439095
73	0xbe150a72	-0.14554766
74	0x3e1daf42	0.15398887
75	0x3e1a6f1f	0.15081452
76	0xbda36402	-0.07978059
77	0xbe18c723	-0.14919715
78	0xbe3496a9	-0.17635597
79	0x3e21dfaf	0.15807985
80	0xbe40186f	-0.1875932
81	0x3ce70b80	0.028203726
82	0x3db8a871	0.09016503
83	0x3df65297	0.120274715
84	0x3dd75a18	0.10515231
85	0x3de21b0f	0.11040317
86	0xbe5c0734	-0.21487123
87	0x3d2d7a8e	0.042353205
88	0x3d3b203f	0.04568505
89	0xbe4b3bae	-0.19846985
90	0x3e0674c3	0.13130479
91	0x3da2fd2f	0.07958447
92	0xbd950f46	-0.07278304
93	0xbbcf2e28	-0.006322641
94	0xbc694b25	-0.014239107
95	0xbdbbaf94	-0.09164348
96	0xbde8361a	-0.11338444
97	0x3d0e92d4	0.034807995
98	0xbd872d01	-0.06600381
99	0xbe04b6d1	-0.12960364
100	0xbc3d1c32	-0.011542367
101	0xbd2292bc	-0.039690718
102	0xbe02857a	-0.1274623
103	0x3e5a76c1	0.21334364
104	0xbd4b4445	-0.049625654
105	0xbdb197e5	-0.0867155
106	0xba4696e8	-0.00075755874
107	0x3dc0dbed	0.094169475
108	0x3db57cac	0.0886167
109	0xbe0a5d5c	-0.13512176
110	0x3dd9b80f	0.106308095
111	0x3caf9f05	0.021438131
112	0xbd930ba0	-0.07179952
113	0x3e147224	0.14496666
114	0xbd77b58a	-0.060475864
115	0x3cd90240	0.02649033
116	0x3e45e104	0.19324118
117	0xbe0b10d3	-0.13580637
118	0x3e2f837e	0.17140004
119	0xbdabd75a	-0.083906844
120	0xbe0ba488	-0.13636982
121	0x3e066714	0.13125259
122	0x3dd49031	0.10379065
123	0xbd52cb68	-0.051463515
124	0x3da62e8c	0.08114347
125	0x3e081fca	0.13293377
126	0xbd405a9b	-0.046961408
127	0x3e13eb71	0.14445283
128	0x3e371a74	0.17881185
129	0x3e594188	0.21216404
130	0xbd18ea84	-0.037333027
131	0x3db5727d	0.088597275
132	0x3cb42c69	0.021993833
133	0x3d42cd74	0.047559217
134	0x3d80a5b3	0.062816046
135	0x3d8413cc	0.064490885
136	0x3de43303	0.11142542
137	0x3d7ef96b	0.062249582
138	0xbe09e786	-0.13467225
139	0xbd995c6f	-0.074883334
140	0xbd99103f	-0.07473802
141	0xbe39a42b	-0.18129031
142	0x38ed2154	0.000113072485
143	0x3d3d6596	0.046239458
144	0xbd19769c	-0.03746663
145	0x3e154de6	0.14580497
146	0x3e1a27e2	0.15054277
147	0xbe14b3ae	-0.14521667
148	0xbdc2b002	-0.09506227
149	0x3e2cbf1d	0.16869779
150	0xbe2ceaa8	-0.1688639
151	0x3b291c12	0.0025804085
152	0x3e6d978a	0.23202339
153	0xbd9d9f8c	-0.07696447
154	0xbd9c6288	-0.07635981
155	0xbe40f747	-0.18844329
156	0x3e2ab6d1	0.16671301
157	0xbe44d4d5	-0.19221814
158	0x3ddc577b	0.10758873
159	0x3d4aa0ad	0.04946964
160	0xbd34faa9	-0.04418436
161	0x3d2f4c26	0.04279723
162	0x3e06cee6	0.13164863
163	0xbdeadb14	-0.11467567
164	0x3db30731	0.08741606
165	0x3e205e4f	0.15660976
166	0x3d7203e0	0.059085727
167	0xbcff025a	-0.031129051
168	0x3d1230c7	0.03569105
169	0xbdea3524	-0.11435917
170	0xbc5d7e27	-0.013518847
171	0xbdfe8e15	-0.12429444
172	0xbddfc93e	-0.10927056
173	0x3e2b5d38	0.16734779
174	0xbdb4246c	-0.087960094
175	0x3d0b05fa	0.033941247
176	0xbe16417a	-0.14673415
177	0x3e4edcca	0.20201412
178	0xbdc10d3f	-0.094263546
179	0x3d742f37	0.05961534
180	0xbe28d47a	-0.16487303
181	0x3e268f2b	0.16265552
182	0x3dc67ee0	0.09692168
183	0x3d118530	0.035527408
184	0x3db9b96a	0.09068568
185	0xbdcedd24	-0.10100773
186	0xbd675aec	-0.056483194
187	0x3ddaf683	0.1069155
188	0x3c90d96a	0.017681796
189	0x3d158181	0.036500458
190	0x3d906abb	0.07051607
191	0x3e282acc	0.16422576
192	0x3e05a0e9	0.13049664
193	0x3e19039b	0.14942782
194	0xbdce6b47	-0.10079055
195	0x3e0b5cb8	0.13609588
196	0x3e252f57	0.1613134
197	0x3e193f46	0.14965543
198	0xbd8a55e9	-0.06754667
199	0xbca4d1bd	-0.020119542
200	0xbdba12d8	-0.090856254
201	0xba3d3a29	-0.00072184444
202	0x3d0a6623	0.03378881
203	0xbcfb5f22	-0.030685011
204	0x3e25badc	0.16184562
205	0xbe22c4c5	-0.15895374
206	0x3d91219c	0.070864886
207	0xbe18c773	-0.14919834
208	0x3e134ecb	0.14385526
209	0xbd43125a	-0.047624923
210	0xbe0084aa	-0.12550607
211	0x3d62d7ae	0.05538147
212	0x3c576d79	0.013148659
213	0xbdbb2b38	-0.09139103
214	0x3d2d2cab	0.042278927
215	0x3d9cb0db	0.0765092
216	0xbda9d65c	-0.08292839
217	0xbe1bdcf2	-0.15221003
218	0x3e21bbc4	0.15794283
219	0xbd233ca0	-0.03985274
220	0x3d4b5db8	0.049649924
221	0x3e5b744c	0.21431082
222	0xbd191fe9	-0.037383948
223	0x3e01aa37	0.12662588
224	0x3cb4bf45	0.02206386
225	0xbda7d859	-0.08195562
226	0xbe1283e8	-0.1430813
227	0x3c2c7a6b	0.010527234
228	0x3e24b9df	0.16086529
229	0xbe345280	-0.17609596
230	0x3d51da0b	0.051233333
231	0xbd4de8d8	-0.050270885
232	0x3d786821	0.06064618
233	0x3d526f98	0.051375955
234	0x3d86e5e5	0.06586818
235	0xbd87c446	-0.06629233
236	0xbd2abdad	-0.041684795
237	0xbe4a727b	-0.19770233
238	0x3de6eedf	0.1127603
239	0xbd4a3a65	-0.049372096
240	0xbda248df	-0.07924055
241	0xbc447e0e	-0.011992944
242	0x3d0d7c9b	0.03454266
243	0xbdd89510	-0.105753064
244	0xbe40a2ac	-0.18812054
245	0xbe2c8939	-0.16849221
246	0xbe2a4794	-0.16628867
247	0xbdbb070e	-0.09132205
248	0x3e13c7d5	0.14431699
249	0xbe3807f0	-0.17971778
250	0xbce3ff81	-0.027831795
251	0xbe4e6865	-0.20157011
252	0x3b919ace	0.004443503
253	0x3e53e1ff	0.2069168
254	0xbdf0a6f3	-0.11750593
255	0x3e01489a	0.12625352

conv_1.bias f4 [16]
0	0x3e2687a8	0.16262686
1	0xbe43c4dc	-0.19118065
2	0xba902ba4	-0.0010999334
3	0xbddc9f00	-0.10772514
4	0xbd6f7c3a	-0.05846808
5	0xbe22d589	-0.1590177
6	0xbcb742c8	-0.022370711
7	0xbe15e613	-0.14638548
8	0xbdad388a	-0.084580496
9	0xbdcb3fa2	-0.09924246
10	0x3e113925	0.14181955
11	0xbe0b0904	-0.13577658
12	0x3ba4a457	0.0050244736
13	0xbc9050f0	-0.017616719
14	0x3da53b8e	0.08068
15	0xbe02428d	-0.127207

conv_2.weight f4 [32, 16, 3, 3]
0	0xbcb97568	-0.022638991
1	0xbd4ba320	-0.049716115
2	0xbc06853f	-0.008210479
3	0xbd06a8b0	-0.032875717
4	0x3d611a02	0.054956444
5	0xbdae1c07	-0.085014395
6	0xbd835d18	-0.064142406
7	0x3d6ae47a	0.0573468
8	0xbaa7bbcd	-0.0012797058
9	0x3b845faa	0.0040397244
10	0xbd0489c6	-0.032357953
11	0x3cf48afc	0.02985143
12	0x3db12d40	0.08651209
13	0x3d24d256	0.040239654
14	0x3d7b99a4	0.06142582
15	0xbd727a48	-0.059198648
16	0x3b18c8b8	0.0023312997
17	0x3d7eb924	0.062188283
18	0xbd0db8c8	-0.03460005
19	0xbd05e21e	-0.032686345
20	0xbc267154	-0.0101588555
21	0x3d968656	0.07349841
22	0xbb7f7c17	-0.0038983875
23	0x3d59980e	0.053123526
24	0xbc7151b5	-0.014728953
25	0xbbc88481	-0.0061193113
26	0xbd8c2314	-0.06842628
27	0xbe008931	-0.12552334
28	0xbc2f1596	-0.010686299
29	0xbe096d83	-0.13420682
30	0xbd2e25dd	-0.042516578
31	0xbcdfe5da	-0.027331281
32	0x3bee3196	0.0072690947
33	0xbdab535a	-0.083655074
34	0xbd9019bd	-0.07036159
35	0xbcd02406	-0.025407802
36	0xbc85b36b	-0.016320905
37	0x3d406ef6	0.04698082
38	0x3d6e4355	0.05816968
39	0xbcb6e8bb	-0.022327771
40	0x3d36a7bf	0.04459357
41	0xbd09c769	-0.033637438
42	0x3c90629f	0.017625151
43	0x3d8d54dd	0.06900952
44	0x3c24f8be	0.01006907
45	0xbdcc3ab2	-0.09972133
46	0xbd0ef4eb	-0.03490154
47	0xbd8e9706	-0.06962399
48	0xbcef22fb	-0.029191485
49	0xbcd977fc	-0.02654647
50	0xbdac6494	-0.08417621
51	0xbdf88f58	-0.12136716
52	0xbcc40bf4	-0.023931481
53	0xbd85f00a	-0.065399244
54	0x3cedc3e4	0.029024072
55	0xbd7b8af1	-0.0614118
56	0x3da20c12	0.079124585
57	0xbda2b43d	-0.07944534
58	0xbcd67cf4	-0.02618263
59	0x3c2d9450	0.0105944425
60	0x3cff1e4f	0.031142382
61	0xbd537f81	-0.05163527
62	0xbd89fd23	-0.06737735
63	0x3d08569f	0.033285733
64	0xbd72df9c	-0.05929528
65	0xbd65349f	-0.055958387
66	0xbd72f73c	-0.059317812
67	0xbdbe6b8b	-0.09297856
68	0xbdc7db95	-0.09758679
69	0x3d7a806d	0.061157633
70	0xbc3302c6	-0.010925954
71	0xbd753f22	-0.05987466
72	0xbe0dc787	-0.13845645
73	0xbdb619a2	-0.08891608
74	0xbddac49c	-0.106820315
75	0x3c7d54e9	0.015462139
76	0xbdd0b993	-0.101916455
77	0xbdbf44a1	-0.09339262
78	0xbdb358bb	-0.08757158
79	0xbcf5da7a	-0.030011404
80	0xbc915336	-0.017739873
81	0x3ddb999e	0.107226595
82	0x3dbea82e	0.093094215
83	0x3dc95fec	0.09832749
84	0x3d2f9943	0.04287077
85	0x3dc95cdf	0.09832167
86	0xbcfa7e85	-0.030577907
87	0x3cb49a2e	0.022046175
88	0x3a657801	0.0008753539
89	0x3d29b8b0	0.041435897
90	0x3d296d70	0.041364133
91	0xbbcd8478	-0.006271895
92	0x3ddb298f	0.10701286
93	0x3cbe257c	0.023211233
94	0xbc5b0e12	-0.013370054
95	0xbbb38a74	-0.0054791514
96	0x3dd9a538	0.10627216
97	0x3d1491ef	0.036271986
98	0xbd14ec35	-0.036358077
99	0xbd5e433a	-0.05426333
100	0x3d18ed71	0.037335817
101	0x3c968948	0.018376008
102	0xbd69aab1	-0.05704755
103	0xbd41eeff	-0.047347065
104	0xbc82318e	-0.01589277
105	0xbcd77912	-0.026302848
106	0x3d7047e8	0.058662325
107	0xbd59a24f	-0.053133305
108	0xbd29ad30	-0.04142493
109	0x3d9b00c0	0.075685024
110	0xbbdc8d00	-0.0067306757
111	0xbd8b18bc	-0.06791827
112	0xbda0f47c	-0.07859132
113	0xbd37cc08	-0.044872314
114	0x3d5b764a	0.053579606
115	0x3cd72e5e	0.026267227
116	0x3c44645d	0.011986819
117	0x3dbe75f9	0.09299845
118	0x3cf011d3	0.029305374
119	0xbd2b4328	-0.041812092
120	0xbd5c675c	-0.05380951
121	0xbc9efef8	-0.019408688
122	0xbd21c8fa	-0.039498307
123	0xbc908ab1	-0.017644258
124	0x3dbf1a40	0.09331179
125	0x3d5680a5	0.05236878
126	0xbdd721f1	-0.10504521
127	0xbc666414	-0.014061946
128	0xbd418bcb	-0.047252458
129	0xbe0987fd	-0.13430782
130	0xbca2e8b1	-0.019886347
131	0xbe2416e7	-0.16024362
132	0xbe00c27b	-0.12574188
133	0xbddb5e79	-0.107113786
134	0xbe1b4461	-0.15162803
135	0x3cc6ee6e	0.024283614
136	0xbd7e4958	-0.062081665
137	0xbccdb0a6	-0.025108647
138	0x3c24803c	0.010040339
139	0xbc9f2ddf	-0.019431053
140	0x3d42f7b7	0.04759952
141	0xbd50a7e6	-0.05094137
142	0x3d11a7ed	0.035560537
143	0xbd68f8f9	-0.056878064
144	0x3d080a87	0.033213165
145	0x3d06f2cc	0.032946393
146	0x3ce06757	0.027393026
147	0x3d857f28	0.06518394
148	0xbcd8d433	-0.026468372
149	0xbd3ce4d7	-0.046116676
150	0xbd98241f	-0.074287646
151	0xbd9a4fd2	-0.07534756
152	0x3d16a902	0.036782272
153	0xbdbab2f9	-0.091161676
154	0xbd9cf7c4	-0.07664445
155	0xbcafb858	-0.021450207
156	0x3d335f69	0.043792162
157	0x3c373ef3	0.011184442
158	0x3ce8f610	0.028437644
159	0xbd3f277e	-0.046668522
160	0x3c4d3b2f	0.0125263175
161	0xbd003844	-0.03130366
162	0xbd28f060	-0.041244864
163	0xbd5f87ed	-0.05457299
164	0xbd9d3bf0	-0.07677448
165	0x3d83669b	0.06416055
166	0x3ba4164d	0.0050075413
167	0xbd46bfdf	-0.048522826
168	0xbbdfd4af	-0.006830774
169	0x3c8b0d78	0.016974196
170	0xbd7745c8	-0.060369283
171	0x3cd52993	0.0260208
172	0x3b94d0aa	0.0045414763
173	0x3be02151	0.006839909
174	0xbda9d20b	-0.08292016
175	0x3d9afa58	0.075672805
176	0x3d4380c8	0.047730237
177	0xbd6f3d46	-0.058408044
178	0x3d8b0c18	0.06789416
179	0x3c98b339	0.018640148
180	0xbd063761	-0.032767657
181	0xbc7f4252	-0.015579777
182	0xbcc2dc08	-0.02378656
183	0xbd6b6ade	-0.057474963
184	0xbd539169	-0.051652346
185	0x3ce02083	0.027359253
186	0xbda5cafc	-0.08095357
187	0x3c3fc587	0.011704809
188	0x3c19f568	0.009396888
189	0xbcd675cc	-0.026179217
190	0xbcb86bfb	-0.022512427
191	0xbcc7ecd5	-0.024404923
192	0xbd8e4a12	-0.069477215
193	0xbd12e976	-0.035867177
194	0x3cbc0776	0.022952776
195	0x3d64fe03	0.055906307
196	0x3d1d6e55	0.0384353
197	0xbc8cf5c3	-0.017207032
198	0x3c0a5715	0.008443614
199	0x3d0cf853	0.034416508
200	0xbcd36558	-0.02580516
201	0x3d64381b	0.05571757
202	0xbc75a15a	-0.0149920825
203	0xbda23d01	-0.07921792
204	0x3d185072	0.037186094
205	0x3d8ae099	0.0678112
206	0x3c536313	0.012902039
207	0xbd7aced4	-0.061232403
208	0x3d6759fc	0.0564823
209	0xbd34bd21	-0.04412568
210	0x3c10bdac	0.008834284
211	0x3d847784	0.06468108
212	0x3d09f3d2	0.03367979
213	0xbd744e4b	-0.05964498
214	0x3cd0ba94	0.025479592
215	0x3c94ccdf	0.018164096
216	0x3becd735	0.007227803
217	0x3cd03275	0.025414685
218	0x3dad87b1	0.08473147
219	0x3cb7ea28	0.022450522
220	0xbd7931e1	-0.060838584
221	0xbc44cc75	-0.012011637
222	0x3c22e6d1	0.009942726
223	0x3b8e8d67	0.0043503526
224	0x3db1a3f2	0.08673848
225	0x3d4c1bfc	0.049831375
226	0xbda112b2	-0.07864894
227	0x3ca0c9a0	0.019627392
228	0xbcd5976a	-0.026073176
229	0x3d61754f	0.055043515
230	0xbd84f6da	-0.06492396
231	0xbd24e6dd	-0.04025923
232	0xbca2d627	-0.019877506
233	0xbd9f6e0a	-0.0778466
234	0x3d90ad7d	0.0706434
235	0xbaa0ff08	-0.0012283036
236	0xbc534fff	-0.0128974905
237	0xbd2b11c1	-0.04176498
238	0x3d05e858	0.032692283
239	0xbcaa3ddf	-0.020781456
240	0xbd09929a	-0.033587076
241	0x3d0403dc	0.032230243
242	0x3d7cf665	0.061758418
243	0xbd735076	-0.059402905
244	0xbc659e4d	-0.014014793
245	0xbd71b794	-0.059012964
246	0x3cda8453	0.026674425
247	0x3d87f8e2	0.066392675
248	0x3d060141	0.03271604
249	0xbd1be952	-0.03806431
250	0xbd8e3917	-0.06944483
251	0x3da2577e	0.07926844
252	0xbda83977	-0.082140855
253	0x3d52e78d	0.051490355
254	0x3d90cd3e	0.07070397
255	0xbc86cd90	-0.016455442

conv_2.bias f4 [32]
0	0x3d0fb0c4	0.035080686
1	0x3bd1f73f	0.006407648
2	0xbd605ef8	-0.05477807
3	0xbd0166de	-0.031592242
4	0xbc636c52	-0.013880806
5	0xbd13ea4f	-0.036112126
6	0x3cb861f1	0.02250764
7	0x3d33f740	0.043936968
8	0xbcb1bb02	-0.021695618
9	0xbd153864	-0.03643073
10	0x3c16a346	0.009194201
11	0x3d6da1ed	0.058015753
12	0x3bccc4cc	0.006249046
13	0xbd64ef15	-0.05589207
14	0xbd87b41e	-0.066261515
15	0x3a6a90e9	0.0008947985
16	0x3cd23ca6	0.025663685
17	0xbd242ac1	-0.040079836
18	0xbd891114	-0.066927105
19	0x3c9da58b	0.019243976
20	0xbd0c7efc	-0.03430079
21	0x3da3ef87	0.080046706
22	0xbd562bf8	-0.052288026
23	0xbd841769	-0.06449778
24	0xbd8be46e	-0.06830679
25	0x3d8bd20e	0.06827174
26	0x3c2c3da5	0.010512744
27	0x3c856e93	0.016288077
28	0x3d36e41b	0.044651132
29	0x3d80ae2c	0.06283221
30	0xbdab92e8	-0.083776295
31	0xbbca23c3	-0.006168814

fully_connect1.weight f4 [10, 5408]
0	0x3bee5c22	0.0072741667
1	0x3cbb2a91	0.022847446
2	0x3c954cce	0.0182251
3	0x3ccc5621	0.024943413
4	0x3cc38a27	0.023869587
5	0x3c41a3c1	0.011818827
6	0x3d258c8d	0.040417243
7	0x3d0335fb	0.0320339
8	0x3c9ce4fb	0.019152155
9	0x3d06cac3	0.032908212
10	0x3d28a08d	0.04116874
11	0x3d13eabb	0.03611253
12	0x3ceaac26	0.02864654
13	0x3b045b18	0.0020195898
14	0xbc8a0fbd	-0.016853208
15	0x3c75dd87	0.0150064295
16	0x3cd654bc	0.026163451
17	0x3cd483fa	0.025941838
18	0x3c233fc0	0.00996393
19	0x3c67a808	0.014139183
20	0x3cdaba21	0.026700081
21	0x3c75c52b	0.015000622
22	0x3bdbdd1a	0.006709707
23	0x3c44d429	0.012013474
24	0x3ce26af3	0.027638888
25	0xbadb128c	-0.0016713901
26	0xbcac8fc2	-0.021064643
27	0x3c02c573	0.007981646
28	0x3c567ee4	0.0130917765
29	0x3cb092be	0.021554347
30	0x3c3ea894	0.011636872
31	0x3d1be7a7	0.038062718
32	0x3d9fe790	0.07807839
33	0x3d95d6f7	0.07316392
34	0x3c269f39	0.010169798
35	0xba473f2c	-0.0007600661
36	0x3c1d8935	0.009615232
37	0x3c3c624e	0.011498047
38	0xbc8ff564	-0.017573066
39	0xbb687647	-0.003547089
40	0x3bb24df1	0.0054414202
41	0xbc174ed3	-0.009235102
42	0xbc5ce97a	-0.0134833995
43	0xbc1ef1cd	-0.0097012045
44	0x3cf4413d	0.029816264
45	0x3d0d9ca2	0.034573205
46	0x3ced62f0	0.028977841
47	0x3c430c62	0.011904808
48	0xbaab15d7	-0.0013052773
49	0xbcda1e01	-0.026625635
50	0xbbcac359	-0.006187838
51	0xbc0c1a5b	-0.0085512055
52	0xbc368ad4	-0.011141498
53	0xbcaf846b	-0.021425446
54	0x3c23b81f	0.009992628
55	0xbcd598cb	-0.026073834
56	0x3d14c6fe	0.036322586
57	0x3c93523a	0.017983545
58	0x3ac68202	0.0015144947
59	0xbb1a2889	-0.0023522696
60	0x3cb16042	0.021652345
61	0xba239c0e	-0.00062412105
62	0xbca60ba4	-0.020269223
63	0x3bac7b65	0.005263733
64	0xbc99c0bf	-0.018768666
65	0xbc9fc8fa	-0.019505013
66	0xbcef1b84	-0.029187925
67	0xbb65bfb4	-0.003505689
68	0xbc804611	-0.01565841
69	0xbc790249	-0.015198299
70	0x3c1c74f3	0.009549367
71	0xbca41e36	-0.020033937
72	0xbce453aa	-0.027871925
73	0x3bc3cd5a	0.0059754075
74	0x3c2ad8c7	0.01042766
75	0xbc076e7e	-0.0082660895
76	0xbcd7ecfe	-0.026358124
77	0xbcf27706	-0.02959777
78	0xbd2f74b6	-0.042835914
79	0xbd24dcad	-0.040249515
80	0xbcffd1a1	-0.031227889
81	0xbce1af43	-0.027549392
82	0xbcfb7d26	-0.030699324
83	0xbc17ee7c	-0.009273168
84	0xbd038ec2	-0.032118566
85	0xbcc7f857	-0.02441041
86	0xbccdd928	-0.025127962
87	0xbd29ca3a	-0.041452624
88	0xbc8c6125	-0.017136166
89	0xbd3fb7b6	-0.04680606
90	0xbd64029f	-0.055666562
91	0xbcd77587	-0.026301159
92	0xbd6e7116	-0.058213316
93	0xbd685f35	-0.05673142
94	0xbd6c9080	-0.057754993
95	0xbc14c046	-0.009079045
96	0xbc586213	-0.0132069765
97	0x3b88f3ea	0.0041794674
98	0xbc7c3996	-0.015394589
99	0xbc29198c	-0.010321032
100	0xbcafd911	-0.02146581
101	0xbcd0aacc	-0.025472067
102	0xbd47b5c6	-0.048757337
103	0xbd308df4	-0.043104127
104	0xbd8b4fb1	-0.06802309
105	0xbd0f20f5	-0.03494354
106	0xbd115ae0	-0.035487056
107	0xbcd775d8	-0.02630131
108	0x3ba45ff2	0.0050163204
109	0xbcee70a5	-0.029106447
110	0xbbdd940b	-0.006762033
111	0xbc9bebd9	-0.01903336
112	0x3ab712b8	0.0013967371
113	0xbc6f874f	-0.014619662
114	0xbc0b01a9	-0.0084842825
115	0xbcb738cd	-0.022365952
116	0xbd34bb02	-0.044123657
117	0xbc897035	-0.016777137
118	0xbd3f0e4c	-0.046644494
119	0xbd461a26	-0.04836478
120	0xbd3b1eed	-0.04568379
121	0xbd1abd58	-0.03777823
122	0xbd0dbaed	-0.034602094
123	0xbcaa1b76	-0.020765048
124	0xbcd5aba7	-0.026082827
125	0xbc821125	-0.015877316
126	0xbd1d7bf3	-0.038448285
127	0xbd0d75cd	-0.03453617
128	0xbd8efb36	-0.069815084
129	0xbcf6483b	-0.030063739
130	0xbcb5f967	-0.02221365
131	0xbc9e9871	-0.0193598
132	0xbd59714a	-0.053086556
133	0xbcf241c9	-0.029572384
134	0xbd38d248	-0.045122415
135	0xbd4d331b	-0.050097566
136	0xbc8f8e72	-0.017523978
137	0xbd04df2a	-0.03243939
138	0xbd16a7c4	-0.036781088
139	0xbd1afac1	-0.037836794
140	0xbc8447d6	-0.016147535
141	0xbd442de7	-0.04789534
142	0xbd4cb1a0	-0.049974084
143	0xbc8c3391	-0.017114433
144	0xbcdfe923	-0.027332848
145	0xbc9e8e87	-0.019355072
146	0xbd3b20cb	-0.04568557
147	0xbd1c3685	-0.03813793
148	0xbc2a231b	-0.010384346
149	0xbd19d25e	-0.037554137
150	0xbcd39ed1	-0.025832566
151	0xbcdba3ee	-0.026811566
152	0xbd20e218	-0.03927812
153	0xbd066cdc	-0.03281866
154	0xbd20add8	-0.03922829
155	0xbc747deb	-0.014922599
156	0xbb14d962	-0.0022712578
157	0xbc2b1076	-0.010440936
158	0xbc2c182d	-0.010503811
159	0xbbe9672a	-0.007122894
160	0xbd330593	-0.043706488
161	0xbb965014	-0.004587183
162	0xbcce8e59	-0.025214361
163	0x3ad75580	0.0016428679
164	0xbd1073ed	-0.035266805
165	0xbd67489f	-0.05646574
166	0xbcdd4b84	-0.027013548
167	0xbca38293	-0.019959724
168	0xbc8ac6bf	-0.016940473
169	0x3cb23e39	0.021758186
170	0x3c92bd7d	0.01791262
171	0x3c156adc	0.009119716
172	0x3d0346dd	0.032050002
173	0xba30a392	-0.0006738241
174	0xbbcd63d1	-0.0062680026
175	0xbbe90dc3	-0.007112236
176	0x3ba6ac4d	0.005086458
177	0x3c635859	0.013876044
178	0x3ccaebca	0.024770636
179	0x3ce091ef	0.027413337
180	0x3c81a14d	0.015823985
181	0x3bb906a1	0.005646542
182	0x3c594ead	0.013263387
183	0x3c2122b4	0.009834934
184	0x3c3b7c5c	0.011443224
185	0x3c338b66	0.010958528
186	0x3c698bb2	0.014254497
187	0x3ba36a1c	0.0049870145
188	0x3c902cd7	0.017599506
189	0xb9ea953c	-0.00044743146
190	0x3c3ddd2e	0.011588378
191	0x3cd27ed1	0.025695236
192	0x3ca5f511	0.020258458
193	0x3d31fba6	0.04345288
194	0x3c5a4007	0.013320929
195	0x3c07b238	0.008282237
196	0x3c5215d4	0.012822587
197	0x3ca43851	0.020046385
198	0x3cfaa888	0.03059794
199	0x3b93f777	0.004515584
200	0xbbce1eb4	-0.006290281
201	0xbba46729	-0.0050171805
202	0x3b176543	0.0023101128
203	0x3c080761	0.0083025405
204	0x3d04557e	0.032308094
205	0x3d00af69	0.031417284
206	0x3cb830ab	0.022484144
207	0x3d2f4833	0.042793464
208	0x3ce5d621	0.028056206
209	0x3c7738e2	0.0150892455
210	0x3ca46319	0.020066785
211	0x3c1e2bcf	0.0096539995
212	0x3bb47e4a	0.005508219
213	0x3c623e31	0.013808773
214	0x3babea50	0.005246438
215	0x3b56585a	0.003270647
216	0x3c56c790	0.013109103
217	0x3c98b670	0.01864168
218	0x3ba33212	0.004980334
219	0x3bfea67e	0.0077713123
220	0x3c85468c	0.016268991
221	0x3ce93e73	0.02847216
222	0x3c00857b	0.007844324
223	0xba907a50	-0.001102278
224	0x3c07e45f	0.008294194
225	0x3ce1db0a	0.027570266
226	0x3bb76c26	0.005597609
227	0x3cce59f1	0.025189372
228	0x3c25ee31	0.01012759
229	0xbacaf88f	-0.0015485453
230	0x3c9c7279	0.019097554
231	0xb8afae92	-8.3771665e-05
232	0x3cca59e3	0.024701064
233	0x3aeaa2bc	0.0017901282
234	0x3ca79c5e	0.020460304
235	0xbbfc8771	-0.0077065756
236	0x3c3b1c1c	0.011420276
237	0x3b8875a8	0.0041644163
238	0x3c8f2afe	0.017476555
239	0x3c5b957c	0.013402339
240	0x3bfbdab3	0.007685983
241	0x3c9cc97b	0.019139042
242	0x3c83ddf3	0.016097045
243	0x3c91f7dc	0.017818384
244	0x3c278fa5	0.010227119
245	0x3b5bfe53	0.0033568337
246	0x3c3523f5	0.011055936
247	0x3cfdd7a2	0.03098661
248	0x3c3eeec4	0.011653606
249	0x3cd51881	0.026012661
250	0xbbb8e5c5	-0.005642625
251	0xbc5aa6bc	-0.013345417
252	0xbc602d9a	-0.013682747
253	0xbb242ce0	-0.0025051162
254	0x3be0ec20	0.006864086
255	0x3b86de7c	0.0041158777

fully_connect1.bias f4 [10]
0	0x3bc8ee2c	0.006131908
1	0x3ca86606	0.020556461
2	0xbbea5559	-0.0071512875
3	0x3c0c139b	0.008549596
4	0xbc10e1fd	-0.008842942
5	0xbbae7933	-0.0053245067
6	0xbc2207f3	-0.009889591
7	0x3c75e412	0.0150079895
8	0x3baa4120	0.005195752
9	0xbc5b978a	-0.013402829

fully_connect2.weight f4 [1, 10]
0	0x3dea83b1	0.114508994
1	0x3e14ceb1	0.14531972
2	0xbe053e19	-0.1301197
3	0xbe163d43	-0.14671807
4	0xbe4c18c1	-0.19931318
5	0x3ea01c83	0.31271753
6	0xbe64624d	-0.22303124
7	0x3e3b22aa	0.18274942
8	0xbda3aec2	-0.07992317
9	0x3dc5ec8d	0.09664259
